data/goto_green_pose_c.pt (torch_old, 85021 bytes, 5 tensors)

fc.0.weight f4 [128, 9]
0.01872413 -0.47684458 -0.20882815 0.47330612 0.19625854 -0.11289444 0.09153063 -0.33310813
-0.13715239 -0.7015484 -0.29953718 -0.311802 -0.06131544 0.25842527 -0.49632496 0.2837638
-0.11877793 -0.22327484 -0.07944079 0.09079512 0.6276861 0.405195 0.13405798 0.15127972
0.18870921 0.31887382 0.08235578 -0.086592846 -0.25328696 -0.6814943 0.14703184 0.39699253
-0.052333176 0.60657 -0.5416006 -0.1302115 -0.00059203117 0.17515895 -0.14625508 -0.011599109
-0.3198797 0.1375707 0.14336511 -0.28902933 0.073321395 -0.28157508 -0.43786615 -0.71344537
0.036116146 0.47498086 -0.15270166 0.4254764 -0.5714539 -0.40094867 0.45484495 0.08291539
0.40709898 0.010118064 -0.37065125 0.21410978 -0.48072404 0.4363815 0.40709406 -0.42883998
-0.2995748 -0.31980318 0.15931806 0.5226651 -0.4867594 0.21279459 -0.19230403 -0.43812802
0.29539844 -0.038616955 0.41491085 -0.11430577 -0.6395296 0.2814522 -0.3616876 0.38888133
0.42583373 0.43014446 0.30520543 0.28505805 0.019248981 -0.5837532 0.15692316 -0.34611854
0.12345003 0.3268834 0.23146833 -0.10329645 0.04075835 -0.026609212 -0.20224294 0.21980923
-0.05133147 -0.1973538 0.020744516 -0.3224761 -0.04045257 -0.639424 -0.1535223 0.5834384
-0.20157275 0.2817826 -0.2847981 -0.2946968 -0.34751698 -0.3094435 -0.45279416 -0.16323435
0.45546928 -0.16279638 0.4286776 -0.36645097 -0.5615234 0.46205154 0.16301204 0.45049784
0.13215056 -0.3357646 0.06706947 -0.080288075 0.040027354 0.38702488 -0.34062204 0.020438597
-0.38543656 0.16595383 0.28714365 -0.2615531 0.76789856 -0.44159317 -0.3810154 -0.44916514
-0.12975529 -0.36493582 -0.07501071 0.53825444 -0.37085587 0.17293318 -0.5463257 -0.32640293
-0.7082589 0.018001722 -0.31756365 -0.09184052 0.57507455 -0.6069664 0.2594892 -0.37861437
-0.5461661 -0.2610596 -0.5577634 -0.32551125 0.040882856 0.65163606 0.01550834 0.23047492
-0.4536866 -0.045188226 -0.27595395 -0.15562661 -0.58433855 -0.23373152 0.4366387 -0.17210333
0.5859558 -0.07599632 -0.24790904 -0.17705508 0.17466183 0.28071117 0.41533905 -0.058074348
0.38117385 0.059918728 0.36683208 0.11492813 -0.29904622 -0.3508905 -0.7001354 0.013824767
0.50918645 -0.2349279 0.44544268 -0.3644075 -0.23782152 -0.5798248 -0.53344667 -0.6566142
-0.00063280296 0.40926304 -0.21068497 0.42643446 -0.567472 -0.3153774 -0.1451926 0.16359974
0.368564 0.04931959 -0.27550876 0.3772519 0.13337304 0.13737336 -0.15183493 -0.0688212
0.13943432 0.3150758 0.1635621 -0.30628207 0.70881045 0.3653662 0.316951 -0.053762693
-0.31895736 -0.12776853 -0.52557904 -0.3043791 0.53129154 -0.1497221 0.54843223 -0.40667966
-0.5230694 -0.06667565 -0.22360653 -0.4439477 0.0070045823 0.48124176 -0.19848631 0.55612206
-0.34297058 -0.5594137 0.46894348 0.001838472 0.7110834 -0.26976973 -0.6546533 0.26422685
-0.4523569 0.3841273 0.5111696 -0.38236272 0.048360903 -0.078042164 0.03570994 0.12002627
-0.23186944 0.7388539 -0.36813825 -0.7455879 -0.5828708 -0.16584165 -0.36186883 0.024415927
00000000: 5963 993c f924 f4be 0cd7 55be 2e55 f23e
00000010: 00f8 483e 3335 e7bd 6974 bb3d 268d aabe
00000020: ad71 0cbe ad98 33bf f05c 99be 83a4 9fbe
00000030: e625 7bbd 5150 843e 4e1e febe 7d49 913e
00000040: d841 f3bd 29a2 64be dab1 a2bd cbf2 b93d
00000050: 09b0 203f b875 cf3e 7f46 093e 12e9 1a3e
00000060: fd3c 413e 6e43 a33e 26aa a83d 9757 b1bd
00000070: d4ae 81be 6976 2ebf 848f 163e 9b42 cb3e
00000080: 505b 56bd 2c48 1b3f 56a6 0abf 2a56 05be
00000090: 8a32 1bba de5c 333e e4c3 15be 300a 3ebc
000000a0: 46c7 a3be 55df 0c3e 4ece 123e a7fb 93be
000000b0: 8729 963d 9c2a 90be fe2f e0be 5ba4 36bf
000000c0: 86ee 133d b130 f33e d35d 1cbe 0bd8 d93e
000000d0: ce4a 12bf 2549 cdbe 70e1 e83e 8bcf a93d
000000e0: 476f d03e 3cc6 253c 00c6 bdbe 983f 5b3e
000000f0: 7621 f6be 656d df3e a26e d03e ea90 dbbe
00000100: de61 99be 3ebd a3be 4624 233e 61cd 053f
00000110: 8738 f9be d3e6 593e 59eb 44be 5152 e0be
00000120: 773e 973e d02c 1ebd 326f d43e 2519 eabd
00000130: 36b8 23bf 811a 903e 1e2f b9be 741b c73e
00000140: e106 da3e e53b dc3e e343 9c3e 21f3 913e
00000150: 0ab0 9d3c da70 15bf 77b0 203e 7336 b1be
00000160: 5fd3 fc3d 435d a73e 0906 6d3e 178d d3bd
00000170: 3af2 263d 90fb d9bc c618 4fbe ac15 613e
00000180: f340 52bd 1d17 4abe 67f0 a93c 961b a5be
00000190: 98b1 25bd 4bb1 23bf f334 1dbe 385c 153f
000001a0: 1669 4ebe cf45 903e 0ed1 91be 80e2 96be
000001b0: bfed b1be 616f 9ebe a3d4 e7be e826 27be
000001c0: 4533 e93e 18b4 26be a17b db3e 769f bbbe
000001d0: ffbf 0fbf 0592 ec3e a1ec 263e a7a7 e63e
000001e0: 7a52 073e 56e9 abbe b85b 893d 136e a4bd
000001f0: b9f3 233d 2028 c63e 0366 aebe d86e a73c
00000200: f157 c5be cdef 293e 7e04 933e 4aea 85be
00000210: 0095 443f 8018 e2be 7314 c3be f9f8 e5be
00000220: 92de 04be ded8 babe 379f 99bd 0bcb 093f
00000230: d2e0 bdbe 6515 313e 00dc 0bbf 491e a7be
00000240: 7550 35bf 5978 933c b497 a2be e216 bcbd
00000250: 1638 133f 2662 1bbf c5db 843e bed9 c1be
00000260: 8bd1 0bbf 9ba9 85be 95c9 0ebf 69a9 a6be
00000270: c874 273d 9fd1 263f b116 7e3c 9e01 6c3e
00000280: 9c49 e8be 4a17 39bd d649 8dbe 955c 1fbe
00000290: 3697 15bf 5157 6fbe 1c8f df3e db3b 30be
000002a0: 3301 163f f5a3 9bbd dedb 7dbe ed4d 35be
000002b0: 8dda 323e 60b9 8f3e 52a7 d43e 5edf 6dbd
000002c0: 3829 c33e 576d 753d 6ad1 bb3e 705f eb3d
000002d0: 961c 99be eba7 b3be 133c 33bf 4781 623c
000002e0: 0b5a 023f f090 70be 1011 e43e 9f93 babe
000002f0: 7c87 73be 666f 14bf f68f 08bf de17 28bf
00000300: b0e2 25ba ed8a d13e cdbd 57be 9e55 da3e
00000310: d845 11bf 2679 a1be 5ead 14be b186 273e
00000320: 6cb4 bc3e 5703 4a3d 7c0f 8dbe 2927 c13e
00000330: f192 083e 9aab 0c3e 9e7a 1bbe 21f2 8cbd
00000340: dfc7 0e3e 9e51 a13e d37c 273e 01d1 9cbe
00000350: 9a74 353f 4711 bb3e 6747 a23e 4536 5cbd
00000360: 614e a3be c1d5 02be 598c 06bf 94d7 9bbe
00000370: b902 083f c050 19be 0e66 0c3f 5138 d0be
00000380: e0e7 05bf 3e8d 88bd 1cf9 64be 1d4d e3be
00000390: b286 e53b 5265 f63e ff3f 4bbe 045e 0e3f
000003a0: d799 afbe bc35 0fbf 5c19 f03e e2f8 f03a
000003b0: 9009 363f 421f 8abe 5c97 27bf be48 873e
000003c0: 539b e7be 55ac c43e 03dc 023f 0cc5 c3be
000003d0: 1516 463d 92d4 9fbd 9644 123d 55d0 f53d
000003e0: 2f6f 6dbe 8725 3d3f 9e7c bcbe d9de 3ebf
000003f0: 0537 15bf 65d2 29be df46 b9be e903 c83c

fc.0.bias f4 [128]
0.17136554 0.23300351 0.16752404 0.3581724 -0.008567526 0.3288217 -0.37165478 0.3489025
-0.28817415 -0.15043019 -0.06471339 0.30490425 0.29872596 -0.19230373 0.37287736 0.23896985
0.25960505 0.27882737 0.38581598 0.18021213 0.34447235 0.2845466 0.19182761 0.18061614
0.30894357 0.33677253 -0.3217196 0.3969024 0.30355275 0.09288758 0.09903252 0.10811769
-0.12674336 0.2731027 0.08147486 -0.07253135 0.30950627 0.026752617 0.11096059 0.32136273
0.27026245 0.28966308 0.2865913 0.38810393 -0.24744396 0.28855518 -0.32038248 0.055751372
0.14705838 0.30086067 0.24525046 0.060271103 0.21591559 0.06916622 0.16280179 -0.22800928
0.3861365 0.10029581 0.09053038 0.31622946 0.30574954 0.041243725 -0.27313712 0.31522056
0.32996076 0.10392404 0.09707363 -0.032829452 0.38546792 0.38299933 0.15251024 -0.12637483
0.3284044 0.2839919 0.3969788 0.36038002 0.32715997 0.29657978 -0.30989343 0.2691931
0.37565017 0.18537323 0.08036871 0.34432593 0.10578705 0.13081694 0.36602816 0.37137112
0.34759605 -0.364511 0.17527756 0.37816444 -0.05807328 0.25804034 0.15977702 0.11607406
0.33492562 0.17882904 0.009809509 0.30167606 0.064481914 0.09251751 0.3372681 0.31468803
0.27835733 0.36032566 0.16026708 0.14395918 0.1235879 0.32463256 0.12246273 0.33030316
0.3511219 0.2967457 0.22430125 -0.39230713 0.28654155 0.30610973 0.13986006 0.28596136
0.21162891 0.2219187 0.34524933 0.16532089 0.2648713 0.053738337 0.34956935 0.18536755
00000000: 737a 2f3e 7998 6e3e 6c8b 2b3e 5f62 b73e
00000010: cf5e 0cbc 515b a83e 8949 bebe 59a3 b23e
00000020: 908b 93be 5f0a 1abe 7488 84bd 691c 9c3e
00000030: 9cf2 983e 45eb 44be c8e9 be3e 83b4 743e
00000040: f4ea 843e 76c2 8e3e ac89 c53e 8789 383e
00000050: ae5e b03e 18b0 913e 756e 443e 70f3 383e
00000060: da2d 9e3e 736d ac3e 6eb8 a4be cb36 cb3e
00000070: 446b 9b3e d83b be3d 90d1 ca3d cf6c dd3d
00000080: 03c9 01be 1ed4 8b3e 4bdc a63d 518b 94bd
00000090: 9b77 9e3e 4e28 db3c 4e3f e33d a889 a43e
000000a0: d75f 8a3e b84e 943e 18bc 923e 8fb5 c63e
000000b0: f361 7dbe 81bd 933e 2c09 a4be 8d5b 643d
000000c0: 7996 163e 690a 9a3e f022 7b3e d5de 763d
000000d0: fa18 5d3e 05a7 8d3d 83b5 263e 447b 69be
000000e0: afb3 c53e e467 cd3d fe67 b93d d4e8 a13e
000000f0: 348b 9c3e 2eef 283d a1d8 8bbe 9764 a13e
00000100: 9ef0 a83e 21d6 d43d 8ace c63d 2d78 06bd
00000110: 0d5c c53e 7d18 c43e a52b 1c3e 6768 01be
00000120: 9f24 a83e 6367 913e ce40 cb3e bb83 b83e
00000130: 8381 a73e 4ed9 973e 5aaa 9ebe aed3 893e
00000140: 3855 c03e 7bd2 3d3e 5a98 a43d 7d4b b03e
00000150: e2a6 d83d e0f4 053e 0b68 bb3e 5b24 be3e
00000160: 1cf8 b13e 30a1 babe f67b 333e c59e c13e
00000170: 3fde 6dbd dd1d 843e 969c 233e 3db8 ed3d
00000180: 5f7b ab3e f61e 373e 10b8 203c 4975 9a3e
00000190: 180f 843d d279 bd3d 68ae ac3e ca1e a13e
000001a0: da84 8e3e 9b7c b83e 0e1d 243e 096a 133e
000001b0: a71b fd3d 3d36 a63e bdcd fa3d 7f1d a93e
000001c0: 40c6 b33e 0def 973e 3aaf 653e 7bdc c8be
000001d0: 93b5 923e 6aba 9c3e 7a37 0f3e 8769 923e
000001e0: 40b5 583e a83e 633e 85c4 b03e e149 293e
000001f0: 369d 873e bb1c 5c3d c1fa b23e fed0 3d3e

fc.1.weight f4 [128, 128]
-0.3428016 -0.25222114 0.21850394 -0.3091566 -0.0754844 -0.4893193 0.22454557 -0.36655658
0.41268247 0.123727925 0.102630906 -0.5158922 -0.454401 0.19114709 -0.42088103 -0.5004038
-0.42474285 -0.22079167 -0.6278186 0.1029202 -0.38679686 -0.548376 0.20901552 0.25181833
-0.330978 -0.45659533 0.39190692 -0.3258504 -0.42210317 0.23185623 -0.022751285 0.3263673
-0.054627575 -0.28268614 0.3186999 0.036814813 -0.32905078 0.16410428 0.19826904 -0.2729987
-0.414988 -0.5173323 -0.51035696 -0.31545672 0.139742 -0.47716025 0.26739234 0.26397023
0.2218289 -0.14763808 -0.535559 -0.028242353 0.07874278 0.39164156 0.23973073 0.20167157
-0.095616 0.22310531 0.2636674 -0.5110106 -0.2609698 0.1757302 0.35702425 -0.4840048
-0.35852978 0.25288415 0.3436359 0.13107686 -0.35241053 -0.23365873 -0.007001143 -0.033778813
-0.43112513 -0.32487917 -0.2447253 -0.081935674 -0.4422065 -0.4295242 0.14737676 -0.49415463
-0.36216846 0.21199892 0.1620988 -0.36414152 0.26713452 0.25116086 -0.37592432 -0.44733855
-0.42171428 0.28838435 0.11150561 -0.39583528 -0.016574329 -0.2651624 0.12272841 0.08057189
-0.17270462 0.3490734 0.057807546 -0.48760262 0.37775514 0.15600626 -0.49384224 -0.3412242
-0.2872354 -0.19467326 0.18845835 0.09701849 0.2535747 -0.4904662 0.25062004 -0.22912557
-0.3936744 -0.50045055 0.2853688 0.2626102 -0.35444885 -0.23020357 0.11349791 -0.13545126
-0.406643 0.2978848 -0.33864763 -0.062364057 -0.30544975 0.06877545 -0.32578993 0.30178973
0.2893049 0.4041008 -0.2554242 0.31005868 -0.04397484 0.40635955 -0.32758367 0.07084313
-0.40162882 -0.451716 -0.34876674 0.15920074 0.53143036 -0.38350007 0.47088018 0.8899783
0.35815614 0.38922882 0.19767095 -0.42530948 0.5100012 0.4769886 -0.11022076 -0.5307333
0.25813282 0.34202716 -0.13258637 0.3968783 0.1206557 -0.2733099 -0.19066805 -0.31069028
-0.4981547 0.44540533 -0.4351936 -0.11183219 0.4391022 -0.28484124 -0.25859421 0.3750135
0.6287839 0.30714694 0.5056835 0.41434726 -0.2543294 0.41422793 -0.37272686 -0.21795921
-0.3197425 0.54298764 0.34833217 -0.09444223 -0.2734718 -0.064482875 -0.30349544 -0.33433312
0.53259534 -0.34488475 -0.3629715 0.342558 0.3745124 -0.17062338 -0.64168936 0.4024583
0.5421033 -0.4118234 -0.34884837 0.021406824 0.43647918 0.15760458 -0.18794729 -0.3347628
0.3399987 0.56200373 0.3685232 0.47042146 0.29554886 0.22931485 -0.48051822 0.34371778
0.2612297 -0.21512148 -0.3228125 0.82542396 -0.15891217 -0.31147516 0.42784098 0.44682753
0.35355332 -0.4913969 -0.1324097 0.45135388 -0.06877657 0.19139221 -0.2258769 -0.21658261
0.041118987 -0.24162035 0.06783353 0.42454708 -0.4857626 -0.21066685 0.1616494 0.32110626
0.3103251 0.09476916 -0.034297045 -0.12805802 -0.39023075 0.40863812 -0.17773682 0.23779382
0.5136037 0.43754634 -0.19174749 -0.35474813 0.25952426 0.2265051 -0.28305915 0.40357992
0.47370577 -0.4262911 0.34516832 -0.12145839 0.48849216 -0.056301616 0.2179016 -0.2593457
00000000: b183 afbe 2123 81be 7fbf 5f3e c649 9ebe
00000010: 9197 9abd 0f88 fabe 46ef 653e 4ead bbbe
00000020: 1e4b d33e 1165 fd3d 2730 d23d 8311 04bf
00000030: 3fa7 e8be 10bc 433e b87d d7be 771a 00bf
00000040: e577 d9be 3617 62be b8b8 20bf d3c7 d23d
00000050: 3d0a c6be 5f62 0cbf 2a08 563e 55ee 803e
00000060: f375 a9be ddc6 e9be 06a8 c83e ddd5 a6be
00000070: e81d d8be b86b 6d3e e760 babc 9d19 a73e
00000080: 2ac1 5fbd 3dbc 90be a22c a33e 21cb 163d
00000090: 5879 a8be f40a 283e 0a07 4b3e 7cc6 8bbe
000000a0: 4f79 d4be e46f 04bf c1a6 02bf 8b83 a1be
000000b0: 8718 0f3e 594e f4be a6e7 883e 1b27 873e
000000c0: 1d27 633e 702e 17be 651a 09bf 825c e7bc
000000d0: e543 a13d 3e85 c83e f97b 753e fe82 4e3e
000000e0: 52d2 c3bd b875 643e 6aff 863e 97d1 02bf
000000f0: d59d 85be 9ef2 333e e2cb b63e 7acf f7be
00000100: 3791 b7be 087a 813e 0bf1 af3e 0339 063e
00000110: 276f b4be 3c44 6fbe d869 e5bb a75b 0abd
00000120: 6fbc dcbe 9056 a6be 4599 7abe e4cd a7bd
00000130: e468 e2be 99ea dbbe efe9 163e d601 fdbe
00000140: 256e b9be 3f16 593e 3afd 253e c270 babe
00000150: dbc5 883e 2898 803e 2779 c0be 8f09 e5be
00000160: efea d7be 1da7 933e 0e5d e43d ecaa cabe
00000170: e3c6 87bc 5ec3 87be 0859 fb3d e002 a53d
00000180: 7bd9 30be c0b9 b23e 9bc7 6c3d 0da7 f9be
00000190: 1f69 c13e 1bc0 1f3e e4d8 fcbe f0b4 aebe
000001a0: 8510 93be 6d58 47be 3afb 403e a1b1 c63d
000001b0: 8bd4 813e 631e fbbe 4551 803e e59f 6abe
000001c0: b18f c9be 871d 00bf dc1b 923e d874 863e
000001d0: 527a b5be 7cba 6bbe 9871 e83d bcb3 0abe
000001e0: 8333 d0be 5b84 983e 3963 adbe 7471 7fbd
000001f0: e963 9cbe 25da 8c3d f0cd a6be 2f84 9a3e
00000200: c61f 943e 4de6 ce3e f6c6 82be 03c0 9e3e
00000210: f61e 34bd 5c0e d03e 0cb9 a7be 3416 913d
00000220: 4ba2 cdbe 5247 e7be 8e91 b2be 8505 233e
00000230: d20b 083f 1f5a c4be 3517 f13e 9ed5 633f
00000240: 3e60 b73e 0049 c73e 416a 4a3e 2ac2 d9be
00000250: 708f 023f da37 f43e 6cbb e1bd 23de 07bf
00000260: fc29 843e 2f1e af3e b9c4 07be a233 cb3e
00000270: 561a f73d 46ef 8bbe 7c3e 43be cc12 9fbe
00000280: 220e ffbe 2b0c e43e b2d1 debe 4608 e5bd
00000290: 01d2 e03e b6d6 91be 7666 84be c501 c03e
000002a0: fbf7 203f 5d42 9d3e 7974 013f 5325 d43e
000002b0: 7737 82be af15 d43e 0ed6 bebe b330 5fbe
000002c0: 4ab5 a3be 3d01 0b3f 9858 b23e ee6a c1bd
000002d0: 7f04 8cbe 990f 84bd c163 9bbe b62d abbe
000002e0: 2b58 083f bc94 b0be 67d7 b9be c363 af3e
000002f0: 17c0 bf3e e5b7 2ebe c145 24bf 040f ce3e
00000300: 48c7 0a3f 84da d2be 419c b2be 5d5d af3c
00000310: 337a df3e 1863 213e 4175 40be 0866 abbe
00000320: 4f14 ae3e 7adf 0f3f 13af bc3e 15db f03e
00000330: 2e52 973e 83d1 6a3e 7c06 f6be c7fb af3e
00000340: e6bf 853e ce48 5cbe ae47 a5be fc4e 533f
00000350: dfb9 22be ac79 9fbe f90d db3e 94c6 e43e
00000360: f104 b53e 6098 fbbe 6996 07be db17 e73e
00000370: bbda 8cbd 52fc 433e 464c 67be d5c7 5dbe
00000380: 626c 283d 536b 77be 4eec 8a3d 3c5e d93e
00000390: e0b5 f8be 0db9 57be 6c87 253e 0a68 a43e
000003a0: eee2 9e3e 5516 c23d 0f7b 0cbd a421 03be
000003b0: 53cc c7be 0439 d13e a400 36be 3980 733e
000003c0: 887b 033f 1306 e03e 7459 44be 8ca1 b5be
000003d0: 5de0 843e f4f0 673e 21ed 90be 07a2 ce3e
000003e0: 9089 f23e d442 dabe e7b9 b03e 2dbf f8bd
000003f0: a51b fa3e 869c 66bd 9921 5f3e f6c8 84be

fc.1.bias f4 [128]
-0.239124 0.26992357 0.28536746 -0.2648349 0.24619786 0.27049392 -0.28979442 0.24946235
0.2217719 0.05315938 0.055604625 0.27544925 0.26372254 0.09367338 0.26114804 0.12854545
0.12357272 0.09170265 0.09322042 0.2634286 0.10209523 0.24228394 0.26837343 0.23506229
0.2563498 0.2624031 0.21152435 0.25637954 0.14042978 -0.030910555 0.09667639 0.2637632
0.19433393 0.11670858 0.095844254 0.09936984 0.0873568 -0.2422467 0.23677652 0.28248593
0.2571242 0.29326436 0.15640266 0.26162398 0.13336432 -0.04027151 0.29955986 0.27634802
0.26419872 -0.032296177 0.24977985 0.105631985 0.28503224 0.17545135 0.28712434 0.15147564
0.08748976 0.26788306 0.13041228 0.23720981 -0.21202555 0.0894432 0.24753371 0.23869124
0.13483745 0.09199707 0.25798824 0.2614648 0.2858068 0.25442442 0.29462102 0.102330744
0.21851325 0.12401288 0.12869619 0.08773135 0.15246993 0.08592651 0.30989563 0.25611094
0.27445468 0.12738168 0.2558738 0.15500607 0.25605002 -0.24950624 0.14621513 0.08681445
-0.026952459 0.23599675 0.10156698 0.30085504 0.11126705 0.05200978 0.26994246 0.17717895
0.106215894 0.26110387 -0.26700342 0.067996375 0.25212273 0.11397191 0.14220259 0.09966633
0.11775019 -0.2635945 0.11214426 0.29762498 0.09148643 0.28197357 0.15321036 -0.23947936
0.2945887 0.074994184 0.23939063 -0.26900664 0.22496483 0.10921885 -0.049667053 0.3010215
0.09232081 0.2552063 0.2518418 0.24625923 0.061242335 0.24749796 0.25123078 0.1166612
00000000: ecdc 74be 6c33 8a3e af1b 923e 7198 87be
00000010: 4b1b 7c3e 2e7e 8a3e ef5f 94be 0f73 7f3e
00000020: 2c18 633e a6bd 593d adc1 633d af07 8d3e
00000030: a406 873e d4d7 bf3d 32b5 853e 6ba1 033e
00000040: b213 fd3d 99ce bb3d 59ea be3d 1de0 863e
00000050: 4e17 d13d 4819 783e 3e68 893e 2bb4 703e
00000060: 4840 833e b359 863e d799 583e 2e44 833e
00000070: d3cc 0f3e 2238 fdbc 45fe c53d f80b 873e
00000080: 79ff 463e e804 ef3d fe49 c43d 6a82 cb3d
00000090: 1fe8 b23d 850f 78be 8b75 723e ffa1 903e
000000a0: c8a5 833e bf26 963e 0528 203e 94f3 853e
000000b0: a890 083e bdf3 24bd e95f 993e 7d7d 8d3e
000000c0: 0e45 873e ff48 04bd 4ac6 7f3e 9555 d83d
000000d0: bfef 913e 85a9 333e f601 933e 6e1c 1b3e
000000e0: d52d b33d f827 893e cc8a 053e 21e7 723e
000000f0: 3a1d 59be ff2d b73d 7a79 7d3e 7a6b 743e
00000100: d412 0a3e f668 bc3d 0917 843e b7de 853e
00000110: 4555 923e eb43 823e 91d8 963e c892 d13d
00000120: f0c1 5f3e 77fa fd3d efc8 033e 7eac b33d
00000130: 1421 1c3e 3dfa af3d a4aa 9e3e f920 833e
00000140: 5385 8c3e 5870 023e e401 833e e9b9 1e3e
00000150: fd18 833e 907e 7fbe 6bb9 153e c6cb b13d
00000160: 67cb dcbc 22a9 713e 5902 d03d ac09 9a3e
00000170: fbdf e33d 3508 553d e635 8a3e 666e 353e
00000180: b887 d93d 68af 853e acb4 88be af41 8b3d
00000190: 3b16 813e 1b6a e93d 8e9d 113e dc1d cc3d
000001a0: 0327 f13d dcf5 86be e4ab e53d 4d62 983e
000001b0: 3d5d bb3d d75e 903e 2de3 1c3e 143a 75be
000001c0: 55d4 963e 8d96 993d d122 753e 3dbb 89be
000001d0: 2e5d 663e 22ae df3d ae6f 4bbd 7d1f 9a3e
000001e0: b112 bd3d 66aa 823e 69f1 803e 612b 7c3e
000001f0: 3ed9 7a3d 1b70 7d3e 52a1 803e 11ec ee3d

fc.2.weight f4 [1, 128]
-0.6108723 0.5289181 0.46218 -0.54266053 0.6539283 0.48344484 -0.4522646 0.6192662
0.43524566 -0.28514776 -0.50295115 0.4272656 0.5282826 -0.44892356 0.5983556 -0.31720856
-0.36365566 -0.5015024 -0.31647506 0.5568108 -0.5501237 0.70710206 0.49362728 0.725067
0.590609 0.5527072 0.56902707 0.5392703 -0.39738408 -0.35314843 -0.2575767 0.45363846
0.57632947 -0.35856268 -0.33955613 -0.4233447 -0.24768695 -0.7242167 0.5656584 0.473109
0.5900342 0.43477178 -0.27243742 0.52551216 -0.30757174 -0.2073129 0.4275783 0.4920071
0.54209936 -0.1940254 0.63668585 -0.3261339 0.4590327 -0.30539203 0.46124026 -0.35235056
-0.26460472 0.5219041 -0.3372214 0.5841792 -0.39770874 -0.378815 0.5776954 0.6960211
-0.42407364 -0.30491373 0.57939965 0.53280395 0.44983828 0.53954744 0.42574582 -0.2919977
0.51307744 -0.27402 -0.30645695 -0.65762645 -0.43011263 -0.4167688 0.37535036 0.38036087
0.48620296 -0.42980227 0.5870607 -0.36590347 0.57389957 -0.64220715 -0.50305694 -0.40297014
-0.60463554 0.48153648 -0.37553364 0.41135633 -0.4536579 -0.2950711 0.5151071 -0.28556836
-0.41042167 0.52246475 -0.5234545 -0.4642542 0.57806563 -0.4137689 -0.21829782 -0.3373805
-0.2953031 -0.544864 -0.3102112 0.4409832 -0.33878517 0.46741492 -0.37839884 -0.76506007
0.45197457 -0.44868118 0.62603235 -0.5157742 0.38542026 -0.510555 -0.52510816 0.42982483
-0.44285667 0.5386814 0.380628 0.6049133 -0.37896162 0.63151497 0.58620656 -0.2777416
00000000: 2162 1cbf 2d67 073f dba2 ec3e cdeb 0abf
00000010: d867 273f 1586 f73e 3a8f e7be 3b88 1e3f
00000020: 85d8 de3e e3fe 91be 68c1 00bf 8fc2 da3e
00000030: 873d 073f 4fd9 e5be d52d 193f 2969 a2be
00000040: 1331 babe 7662 00bf 0509 a2be 278b 0e3f
00000050: e8d4 0cbf a404 353f b7bc fc3e fe9d 393f
00000060: 2732 173f 387e 0d3f c2ab 113f 9e0d 0a3f
00000070: ed75 cbbe dfcf b4be 18e1 83be 4d43 e83e
00000080: 548a 133f 8795 b7be 4dda adbe a3c0 d8be
00000090: a6a1 7dbe 4466 39bf fdce 103f 583b f23e
000000a0: 7b0c 173f 689a de3e eb7c 8bbe f787 063f
000000b0: 0b7a 9dbe d549 54be 8beb da3e 5be8 fb3e
000000c0: 06c7 0a3f 98ae 46be d8fd 223f 06fb a6be
000000d0: 5606 eb3e 585c 9cbe af27 ec3e 4b67 b4be
000000e0: 457a 87be 829b 053f 49a8 acbe c58c 153f
000000f0: 7ba0 cbbe 0af4 c1be d9e3 133f 702e 323f
00000100: 2e20 d9be a71d 9cbe 8953 143f d765 083f
00000110: 3451 e63e c81f 0a3f 5bfb d93e b980 95be
00000120: 0b59 033f 594c 8cbe ede7 9cbe 355a 28bf
00000130: b937 dcbe b862 d5be ec2d c03e a9be c23e
00000140: 98ef f83e 0b0f dcbe 9c49 163f b357 bbbe
00000150: 15eb 123f b067 24bf 57c8 00bf 1a52 cebe
00000160: 65c9 1abf f38b f63e f245 c0be 4c9d d23e
00000170: d945 e8be 8f13 97be 0fde 033f 0436 92be
00000180: ca22 d2be 40c0 053f 1d01 06bf bab2 edbe
00000190: 1cfc 133f 84d9 d3be 7789 5fbe 23bd acbe
000001a0: f831 97be 357c 0bbf 01d4 9ebe 8dc8 e13e
000001b0: 4075 adbe 0251 ef3e 7ebd c1be fada 43bf
000001c0: 3669 e73e 8ab9 e5be a843 203f c709 04bf
000001d0: ce55 c53e bcb3 02bf 7d6d 06bf 0012 dc3e
000001e0: 1cbe e2be 06e7 093f ace1 c23e 99db 1a3f
000001f0: 4207 c2be f7aa 213f a211 163f 2634 8ebe
