data/goto_green_pose_uc.pt (torch_old, 85001 bytes, 5 tensors)

fc.0.weight f4 [128, 9]
-0.3892172 -0.6881811 -0.4907669 0.40171045 0.30741364 -0.43327636 0.09131259 -0.4635822
-0.27466542 0.1515943 0.3002758 0.43421242 0.029615717 -0.3765507 0.47856474 -0.67874306
-0.059428304 0.3766968 0.7014773 0.10927676 0.5198358 -0.055015538 -0.60721165 0.26429024
-0.47483426 0.19599321 0.4153952 -0.5366512 -0.23752742 -0.25537527 -0.14946023 0.55433553
-0.37145808 0.73356897 -0.13798241 -0.9108476 -0.085288875 0.5545463 0.11660205 0.23800875
-0.08002982 0.044924162 0.080219395 0.3877593 -0.07615911 -0.18768989 0.03987883 0.20735054
0.55308515 -0.21168466 0.21698019 0.07108317 0.32918754 -0.11470943 0.604287 0.21965553
0.6723572 -0.07025605 -0.7558339 0.49522138 -0.5544333 0.1591196 0.6863487 -0.3705053
0.082984984 -0.43543267 0.068493016 0.48600134 -0.20555504 0.65108275 -0.19889604 -0.023254978
-0.1384705 0.5364171 0.09127557 0.112773016 -0.1673606 0.4702438 0.10403742 0.07190671
-0.09237341 -0.4343777 -0.0942153 -0.16932335 0.1298951 0.5022944 -0.2577664 0.469805
-0.34577942 -0.4148996 -0.42684776 -0.38569632 -0.51628834 -0.118615344 0.49218222 -0.35870615
0.42197388 -0.20453495 -0.34944224 0.5302477 0.42543596 0.5922106 0.03808274 -0.5548507
0.2300851 -0.26247114 0.06308982 0.6596862 -0.18889825 -0.3650246 -0.4915173 0.005364182
0.16245064 -0.51896065 0.59327704 -0.4337548 -0.5702424 -0.62228996 -0.35751233 -0.7560663
0.32832137 0.4894453 -0.49149647 0.4716556 -0.3043743 -0.32073933 -0.30109954 -0.25669152
-0.4029707 -0.156767 0.4140748 -0.32051992 0.34947413 -0.31999102 -0.48102322 -0.42508206
-0.3982386 -0.44976503 -0.17526482 0.40879592 -0.4598358 0.282637 -0.23578243 -0.40410486
-0.6682184 -0.320949 -0.37075892 -0.5856985 0.31340095 0.017227195 0.42481932 -0.022315584
-0.393988 -0.012511882 0.4874956 0.31062874 0.5870889 -0.08096413 0.65802383 0.22359014
0.31629777 -0.34703872 0.1087912 0.5534317 0.06931436 0.07311582 -0.21731953 0.26114392
0.101319246 0.11468186 -0.2672856 -0.46585602 -0.13577121 -0.74663043 -0.042150464 0.56236184
-0.52587193 0.30098593 -0.30060655 -0.30039665 0.5584077 0.22386752 0.68644047 -0.086984314
-0.4795739 0.1493725 -0.6332987 0.054715578 0.2978973 -0.028634213 0.65314007 0.075254865
0.34188023 -0.30981678 0.21325108 0.14419653 0.35383987 -0.31064346 -0.5922489 -0.5096057
-0.6595382 0.16553704 0.331146 -0.3189354 0.5195884 -0.27040192 -0.30182716 0.29798335
0.27908236 0.4459094 -0.25242507 -0.429958 0.2817709 -0.6401995 0.24374625 0.4128282
-0.06705512 0.3035302 -0.11132194 -0.3668655 0.06799872 0.104730375 -0.21295273 0.18465199
0.33868328 0.30269924 0.12914348 0.7336673 -0.13609883 -0.43349755 0.14699595 -0.38278008
-0.07504069 0.4848858 -0.5543758 -0.4010787 -0.6947783 0.027006717 0.20563957 -0.1404658
0.30370167 -0.37495485 -0.58869845 -0.55020493 -0.42109045 -0.24513307 -0.012272296 0.18759938
-0.5218566 0.57370335 -0.65378046 -0.30894178 -0.36340263 -0.30721465 -0.59277517 0.1385724
00000000: 7a47 c7be a32c 30bf cd45 fbbe feac cd3e
00000010: 5265 9d3e 66d6 ddbe 1802 bb3d a55a edbe
00000020: f2a0 8cbe 893b 1b3e c0bd 993e 1751 de3e
00000030: a99c f23c 41cb c0be 7006 f53e 1bc2 2dbf
00000040: 186b 73bd 67de c03e 0494 333f 7ecc df3d
00000050: f613 053f f957 61bd 3972 1bbf 0d51 873e
00000060: 7a1d f3be 72b2 483e aeae d43e f961 09bf
00000070: 633a 73be 8cc0 82be 1a0c 19be efe8 0d3f
00000080: c12f bebe 2dcb 3b3f 434b 0dbe 4f2d 69bf
00000090: efab aebd bff6 0d3f 0ecd ee3d 91b8 733e
000000a0: ade6 a3bd 6602 383d 114a a43d 6388 c63e
000000b0: 4ff9 9bbd c731 40be fc57 233d b353 543e
000000c0: fd96 0d3f ddc3 58be 0e30 5e3e 0e94 913d
000000d0: 458b a83e c7ec eabd 8eb2 1a3f 61ed 603e
000000e0: 9a1f 2c3f 67e2 8fbd 557e 41bf a88d fd3e
000000f0: 57ef 0dbf 40f0 223e 8cb4 2f3f dfb2 bdbe
00000100: 08f4 a93d 08f1 debe 1146 8c3d 2bd5 f83e
00000110: 057d 52be 5cad 263f 67ab 4bbe 3981 bebc
00000120: 36cb 0dbe a252 093f b0ee ba3d 8af5 e63d
00000130: 9460 2bbe ccc3 f03e 9211 d53d d343 933d
00000140: 452e bdbd c166 debe f4f3 c0bd 1a63 2dbe
00000150: 3903 053e 5e96 003f f5f9 83be 488a f03e
00000160: 000a b1be b86d d4be ca8b dabe fd79 c5be
00000170: 792b 04bf 9aec f2bd 4fff fb3e 55a8 b7be
00000180: f60c d83e 9c71 51be 18ea b2be 50be 073f
00000190: bed2 d93e 1d9b 173f a6fc 1b3d b20a 0ebf
000001a0: 6e9b 6b3e 9e62 86be 3c35 813d 32e1 283f
000001b0: 8b6e 41be 81e4 babe 28a8 fbbe 05c6 af3b
000001c0: 7659 263e 9bda 04bf 01e1 173f 1c15 debe
000001d0: 68fb 11bf 654e 1fbf db0b b7be 908d 41bf
000001e0: bd19 a83e 9398 fa3e 6da5 fbbe d87c f13e
000001f0: f3d6 9bbe f237 a4be b829 9abe 126d 83be
00000200: 2d52 cebe 8787 20be 9d01 d43e 301b a4be
00000210: 46ee b23e ddd5 a3be ad48 f6be 5ba4 d9be
00000220: eee5 cbbe 9a47 e6be 9f78 33be b34d d13e
00000230: 996f ebbe ccb5 903e f370 71be d5e6 cebe
00000240: 5c10 2bbf 6d53 a4be 1dd4 bdbe 56f0 15bf
00000250: 1776 a03e 0c20 8d3c eb81 d93e 2ccf b6bc
00000260: ccb8 c9be a3fe 4cbc 0699 f93e bb0a 9f3e
00000270: 754b 163f 86d0 a5bd 4074 283f d0f4 643e
00000280: c8f1 a13e 0faf b1be eccd de3d b3ad 0d3f
00000290: b0f4 8d3d bfbd 953d 0389 5ebe a8b4 853e
000002a0: 7780 cf3d 53de ea3d a8d9 88be ae84 eebe
000002b0: 9c07 0bbe 2c23 3fbf f7a5 2cbd f2f6 0f3f
000002c0: 8b9f 06bf d41a 9a3e 1ae9 99be 97cd 99be
000002d0: cff3 0e3f 873d 653e 90ba 2f3f d524 b2bd
000002e0: b68a f5be 1bf5 183e dd1f 22bf 711d 603d
000002f0: ff85 983e 4c92 eabc 3034 273f 391f 9a3d
00000300: ed0a af3e 4ea0 9ebe 7e5e 5a3e 41a8 133e
00000310: 802a b53e a90c 9fbe a09d 17bf 8575 02bf
00000320: 7fd7 28bf 8b82 293e f88b a93e 804b a3be
00000330: bf03 053f 1f72 8abe 1789 9abe 4691 983e
00000340: e2e3 8e3e 3d4e e43e dc3d 81be 7423 dcbe
00000350: 4744 903e 1de4 23bf 9e98 793e 385e d33e
00000360: 3254 89bd 4f68 9b3e c2fc e3bd cbd5 bbbe
00000370: ea42 8b3d e17c d63d 4810 5abe 6915 3d3e
00000380: e567 ad3e 65fb 9a3e 303e 043e 9fd1 3b3f
00000390: 7e5d 0bbe 64f3 ddbe 1b86 163e c0fb c3be
000003a0: efae 99bd f442 f83e 93eb 0dbf 305a cdbe
000003b0: fedc 31bf 313d dd3c 2e93 523e 44d6 0fbe
000003c0: c97e 9b3e 15fa bfbe f1b4 16bf 3bda 0cbf
000003d0: 2b99 d7be 2a04 7bbe bd11 49bc 0d1a 403e
000003e0: 6598 05bf 39de 123f 285e 27bf 9e2d 9ebe
000003f0: e90f babe 3d4b 9dbe 1dc0 17bf ece5 0d3e

fc.0.bias f4 [128]
0.41813403 -0.37843484 -0.34532207 0.42806324 0.08053613 0.12767495 -0.42812854 0.42847347
0.082889006 0.44427794 0.43399116 -0.29287907 0.41032296 0.41516387 0.40020463 0.42304832
0.35922796 0.021472374 0.15938574 0.42203027 -0.4241275 0.13045983 0.42179263 -0.4171356
0.01628697 -0.39959607 0.4206894 0.41500908 0.42428258 0.39857754 0.35709864 0.41626143
0.42119938 0.41037703 -0.3922333 0.37505066 0.41105548 0.11415079 0.13170236 0.37780985
0.05363596 0.38797098 0.036782656 0.08221779 0.40276718 0.42400253 0.03510195 0.40914938
0.021838851 0.4280502 0.40674555 0.42419705 0.4156549 0.06290543 0.21554789 0.39015174
-0.1748315 0.43288177 0.37104777 0.40949488 0.07739593 0.40262163 0.40417808 0.40659028
0.11200256 0.1429564 -0.42122495 0.02567432 0.07742603 0.4296284 0.36817804 0.42113385
0.11600531 0.4228767 0.4208034 0.039098084 0.3930311 -0.39316246 0.4274995 0.42621714
0.17077038 0.43224984 0.12299991 0.08197416 0.09793759 0.40223533 0.089863576 0.063094415
0.42223418 0.3982238 0.048694212 -0.31419647 0.0853007 0.40854502 0.34608752 0.41862842
0.052582297 0.41763142 0.35196206 0.40196234 0.4259711 0.41626847 0.39995313 0.42329794
-0.43422827 0.06819385 0.42038873 -0.41031983 0.39130223 0.115644224 0.1341292 0.4027238
0.41578943 0.042350627 0.38165805 0.4172946 0.38140184 0.4032399 0.4209467 0.43047678
0.026189929 0.09129043 0.41234565 0.10981042 -0.011453271 0.38900015 0.42112538 0.4271837
00000000: aa15 d63e 36c2 c1be 0ece b0be 1b2b db3e
00000010: 20f0 a43d 39bd 023e aa33 dbbe e060 db3e
00000020: b6c1 a93d 6678 e33e 1734 de3e 3ff4 95be
00000030: da15 d23e 5c90 d43e 9fe7 cc3e ca99 d83e
00000040: baec b73e d5e6 af3c 0436 233e 5a14 d83e
00000050: 3d27 d9be 4397 053e 34f5 d73e cc92 d5be
00000060: 406c 853c db97 ccbe 9a64 d73e 127c d43e
00000070: 913b d93e 5b12 cc3e a2d5 b63e 3820 d53e
00000080: 72a7 d73e f01c d23e ced2 c8be a406 c03e
00000090: dd75 d23e e4c7 e93d fcdc 063e 4b70 c13e
000000a0: 61b1 5b3d 22a4 c63e 69a9 163d cd61 a83d
000000b0: 8037 ce3e dc16 d93e 10c7 0f3d 077c d13e
000000c0: 64e7 b23c 6529 db3e f440 d03e 5b30 d93e
000000d0: b8d0 d43e 90d4 803d 96b8 5c3e f8c1 c73e
000000e0: 0707 33be aea2 dd3e f9f9 bd3e 50a9 d13e
000000f0: c281 9e3d 6c24 ce3e 6ef0 ce3e 9a2c d03e
00000100: 9961 e53d 2a63 123e ccaa d7be f452 d23c
00000110: 8a91 9e3d 41f8 db3e d581 bc3e db9e d73e
00000120: 3194 ed3d 4b83 d83e 8b73 d73e 5025 203d
00000130: 5f3b c93e 974c c9be 37e1 da3e 2239 da3e
00000140: 6ede 2e3e da4f dd3e 60e7 fb3d 12e2 a73d
00000150: 8193 c83d caf1 cd3e 650a b83d a537 813d
00000160: 142f d83e fde3 cb3e 9573 473d 5cde a0be
00000170: 22b2 ae3d d02c d13e 6232 b13e 7756 d63e
00000180: 8960 573d c9d3 d53e 5f34 b43e 02ce cd3e
00000190: e218 da3e 2421 d53e a8c6 cc3e 82ba d83e
000001a0: 2b53 debe 38a9 8b3d 313d d73e 7115 d2be
000001b0: c458 c83e e1d6 ec3d 2a59 093e d031 ce3e
000001c0: 5ae2 d43e da77 2d3d af68 c33e a3a7 d53e
000001d0: 1a47 c33e 7675 ce3e 5386 d73e 7467 dc3e
000001e0: 438c d63c 7af6 ba3d f81e d33e 49e4 e03d
000001f0: 80a6 3bbc 072b c73e bf9d d73e d2b7 da3e

fc.1.weight f4 [128, 128]
-0.1499182 0.028719753 -0.16607697 0.19903855 0.28222632 0.29016316 -0.13135318 0.2955317
0.3062532 0.0022052266 0.008522467 -0.00021736891 0.13351227 -0.007675773 0.0064523867 -0.086487524
0.1754222 0.39663726 0.44199452 -0.025128357 -0.15969348 0.40456265 -0.039282963 -0.30406827
0.16148958 -0.30390257 0.12349792 -0.10240486 -0.13737771 -0.01578865 0.04634152 0.12345669
0.103832155 -0.08514128 0.01509916 0.17929274 -0.061408035 0.36079082 0.50128 -0.1238956
0.17197001 0.037176825 0.40599006 0.28889874 0.079599515 -0.04159846 0.29144123 -0.05817312
0.10336253 0.060913593 -0.26468185 -0.28007832 -0.32408515 0.30387864 0.40832856 -0.14185815
-0.14244765 -0.0059534386 0.036430318 -0.26703697 0.11849207 0.06410839 -0.14450288 0.34965393
0.104084745 0.48116973 -0.07719408 0.19929403 0.48549494 -0.1609231 0.10887862 -0.10026301
0.36266744 -0.069310784 0.03856654 0.4833049 0.1336676 -0.13738339 -0.11715279 -0.07150606
0.19046989 0.2449673 0.33418134 0.41105884 0.2709965 -0.08528714 0.23724547 0.26451713
0.027656877 -0.052653622 0.13245307 -0.086231925 0.20433906 -0.0365797 -0.028837848 0.08502838
0.34353277 -0.19225985 0.2552075 0.009741663 -0.11382468 0.18765503 -0.00753845 0.08858914
-0.07288988 0.09130773 0.0010893352 -0.079161905 0.03406642 0.33670205 0.236005 0.14526697
0.030752072 0.4016301 -0.12184495 -0.193065 0.050874487 0.2021377 -0.09876081 -0.39431107
0.31562144 0.09386931 0.08356862 0.47932127 0.3546572 0.1948307 0.3182597 -0.19753544
-0.25635922 -0.10249784 -0.023147892 -0.009042739 0.28934935 0.5570441 0.12595914 0.0546987
0.3324174 -0.056868393 0.01003397 0.002252176 -0.06025403 0.059411492 0.12856357 -0.19282585
0.16093086 0.21783149 0.18175027 0.037034016 0.04231763 0.33740392 0.25978994 -0.036724806
0.3861193 0.02559952 -0.12843531 0.058472265 0.028915575 0.04680441 0.030388784 -0.051149733
0.07466402 0.046541087 0.08878342 -0.016991984 0.06621875 0.20904529 0.25220314 -0.16115028
0.18326356 -0.095397964 0.28827024 0.11373191 -0.08313415 0.13552883 0.2585228 0.021544946
0.015382147 -0.051281918 0.033521425 -0.19523677 -0.1303858 0.55380315 0.43755844 -0.33890295
-0.121073455 -0.048791554 0.04455977 -0.13439715 0.33154675 -0.07701419 -0.034260407 -0.11871627
0.09588981 0.33367372 0.07584745 0.33928674 0.49518934 -0.17915185 0.38844132 0.20176132
0.2542203 -0.019060327 -0.4014168 0.4140421 0.06750191 0.018252145 -0.18150884 -0.059778392
0.17786442 0.114210024 0.30050454 0.6019675 0.32241622 0.05877025 0.56215554 0.24657154
0.19730207 0.21215397 0.41964096 0.01858968 0.37781218 -0.06745621 0.10605103 0.09140401
0.21375673 -0.05930832 0.19955108 0.29469448 -0.11915586 0.10114118 -0.039655898 -0.21941584
0.023836952 0.26312196 -0.03963015 0.11007535 0.0078049977 0.07579173 0.365869 -0.067330316
-0.110634014 0.0486088 0.043100256 0.03403513 0.37311676 0.13236915 -0.16023734 0.0907434
0.4682062 0.26285657 0.14161241 0.30664754 0.44467485 -0.16234781 -0.0952487 -0.072425544
00000000: 2884 19be b045 eb3c 1510 2abe c3d0 4b3e
00000010: f87f 903e 4490 943e 7381 06be ee4f 973e
00000020: 38cd 9c3e 9085 103b d1a1 0b3c 86ed 63b9
00000030: 71b7 083e 0d85 fbbb 8b6e d33b 5f20 b1bd
00000040: e1a1 333e 0a14 cb3e 1b4d e23e fcd9 cdbc
00000050: b086 23be d622 cf3e 2ce7 20bd d6ae 9bbe
00000060: 865d 253e 1e99 9bbe 7aec fc3d a4b9 d1bd
00000070: beac 0cbe 3357 81bc 9bd0 3d3d dcd6 fc3d
00000080: f4a5 d43d 8d5e aebd 7862 773c 8498 373e
00000090: fe86 7bbd 93b9 b83e e353 003f fabc fdbd
000000a0: e818 303e ba46 183d eedd cf3e 89ea 933e
000000b0: 1205 a33d 2663 2abd c937 953e f046 6ebd
000000c0: bcaf d33d 8880 793d 6184 87be 6d66 8fbe
000000d0: 7dee a5be fb95 9b3e 7110 d13e 4343 11be
000000e0: ccdd 11be 1015 c3bb f537 153d 12b9 88be
000000f0: f8ab f23d 424b 833d 90f8 13be d705 b33e
00000100: 622a d53d e15b f63e ee17 9ebd bc13 4c3e
00000110: cb92 f83e 06c9 24be c1fb de3d b156 cdbd
00000120: 8caf b93e d0f2 8dbd f3f7 1d3d bd73 f73e
00000130: 29e0 083e 3bae 0cbe cded efbd c571 92bd
00000140: 8a0a 433e b5d8 7a3e d119 ab3e 4e76 d23e
00000150: 0ec0 8a3e 06ab aebd 7af0 723e ca6e 873e
00000160: ad90 e23c 53ab 57bd c7a1 073e 5d9a b0bd
00000170: 423e 513e 98d4 15bd 5a3d ecbc 5c23 ae3d
00000180: 87e3 af3e c4df 44be 8faa 823e 7f9b 1f3c
00000190: ea1c e9bd a428 403e 1a05 f7bb 396e b53d
000001a0: 4a47 95bd 8cff ba3d 06c8 8e3a a31f a2bd
000001b0: 3b89 0b3d 3664 ac3e 4bab 713e ddc0 143e
000001c0: c5eb fb3c 76a2 cd3e d889 f9bd d5b2 45be
000001d0: c461 503d 2ffd 4e3e 1c43 cabd 24e3 c9be
000001e0: 2299 a13e 8e3e c03d 0626 ab3d 9969 f53e
000001f0: a195 b53e b381 473e eff2 a23e bb46 4abe
00000200: 8441 83be 63ea d1bd a6a0 bdbc ff27 14bc
00000210: 9925 943e 719a 0e3f 6ffb 003e be0b 603d
00000220: 9d32 aa3e d5ee 68bd 8565 243c 3e99 133b
00000230: eecc 76bd 7759 733d 2ba6 033e 2474 45be
00000240: 0fcb 243e 380f 5f3e be1c 3a3e fbb0 173d
00000250: 4055 2d3d 35c0 ac3e 3003 853e c06c 16bd
00000260: 6eb1 c53e 16b6 d13c 8c84 03be 9d80 6f3d
00000270: 5be0 ec3c fbb5 3f3d e6f1 f83c 6282 51bd
00000280: 73e9 983d dea1 3e3d 15d4 b53d c632 8bbc
00000290: b29d 873d f80f 563e c520 813e 9404 25be
000002a0: 71a9 3b3e 0260 c3bd 2898 933e 47ec e83d
000002b0: 3d42 aabd 12c8 0a3e 1a5d 843e 077f b03c
000002c0: 6705 7c3c fd0c 52bd c34d 093d 26ec 47be
000002d0: db83 05be 0bc6 0d3f a907 e03e b084 adbe
000002e0: 5cf5 f7bd a7d9 47bd 4e84 363d 689f 09be
000002f0: 7fc0 a93e 9eb9 9dbd a454 0cbd 8421 f3bd
00000300: e061 c43d 48d7 aa3e e855 9b3d feb6 ad3e
00000310: 7589 fd3e 9573 37be c8e1 c63e 859a 4e3e
00000320: 2a29 823e 6724 9cbc 8186 cdbe 53fd d33e
00000330: 713e 8a3d 8685 953c 74dd 39be 30da 74bd
00000340: 1722 363e f2e6 e93d bbdb 993e 8b1a 1a3f
00000350: bd13 a53e 13b9 703d 6de9 0f3f 407d 7c3e
00000360: 8e09 4a3e e43e 593e 2edb d63e 6249 983c
00000370: 9970 c13e 7b26 8abd 4831 d93d 0732 bb3d
00000380: 0be3 5a3e 48ed 72bd 1e57 4c3e 32e2 963e
00000390: fd07 f4bd 1b23 cf3d 396e 22bd 8cae 60be
000003a0: b645 c33c ecb7 863e 3953 22bd 2f6f e13d
000003b0: 11c1 ff3b b238 9b3d 2e53 bb3e 7ae4 89bd
000003c0: 1694 e2bd 051a 473d e589 303d 6c68 0b3d
000003d0: 2909 bf3e c78b 073e 4215 24be add7 b93d
000003e0: b9b8 ef3e 2395 863e d802 113e e800 9d3e
000003f0: 6cac e33e 813e 26be c011 c3bd d853 94bd

fc.1.bias f4 [128]
0.08231738 0.057002254 0.060512815 0.07565416 0.016714528 0.36898348 0.31643006 -0.013269982
0.36151665 -0.040021013 0.05898068 0.31859803 0.0015490279 -0.40465033 0.031305287 -0.042558253
0.3296903 0.33200705 0.062954105 0.07252094 0.39311987 0.33043906 -0.016406711 0.047843136
0.064198196 0.30634624 0.36555263 0.2988668 0.31725532 0.08160842 0.27474517 0.3191259
0.008517623 0.33578277 0.3810663 0.37660226 0.06777285 0.351664 0.08207326 0.3453597
0.31462535 0.30923745 0.036034152 0.032414727 0.29913592 0.31392804 0.31911287 0.38466242
-0.36054316 0.3022016 0.32646468 0.31860167 0.34335145 0.28362006 0.32625538 0.03163314
-0.31684026 -0.30941087 -0.3177731 0.32569566 0.05175697 0.1052287 0.28960064 0.08128553
-0.31404996 0.31229365 0.3231306 0.08737562 0.3115085 0.090199575 0.06592953 0.3091624
-0.34629664 0.3605758 0.07051189 0.06775585 0.10130028 0.013050945 0.31056294 0.04820209
-0.07145714 0.32032445 0.38806155 0.30549902 0.33020598 -0.32886273 0.29621822 0.11191926
0.3042574 0.38132447 0.30912653 -0.014939183 0.31872165 0.06983109 0.3760305 0.05309466
-0.36782593 0.0732684 0.38651067 0.09437499 0.3892419 0.36830825 0.32362422 0.34975144
0.30369437 0.2615921 0.3593721 0.31912658 0.030881915 0.33072644 0.36210433 0.32921228
0.37864232 -0.34895346 0.0998256 0.3307692 0.32788262 0.07648461 0.048125736 0.079885
0.050358355 -0.048685126 -0.2903732 0.31641698 0.07176988 0.31298712 0.013403794 0.055259746
00000000: 0496 a83d 327b 693d 49dc 773d 91f0 9a3d
00000010: e8ec 883c 67eb bc3e 1f03 a23e 576a 59bc
00000020: b618 b93e 13ed 23bd ba95 713d 481f a33e
00000030: c008 cb3a 542e cfbe f939 003d 9051 2ebd
00000040: 2bcd a83e d4fc a93e 15ee 803d dc85 943d
00000050: 0247 c93e 4f2f a93e 5e67 86bc 2af7 433d
00000060: 587a 833d 6ad9 9c3e b729 bb3e 1205 993e
00000070: 4a6f a23e 5122 a73d 66ab 8c3e 7864 a33e
00000080: 808d 0b3c b8eb ab3e 1f1b c33e 03d2 c03e
00000090: 7ecc 8a3d 4e0d b43e 0616 a83d fdd2 b03e
000000a0: 9316 a13e 5f54 9e3e 8c98 133d 4ec5 043d
000000b0: 5828 993e 2dbb a03e c362 a33e 79f2 c43e
000000c0: 1d99 b8be 2bba 9a3e 6126 a73e c21f a33e
000000d0: c3cb af3e a636 913e f20a a73e c091 013d
000000e0: e338 a2be 1a6b 9ebe 28b3 a2be 95c1 a63e
000000f0: 1eff 533d 2582 d73d 8946 943e 0779 a63d
00000100: 28cb a0be f4e4 9f3e 6071 a53e fdf1 b23d
00000110: 0b7e 9f3e 8eba b83d 1006 873d 894a 9e3e
00000120: cb4d b1be 649d b83e 8a68 903d 94c3 8a3d
00000130: 8576 cf3d a1d3 553c 1b02 9f3e 8e6f 453d
00000140: 1f58 92bd 9101 a43e 01b0 c63e 5e6a 9c3e
00000150: c210 a93e b260 a8be eaa9 973e ed35 e53d
00000160: a0c7 9b3e f63c c33e d545 9e3e 7ac3 74bc
00000170: 7c2f a33e 9a03 8f3d 1287 c03e c979 593d
00000180: ae53 bcbe be0d 963d bae4 c53e ad47 c13d
00000190: b74a c73e e692 bc3e 13b2 a53e 9f12 b33e
000001a0: d47d 9b3e 66ef 853e 9fff b73e 8f64 a33e
000001b0: 12fc fc3c fa54 a93e bd65 b93e 838e a83e
000001c0: 68dd c13e 07aa b2be 5d71 cc3d 955a a93e
000001d0: 3be0 a73e f7a3 9c3d 7e1f 453d bf9a a33d
000001e0: 9044 4e3d 0e6a 47bd ccab 94be 6801 a23e
000001f0: 16fc 923d d93f a03e 969b 5b3c 0b58 623d

fc.2.weight f4 [1, 128]
-0.48188516 -0.37332603 -0.7228164 -0.6658768 -0.53537893 0.45196247 0.66766465 -0.26019052
0.49449944 -0.48263073 -0.51145434 0.41560847 -0.32306266 -0.43981773 -0.6474181 -0.22153021
0.5995846 0.47538283 -0.57713014 -0.4703834 0.46346208 0.6134094 -0.45801428 -0.5237876
-0.40748286 0.6966409 0.48906854 0.52159786 0.5844087 -0.5401416 0.6329422 0.62129086
-0.5795534 0.5715617 0.4539523 0.47435403 -0.4768324 0.5270931 -0.6066135 0.53046507
0.6984335 0.7354451 -0.3692535 -0.32340485 0.8504624 0.67105156 0.6840777 0.461431
-0.51056796 0.87777764 0.6161643 0.68287283 0.5487923 0.6171049 0.61235005 -0.491087
-0.6974014 -0.76319313 -0.69585323 0.5630654 -0.51169586 -0.38105822 0.9679158 -0.69619584
-0.71909446 0.6992269 0.66130036 -0.57621425 0.5338395 -0.3852289 -0.50270414 0.5911629
-0.5499377 0.5077337 -0.5523126 -0.52368695 -0.66392416 -0.33275244 0.73966527 -0.575001
-0.7768309 0.64812624 0.4581423 0.5598919 0.60900694 -0.6185421 0.62087995 -0.3882934
0.6309805 0.46436816 0.70064807 -0.63458765 0.64477575 -0.49241197 0.44815052 -0.53039277
-0.48417017 -0.72454506 0.45591038 -0.3817527 0.45562497 0.48822567 0.6179038 0.57037187
0.67578864 0.5544937 0.50824076 0.6457505 -0.7298223 0.59190243 0.4768673 0.5406625
0.47756734 -0.52895683 -0.37091103 0.6026446 0.7094402 -0.40316346 -0.600289 -0.38803676
-0.46541214 -0.36949816 -0.3964538 0.64495254 -0.4179848 0.6897468 -0.50600386 -0.44703245
00000000: a7b9 f6be 9724 bfbe 7f0a 39bf e776 2abf
00000010: 980e 09bf a067 e73e 12ec 2a3f b137 85be
00000020: 082f fd3e 601b f7be acee 02bf a2ca d43e
00000030: 7868 a5be ca2f e1be 31bd 25bf d1d8 62be
00000040: 607e 193f 6165 f33e cdbe 13bf 18d6 f0be
00000050: e74a ed3e 6608 1d3f d980 eabe f216 06bf
00000060: 98a1 d0be 0f57 323f 3167 fa3e 7087 053f
00000070: cf9b 153f b846 0abf 8008 223f eb0c 1f3f
00000080: 9d5d 14bf de51 123f 706c e83e 88de f23e
00000090: 6023 f4be 93ef 063f 064b 1bbf 8fcc 073f
000000a0: 8acc 323f 2146 3c3f cb0e bdbe 5295 a5be
000000b0: e7b7 593f 09ca 2b3f b71f 2f3f af40 ec3e
000000c0: 95b4 02bf 09b6 603f f2bc 1d3f c1d0 2e3f
000000d0: a77d 0c3f 96fa 1d3f f9c2 1c3f c16f fbbe
000000e0: e688 32bf a060 43bf 7023 32bf 0e25 103f
000000f0: 80fe 02bf 101a c3be 54c9 773f e439 32bf
00000100: 9316 38bf 8900 333f fb4a 293f c782 13bf
00000110: b5a9 083f b93c c5be 38b1 00bf 7456 173f
00000120: b8c8 0cbf d6fa 013f 5c64 0dbf 5910 06bf
00000130: eff6 29bf 875e aabe b45a 3d3f 4433 13bf
00000140: 64de 46bf 9aeb 253f a191 ea3e 1355 0f3f
00000150: e1e7 1b3f c658 1ebf fdf1 1e3f 64ce c6be
00000160: f087 213f aac1 ed3e ac5d 333f 5674 22bf
00000170: 0610 253f 6c1d fcbe fc73 e53e d2c7 07bf
00000180: 27e5 f7be c97b 39bf 166d e93e 1775 c3be
00000190: ad47 e93e b7f8 f93e f22e 1e3f e403 123f
000001a0: 7c00 2d3f 4df3 0d3f 111c 023f e84f 253f
000001b0: a2d5 3abf eb86 173f f327 f43e dc68 0a3f
000001c0: b583 f43e b769 07bf 0de8 bdbe eb46 1a3f
000001d0: df9d 353f 716b cebe 8aac 19bf c1ac c6be
000001e0: 804a eebe dd2e bdbe fefb cabe 9c1b 253f
000001f0: 1b02 d6be 3f93 303f 7889 01bf 70e1 e4be
