data/goto_green_pose_c_le.pt (torch_old, 85015 bytes, 5 tensors)

fc.0.weight f4 [128, 9]
00000000: 0120 9ebb 5bf1 af3e be68 4c3e 06dd 983e
00000010: afa6 413e 79b4 c03e a4dc 19bd c6b2 833e
00000020: 7ba0 8a3e 87ef 653c 3355 783e f81e f13e
00000030: 5423 863d 91a6 5d3e 05de fc3d 6cea afbc
00000040: 225c 973e 2402 b23d 41e4 493e 939c 183e
00000050: 0775 8f3e 4a6f b2bd b4e8 14bf 3c8b af3d
00000060: 84be ccbe af2c 213e 00b2 10bd 9423 eabe
00000070: 7f56 1ebe 12f0 08bf 0fdc 3bbe 6326 bf3e
00000080: 9322 f1be e77f a53e d9ab 96be 3f67 9bbe
00000090: e6a9 bbbe 506d 2fbf 5d1e 38be c69a 34be
000000a0: 0b3a 133f 7acd c73d b379 253e 5730 adbe
000000b0: 5f39 a5be 6d6a a33e 0e8b f7be 1383 3dbe
000000c0: 9845 a5bd c693 10be 16d6 2ebe cb8c b6be
000000d0: e1f3 80bd 1929 ef3e a3aa 1e3c 8d36 403e
000000e0: 7fbb 753e acf5 b03e 53db 91be 0559 da3e
000000f0: 2d5a 893e 3f8c d33e 4217 20be 6b29 8e3d
00000100: 45ad 0a3f e0c8 613e 1f1a 86bd 4ffc 2d3e
00000110: 2d42 e13e 12e2 873d 7476 933e fab4 a2bd
00000120: 8540 4cbe 6922 aebe f91d 37bf 4fe8 c6bb
00000130: 8e67 a53e 472f 09bf 8d43 b73e 78e6 80be
00000140: 7893 babe 7a42 90be 1b02 3cbc c66e 1bbf
00000150: 529e 093d d1f0 893e 4b0b b9be 6b01 aa3e
00000160: c5a8 0dbf 52a5 07be d797 d5be 1298 ab3c
00000170: 928a d0be 7d4c 943d 11f0 443f 3344 95be
00000180: cdc1 923e f84f ecbe 53ae 4dbe 08d9 d2be
00000190: ed04 2dbe 41e9 eabe ca54 3d3d 82de d23e
000001a0: fe20 e2be a423 ce3e c521 cdbe 2169 2fbf
000001b0: e8bd 43be 1348 03bd 8356 26bf 27e5 473e
000001c0: 78d9 163f ebda a5be d635 9d3d f1eb f7be
000001d0: d8e3 ffbc 1b5b dcbd e2e2 443c 1c3c 37bf
000001e0: 280e ec3d 2124 5d3e de0a c5be 503c 473e
000001f0: 0ef5 b5be c111 66be 8e59 e0be a650 d3bc
00000200: 77e3 16be 4675 c13c d183 103f 120d f2be
00000210: 48e4 0c3e 9a2a 02bf 95a2 dcbe a385 50be
00000220: 81a2 e1be fb36 13bf 618e 033e cc41 c03e
00000230: 49d9 60be faea 723e e23a c6be d8db 14bf
00000240: 7cc6 75be 1d78 aabe 795d cdbe 0e1f a93d
00000250: d31e fb3e 1acf 9ebe 9730 543e 7536 57bd
00000260: 0eea 06be 4731 afbe c27d 8cbe 9b91 e5be
00000270: 53f0 40bd 880c 033f 7b01 47be 59ee a03e
00000280: c685 a6bd 0c42 0fbe 2a06 823e 380e 753e
00000290: 4d08 163f 6030 093d 4ec1 19bf 4af0 003d
000002a0: 7454 cfbe 1ed0 8a3e e5c5 253f 37c0 f6bc
000002b0: 2e9d 91be 0b30 333f bb58 1ebd a6ea 91be
000002c0: 4f90 b13e 5e2f e2be 2492 d93d 6872 04ba
000002d0: 4852 dcbe 86b5 01be 1327 04bf 339f d3bd
000002e0: f8e6 d63e 108e cbbe 7104 07bd a189 7fbe
000002f0: 9b96 f7bd db49 52be d810 323f 8d82 3a3e
00000300: b2f4 d63d 6652 62be 403c a33e 25fd 333e
00000310: 84f0 e33e 7374 34bd 931a 91bd 5c17 37be
00000320: bf88 acbe cdf8 86be 13df 0e3f cdfa 60be
00000330: e60d 8e3e 92b3 b7be 66f9 09bf 01dd c63e
00000340: 97e3 62bd 637e a83e 49e3 20be c400 e5be
00000350: c421 1e3f 4d9b c7be d627 fc3d c6c9 b43d
00000360: 23a9 ba3e 93a0 67be 059a b43e 09f8 2d3e
00000370: dce6 b7be 3d93 763e 1c11 28be 74bb a5bc
00000380: ae7b 713a 7759 6dbe 8de0 b6be 0958 c8be
00000390: f04f 4bbe bfef 023f 1b46 9fbe bdf5 a53e
000003a0: d3d9 edbc 86f8 bbbe 8673 ddbe 5cba 46be
000003b0: 3ca8 46bf 7004 9dbd b64c ec3e 008a abbe
000003c0: 43fb 6e3e e0eb 13be 2af4 e4be 1d34 febe
000003d0: c036 3e3d 632c 03bf a16e 893d dad9 f33e
000003e0: 2947 ddbe e399 513e ad54 52be f1d1 fabe
000003f0: eba6 87be 9adb 8e3c e980 c9be c045 0bbe
-0.0048255925 0.34363827 0.19961831 0.29856128 0.18911241 0.3763769 -0.037563935 0.2572233
0.27075562 0.014034159 0.24251251 0.4709394 0.06549707 0.21645571 0.12347034 -0.021474086
0.2956248 0.086918145 0.19715978 0.14903478 0.28018972 -0.08712633 -0.58167577 0.08571479
-0.39989102 0.15739702 -0.035326004 -0.4573027 -0.15462683 -0.5349132 -0.18345664 0.37333974
-0.4709669 0.32324144 -0.29427984 -0.30352208 -0.3665306 -0.6852617 -0.17980333 -0.17637166
0.5751044 0.097559884 0.16159706 -0.33825943 -0.32270333 0.31917134 -0.48348278 -0.18507032
-0.080699146 -0.14118871 -0.17073855 -0.35654292 -0.06296516 0.46711043 0.009684238 0.1877081
0.23997305 0.34562433 -0.28487644 0.42646042 0.2682661 0.41317937 -0.15633872 0.069414936
0.5417064 0.22049284 -0.06547951 0.1699078 0.439958 0.06634916 0.2880131 -0.07944675
-0.19946487 -0.34010628 -0.7153011 -0.006070174 0.32305568 -0.53587765 0.35793725 -0.25175834
-0.36440635 -0.28175718 -0.011475111 -0.607159 0.03359825 0.2694154 -0.36141428 0.33204207
-0.55335647 -0.13246658 -0.41717407 0.020946536 -0.4073072 0.072411515 0.7692881 -0.29153594
0.28663483 -0.4615476 -0.2008603 -0.41181207 -0.1689641 -0.45881084 0.04622344 0.41185385
-0.44165796 0.40261567 -0.40064827 -0.6851979 -0.19115412 -0.032051157 -0.64975756 0.19521008
0.5892558 -0.32393584 0.07676284 -0.48422197 -0.031236574 -0.107595645 0.012016984 -0.71576095
0.115261376 0.21595813 -0.38484854 0.19456601 -0.35538524 -0.2246771 -0.43818325 -0.025795292
-0.14735208 0.02361549 0.56451136 -0.47275597 0.13758957 -0.50846255 -0.4309279 -0.20363478
-0.44069293 -0.5750577 0.12847282 0.375502 -0.21957888 0.23722449 -0.387168 -0.58147955
-0.24001497 -0.33294764 -0.40110376 0.08257876 0.49046955 -0.3101738 0.2072166 -0.05254217
-0.13175222 -0.34217283 -0.27439696 -0.4483765 -0.04710419 0.51190996 -0.19434159 0.31431845
-0.08130984 -0.13990039 0.25395328 0.23931205 0.58606416 0.0334934 -0.60060585 0.031479158
-0.4049412 0.27111906 0.6475509 -0.030120952 -0.2844023 0.6999518 -0.03865884 -0.28499335
0.3468041 -0.44176763 0.10623577 -0.0005052448 -0.43031526 -0.12666902 -0.5162212 -0.10333099
0.4197309 -0.39756823 -0.03296322 -0.24954845 -0.120892726 -0.20535986 0.6955695 0.18213864
0.10495891 -0.22101745 0.31881905 0.17577036 0.44519436 -0.044056367 -0.07085147 -0.17880005
-0.3369808 -0.26361695 0.55809134 -0.21970673 0.2774498 -0.3587919 -0.53896177 0.38840488
-0.055392828 0.32908925 -0.15711702 -0.44727147 0.6177027 -0.38985673 0.123122856 0.08827548
0.36457166 -0.22619848 0.35273758 0.16989149 -0.3591832 0.24079604 -0.16412777 -0.020230986
0.000921185 -0.2317866 -0.35718194 -0.39129665 -0.19854712 0.51147074 -0.31108174 0.32414046
-0.02903453 -0.36713046 -0.432522 -0.19407028 -0.77600455 -0.07666862 0.46152276 -0.33503723
0.23338036 -0.14445448 -0.44717532 -0.49649134 0.046438932 -0.51239604 0.06710554 0.47627145
-0.43218353 0.2046886 -0.20540114 -0.48988298 -0.26494536 0.017438699 -0.39356163 -0.13600826

fc.0.bias f4 [128]
00000000: 7fc7 013e 9d9f 393e 5521 96bd 101d 413e
00000010: 4498 713e bdc9 2fbe 2ef0 2b3e 5536 1f3e
00000020: 7ccf 893e b777 673e 2384 803e ea63 563e
00000030: ff2b 473e 4eed 383e b936 563e 0fa0 803e
00000040: 65d3 463e 08fb 923e b4f1 87be 093f fcbd
00000050: 7ab2 513e 4c88 073e 5161 503e 3a06 6abe
00000060: 38a6 04be 34d2 843e 0104 703e d10c 773e
00000070: 9467 903e 552d 9f3d 97ab 803e de69 173e
00000080: 14a4 e53d c385 4e3e 355e 643e 2dc7 8abe
00000090: 0fee 793e 622d 3d3e 1b77 8c3e 31f1 93be
000000a0: 0654 cd3d 2ede 293e f4e9 4d3e 3491 78be
000000b0: 9cc8 163e 7d8f 8d3e 4f30 1b3e 7e7a 15bd
000000c0: 2dd2 883d 97a9 eb3d 71e2 6f3d 2f04 7d3e
000000d0: e9ea 5f3e eaca 573e 60cb 8fbc 1195 ec3d
000000e0: 8363 913e c533 933e 031a b83e 153b 803e
000000f0: 2eae f73d 8bec ae3d 83c1 5a3e d888 7abe
00000100: d0a3 723e e7dd 6f3e 3388 6d3e 0228 92be
00000110: 49ce 013d eca2 193e 82ea a0be 09c1 a03e
00000120: 9c2c 063e 0a0d de3d 5c5e be3e 7a74 f83d
00000130: 259c 633e 5f0e 103e 8611 593e 6ce5 8b3e
00000140: dbe5 503d 3aa5 093e 5154 403e 7304 883e
00000150: 81a4 0c3e c5b9 723e 0b61 4f3e ba09 8d3e
00000160: c4e0 7e3e 8d81 593e 8f9b 833e 4ade 8bbe
00000170: cbd7 563e 00f1 af3d b0ad 873e d894 df3d
00000180: dcd8 683e 5f01 913e f459 45be e3f0 583e
00000190: a2dc 73bd 242e 063e a041 f83d 2ed0 1f3e
000001a0: af7c 2e3e 9286 053e 00c3 2c3e 09b9 413d
000001b0: 3b54 483e e69b 823e 8645 9dbe d508 833e
000001c0: 213d 023e 3322 543e 6969 5f3e bf28 c73d
000001d0: 7726 e6bd 9f14 5fbc 0179 363e edd2 1b3e
000001e0: e011 723e 0014 253e 3ad5 813e 4bba 5bbe
000001f0: 9827 9e3e 2d99 5f3e 7aae 7abe f3e5 883e
0.12673758 0.18127294 -0.07330576 0.18858743 0.23593241 -0.17166801 0.1679084 0.1554807
0.2691611 0.22604261 0.25100812 0.20936552 0.19450377 0.18059275 0.20919313 0.25122115
0.19416578 0.28707147 -0.26551592 -0.123167105 0.2047824 0.13235587 0.20349623 -0.22853938
-0.12954032 0.25941622 0.23439027 0.24125983 0.28204024 0.07772318 0.25130913 0.14786479
0.11212936 0.20168214 0.22301562 -0.27105084 0.24407218 0.18474343 0.2743462 -0.28894952
0.10025792 0.16588661 0.20108777 -0.2427414 0.14724964 0.27648535 0.15155147 -0.03649377
0.06680713 0.11506956 0.05856556 0.24708627 0.21866955 0.210735 -0.017553031 0.1155187
0.28396234 0.28750435 0.35957345 0.25045076 0.12093769 0.08541211 0.21362881 -0.24466264
0.23695302 0.23424493 0.23196487 -0.2854615 0.03169087 0.15003556 -0.31428915 0.31397274
0.13102955 0.10842331 0.37181365 0.12131591 0.22227533 0.14067982 0.21198091 0.27323472
0.051000457 0.13441935 0.18782164 0.26565894 0.13734628 0.23703678 0.20251863 0.27546483
0.24890429 0.21240826 0.2570462 -0.2731803 0.20980756 0.08590889 0.264997 0.109170616
0.22738975 0.2832136 -0.19272596 0.21185641 -0.059536584 0.13103539 0.12121892 0.15606758
0.1703975 0.13039616 0.16871262 0.047295604 0.19563381 0.25509566 -0.30717105 0.25592676
0.12718631 0.20716171 0.21817555 0.097245686 -0.11237805 -0.013615756 0.17819597 0.1521718
0.23639631 0.1612091 0.2535799 -0.21457784 0.30889583 0.21835776 -0.2448062 0.26737937

fc.1.weight f4 [128, 128]
00000000: a0af 88be 4602 e5bc 929c 963d 6bb1 e83e
00000010: 8687 f53e 12e7 d83d f41d 71be 7275 363c
00000020: ea7c be3e cd71 ee3e 3223 ae3e 0d8f 083f
00000030: 3464 d43e f413 573e 272f 0a3f 57a1 eb3e
00000040: 75e8 d23e 2fd1 e13e da85 6cbe dd1d bebe
00000050: 6d42 c53e a48a 03be 70a1 b33e 15c3 b2be
00000060: 3a3d 1d3c 2ef8 293f b00e c23e 86e9 973e
00000070: fdc5 b63e 6766 e2bd 5311 383f 8a16 813e
00000080: 2b76 e8be 4576 813e 0bff e93e e46e 0bbf
00000090: d131 2e3f 2858 c33e 2e1d a23e b672 c9be
000000a0: 7c07 27be cf63 61be 0c59 c83e 8af6 d6be
000000b0: 2dd7 e9bd 3e4f 923e 3e8a fb3e a6a3 0ebe
000000c0: 919e 85bd 8466 813d 38c3 4bbe 7e28 b13e
000000d0: f093 143f 6e8e fa3e 69c8 50be 0d39 a7bd
000000e0: 0b2d e43e 8493 bf3e 89a9 a03e 5a9d 963e
000000f0: 15a0 36be 1db4 95be 0f3e 673e 8c7e a6be
00000100: 2ddf 033f 7764 c63e 0d0a d83e e1e4 96be
00000110: a197 9b3c 5105 0cbd 5bdf eebe 604c 523e
00000120: 6501 35be 5d6a 71be 9ca8 9f3e da81 88be
00000130: 359d 283f 3c17 30be a55e da3e fe49 c23e
00000140: 651d 99be 1bd9 c0be 4b70 8f3e d10a b53e
00000150: a935 2dbe fc5b bd3e 89b9 c73e 6d3e ae3e
00000160: 2cf4 973e 8f9a 9e3e 93a7 d43e 7aa2 dcbe
00000170: 6f30 c1be c5dc 443c 2592 f23e ebda ecbe
00000180: f381 f93e 1b4b bd3e c046 aabe 8635 d23e
00000190: b925 99bd e1e3 e03d 33ff 84bb 6e08 9bbe
000001a0: 4ebc 2b3e bc62 b6be 8833 80bd b65f 0dbe
000001b0: c2d8 b33e c169 fd3e 8455 3fbe a685 1e3f
000001c0: 5710 a6be d62c be3e 7013 c73e 8bf6 183d
000001d0: d054 cebe f012 15be 71de 093f 0316 39be
000001e0: cca3 983e 21b7 a73c 7ff7 b73e 150b d5be
000001f0: d405 a03e 3fbc 003f d3a7 eabe 2267 a53e
00000200: b6a7 40be e5fb adbe fd47 18bd 4485 143f
00000210: 0c21 ec3e 1902 a13d 496a adbe 4ee0 5fbc
00000220: ad9d 883e c251 e13e 1c26 e73e 8a57 a73e
00000230: 2537 9f3e 374c eb3e 9fe7 af3e 5c0f 0a3f
00000240: 307b 1d3f 36c3 c63e d6e5 debe 957b d0be
00000250: 2d5b 9b3e cc41 f0bd c88a 0a3f 61c4 c2be
00000260: 3fc0 4f3d 76a2 fd3e 0526 053f 3e40 ed3e
00000270: df33 153f e93f a4be fcfc 003f 9399 bb3e
00000280: e808 d8be ac95 fa3e 9a38 ae3e f2eb acbe
00000290: 77e5 833e 4498 973e a003 923e 9793 98be
000002a0: 5b9c 02be 564a c5bd 660c b33e c44b 69be
000002b0: cf34 90be 7bb9 8a3e 93aa 1d3f b4b5 87be
000002c0: b1a0 5dbe 424c 63be d12f cdbe e8d7 de3e
000002d0: faa4 c03e f09f 263f 5d5b 8fbe 1694 06be
000002e0: dc50 f13e abfe 8e3e 69e0 5d3e afb6 c63e
000002f0: 4ef2 a4bd c53b 87be 7c68 d23e ea91 fbbe
00000300: 4023 083f 7a0e cd3e 69ef 083f d38c 0ebf
00000310: 6cde d63e de8a 25be a7bd b6bc 44b2 013f
00000320: b945 57bc aff0 53be 3cf2 7cbd 9fe6 2fbe
00000330: 8ff2 9d3e 5c0f 23be 9482 283e c223 e03e
00000340: 9a5e 3bbe 610d 82be 4aad fe3e 3a9f c83e
00000350: f225 8cbe c9d8 0b3f 9390 2a3f d708 b03e
00000360: 5978 d83e 9912 003f 38e5 033f e180 81be
00000370: bf31 d2bd c53b 0fbe 6756 b73e 3f7c 89be
00000380: ef38 1a3f cc63 1a3e 01f7 fdbe b6d4 b03e
00000390: a4e6 fe3c 0bc1 c73c 0fe5 cdbe 39a0 89be
000003a0: 3161 d63d 49cc b9bd 300c 59be 62f5 7abd
000003b0: ba10 a43e b811 843e bd72 8ebe 9e24 c83e
000003c0: 6a46 83bd 5c66 e63e e3a1 903e 56cd 7ebe
000003d0: 05f3 84be 2041 0b3e c6e0 253f 1b96 34be
000003e0: d4ce d53e 159d c0be 84f6 d43e 6250 98be
000003f0: 1093 513e 9b18 d93e 6bc2 d0be 653d e43e
-0.2669649 -0.027955186 0.07354082 0.4544786 0.4795496 0.10590948 -0.23546582 0.0111364
0.37204677 0.46571198 0.34011227 0.5334328 0.414827 0.21003705 0.539782 0.4602153
0.41192976 0.44104907 -0.23097935 -0.3713216 0.3852724 -0.12845856 0.35084105 -0.3491446
0.009597117 0.6639432 0.3790183 0.29670352 0.35697928 -0.11054688 0.71901435 0.25212508
-0.45402655 0.25285545 0.45702395 -0.5446608 0.68044764 0.38153195 0.31662887 -0.3934533
-0.16311449 -0.2201073 0.39130437 -0.4198497 -0.11417995 0.28576082 0.49128908 -0.13929614
-0.06524385 0.063183814 -0.19898689 0.34601206 0.58038235 0.4893679 -0.2038895 -0.081651784
0.44565615 0.37417233 0.31379345 0.29416925 -0.17834504 -0.29238978 0.22582267 -0.32518423
0.51512414 0.38748524 0.42195168 -0.29471496 0.0189932 -0.034184758 -0.46654782 0.20536947
-0.17676313 -0.2357573 0.31183326 -0.2666157 0.6586488 -0.17196363 0.42650333 0.37947077
-0.2990524 -0.37665638 0.2801536 0.35359815 -0.16915001 0.3698424 0.3900874 0.34032002
0.29678476 0.30977294 0.415341 -0.4309271 -0.37732264 0.012015526 0.47377124 -0.4626077
0.48731956 0.36971363 -0.33257103 0.4105646 -0.07477898 0.109809645 -0.0040587424 -0.3027987
0.16771051 -0.35622203 -0.06259829 -0.13806042 0.3512631 0.49494746 -0.18684965 0.6192268
-0.3243434 0.37143582 0.38882017 0.037344497 -0.40299082 -0.14558005 0.53855044 -0.18074803
0.29812467 0.020473065 0.35931012 -0.41610017 0.31254447 0.5028724 -0.45831165 0.32305247
-0.18813977 -0.33981243 -0.03717803 0.5801585 0.46118963 0.07861728 -0.33870152 -0.013664318
0.26682797 0.4400769 0.45146263 0.32683975 0.3109676 0.45956585 0.343564 0.53929687
0.61516094 0.3882081 -0.43534726 -0.40719286 0.30343 -0.117313 0.54118013 -0.3804045
0.05072045 0.4953801 0.5201114 0.46338075 0.58282274 -0.3208001 0.50386024 0.36640605
-0.42194295 0.48942316 0.3402756 -0.33773762 0.25761005 0.29608357 0.2851839 -0.29800102
-0.12754957 -0.09633319 0.34970397 -0.22782809 -0.2816529 0.27094635 0.615884 -0.26505816
-0.2164333 -0.22197059 -0.40075544 0.43524098 0.37625867 0.65087795 -0.27999392 -0.13142428
0.47132003 0.2792867 0.21667637 0.38811252 -0.080540285 -0.26412788 0.4109534 -0.4913476
0.5317879 0.40050107 0.5349031 -0.5568363 0.4196657 -0.16166255 -0.02230723 0.50662637
-0.013139182 -0.20697282 -0.06175445 -0.17177819 0.3084912 -0.15923828 0.16456062 0.4377728
-0.18297806 -0.25400832 0.49741584 0.3918398 -0.273727 0.5462766 0.6662685 0.34381744
0.42279318 0.5002838 0.51521635 -0.2529364 -0.102633946 -0.13987644 0.35808107 -0.26852605
0.60243124 0.15077132 -0.49602512 0.34537286 0.031115837 0.024384042 -0.4021382 -0.26880053
0.104677565 -0.090721674 -0.21196055 -0.06126917 0.3204401 0.25794768 -0.27821913 0.39090437
-0.06409915 0.4499997 0.2824851 -0.24883017 -0.2596666 0.13599062 0.647961 -0.17635386
0.4175936 -0.37619844 0.41594326 -0.29748827 0.20466256 0.42401585 -0.4077333 0.4457809

fc.1.bias f4 [128]
00000000: 4b6f 5c3e a68d 5d3e 6acc ee3d 961c 1e3e
00000010: 36a3 603e c0db 553e bd3c 293e 000e 63be
00000020: 7228 1e3e 11f3 773e 7c15 513e 525c 3d3e
00000030: 422e 0b3e 540d acbc 2e2b 4c3e f8fc 013e
00000040: e11a 5a3e 846c 49be 9ff7 ec3d 57f3 5a3e
00000050: b0cb 6c3e b221 bdbc 847a e0bd 3bee 653e
00000060: b474 c43d ff23 0c3e 2ee6 133e 7f56 db3d
00000070: 3815 363e 3ef0 fbbd b93d 943d 3a6d 1b3e
00000080: a7ac 193e 3a36 4e3e fa18 0e3e a923 3f3e
00000090: c3c0 473e e8b4 553e 49c1 513e 2996 ddbc
000000a0: b9ac 2e3e e422 e3bc bfab febc c2d8 173e
000000b0: bc2c 803d 6412 093e 7e1d 22bd b853 f13d
000000c0: f768 283d 39bd cc3d ac20 543e a783 633e
000000d0: 6a05 de3d 758a 113e 14b3 da3d d709 653e
000000e0: 9c53 433e 7f29 0d3e 0b05 553e 7d7f 763e
000000f0: e43f d83d f9c4 93bc 9e17 623d fdad 58be
00000100: 8783 583e 0c94 633e 1e2a 6b3e b92a 773e
00000110: ed1e 573e d453 5f3e 38ff 7e3e 025e 573e
00000120: 873a da3d 9fff 6a3e 180e ef3d 280c 683e
00000130: c1b3 f93d 3f08 443e 653b 3d3e 0fbe 4bbe
00000140: 9699 033e ecfa df3d d143 173e d5f0 773e
00000150: 1582 173e 2615 463e eeef 613e 3796 5d3e
00000160: c3b5 103e 0acd f33d 1a74 5e3e f538 e93d
00000170: 197b 353e 1ad1 5ebe dae3 4fbe 4916 77be
00000180: d628 643e b2e2 703e a843 4d3e 7cd8 0e3e
00000190: 267e 423e bf21 a03d 20ed 4f3e 1131 5c3e
000001a0: 695c 703e d90c 6e3e 08ff 7a3e e417 4f3e
000001b0: a362 523e 4b4e 0b3e 82c9 303e 3b43 04bd
000001c0: 8585 553e b1e2 363d 1da7 c03d cf15 dabc
000001d0: 5830 df3d bb65 443e dfe6 7c3e 4daf 163e
000001e0: 3cc0 78be aca8 5b3e 7201 b43d 1596 2e3e
000001f0: 2545 4c3e f52b 1c3e 6966 6ebd bc1c 623e
0.2152683 0.21636066 0.11660083 0.15440592 0.2193726 0.20884609 0.16527076 -0.2217331
0.15445116 0.24213816 0.20418352 0.18492249 0.13591865 -0.02100245 0.19938347 0.12694156
0.21299316 -0.19670302 0.115706675 0.2138189 0.23124576 -0.023087356 -0.10960868 0.22454159
0.09592572 0.13685606 0.14443275 0.10709857 0.17781532 -0.12301682 0.07238335 0.15178385
0.15007268 0.20137873 0.13876715 0.18665947 0.19507127 0.20869792 0.20483889 -0.027049141
0.17058076 -0.027726598 -0.031087754 0.1482878 0.062585324 0.13385922 -0.039578907 0.11783546
0.041115727 0.09997029 0.20715588 0.2221819 0.108408764 0.14212973 0.10678688 0.22367035
0.19074863 0.13785361 0.20802705 0.2407207 0.10559061 -0.01803826 0.055198304 -0.21160121
0.21143924 0.22224444 0.22965285 0.24137391 0.21007891 0.21809322 0.24902046 0.21031955
0.106556945 0.22949074 0.1167261 0.22660887 0.121924885 0.1914377 0.18479688 -0.1989672
0.12851557 0.109365314 0.14771964 0.24212964 0.14795716 0.19344005 0.22064182 0.21639334
0.14131837 0.119043425 0.21723977 0.11387817 0.1772274 -0.21759453 -0.20301762 -0.24129595
0.22281203 0.23523977 0.2004534 0.1394977 0.18993434 0.078189366 0.203053 0.21503092
0.23472752 0.23247088 0.24511349 0.20223957 0.2054544 0.13604085 0.17264369 -0.03229068
0.20851715 0.044649784 0.09406874 -0.026621727 0.10897893 0.19179432 0.24697445 0.1471531
-0.24292082 0.21451062 0.08789338 0.17049439 0.19948252 0.15251143 -0.058203135 0.22081274

fc.2.weight f4 [1, 128]
00000000: 7d0b 0b3f 922a 063f 89ea e1be d14f 07bf
00000010: 6b92 033f 60a9 173f b90b 323f 8ea5 fdbe
00000020: 199c 92be 4ec7 d63e d709 0f3f 2bc3 fa3e
00000030: d7eb 01bf 5c49 06bf 66cd d03e 0b52 9fbe
00000040: c49e 093f 99b2 46bf dfc4 b3be 68c7 0a3f
00000050: 2e6a f03e 29ea 1ebf 43d3 f4be 4a5c f83e
00000060: 4494 91be b91c bfbe ced4 a9be cce8 acbe
00000070: ff2a 253f 78aa 03bf 051c 60be 65da 133f
00000080: 0d8c d7be 751c 0e3f 09c8 95be aaf3 1c3f
00000090: 87ea 3d3f b7cb 083f e41b 1e3f a629 82be
000000a0: a9e9 7abe 78a9 00bf 720c b2be 38fc eb3e
000000b0: 9ad6 d8be 19cd 55be 7bb7 a4be 98ba 97be
000000c0: b6db d4be 903e a3be e667 173f b7ca fc3e
000000d0: 07a7 12bf 0dbd 9ebe 25a6 6dbe 9d3d 013f
000000e0: de13 7ebe b1a1 fdbe c888 193f 4759 e33e
000000f0: 7127 d4be 68ec c9be e2e8 13bf a6c1 0fbf
00000100: 9c03 063f 64d6 003f 3df2 de3e a93f e03e
00000110: 7c4a 0e3f 62a4 013f bea4 df3e f465 143f
00000120: 0eb3 b13e edc3 e63e bcab d9be 1566 f53e
00000130: 875b debe ec9e 013f 6522 d03e 9b78 39bf
00000140: 1a34 8abe 3f0b d7be 07ff 9fbe 3fe5 e43e
00000150: 7a21 9fbe 68c6 e23e de42 043f 68d9 ff3e
00000160: cdf5 b8be dbc3 e4be 0c7a 043f 148b bcbe
00000170: b7b5 0e3f 2cd5 01bf a8e9 20bf 3f3c e3be
00000180: 97e2 fe3e 05d4 063f fea2 143f 2f1b 8abe
00000190: 152b f73e d5a0 cdbe d786 3e3f 9579 e83e
000001a0: 2116 ec3e c3a8 ea3e 6334 dc3e eeb6 103f
000001b0: 070a 2a3f 8510 96be e6d1 193f e78a 00bf
000001c0: adcb 183f bf24 9cbe 301b b5be 9d48 aabc
000001d0: 3ff1 c4be f9e3 e43e 24ce df3e 94e0 e1be
000001e0: f0e7 debe 5451 0c3f d9a0 bfbe 6e99 80be
000001f0: 224b 3c3f c6ae 72be 7a16 04bf 19f5 ea3e
0.54314405 0.5240871 -0.4412425 -0.52856165 0.5139529 0.5924282 0.6954914 -0.4954037
-0.28634718 0.41948932 0.5587439 0.48977026 -0.5075049 -0.5245569 0.40781707 -0.3111728
0.5375788 -0.7761627 -0.35111138 0.5421052 0.4695601 -0.6207605 -0.4781743 0.4850791
-0.2843343 -0.373266 -0.3317017 -0.3377136 0.6451873 -0.5143199 -0.21885689 0.5775512
-0.42099038 0.5551217 -0.29254177 0.613093 0.74185985 0.53435844 0.6176131 -0.254224
-0.24503197 -0.5025859 -0.3477512 0.46090865 -0.42351228 -0.2087902 -0.32171234 -0.29634547
-0.41573876 -0.3188367 0.5914291 0.4937341 -0.57286114 -0.3100361 -0.2320791 0.5048464
-0.24812266 -0.49537423 0.59974337 0.4440405 -0.4143634 -0.39438176 -0.57777226 -0.5615486
0.5234926 0.50327134 0.43544188 0.4379857 0.55582404 0.50641453 0.43680376 0.5796807
0.3470692 0.45071355 -0.42513835 0.47929445 -0.43429205 0.5063312 0.4065124 -0.72449654
-0.26992875 -0.42000768 -0.31249258 0.4470615 -0.31080228 0.44291997 0.5166453 0.49970555
-0.3612503 -0.44680676 0.5174873 -0.36824858 0.55746025 -0.507159 -0.6285653 -0.44381902
0.4978225 0.52667266 0.58061206 -0.26973864 0.48275056 -0.40161768 0.744245 0.4540526
0.46110633 0.4583188 0.43008718 0.5652913 0.6642155 -0.29309478 0.60085905 -0.5021195
0.59685785 -0.30496785 -0.35372305 -0.020786578 -0.38465306 0.4470518 0.4371196 -0.44116652
-0.4353633 0.54811597 -0.37427405 -0.25117058 0.73552144 -0.23699483 -0.51596797 0.4589012
