data/goto_green_angles_c.pt (torch_old, 85005 bytes, 5 tensors)

fc.0.weight f4 [128, 9]
0.29998827 0.10705865 0.44724527 0.06989087 -0.52146035 0.079815775 -0.304028 0.18211119
0.21292192 0.068549484 -0.27768052 -0.65576696 0.15328176 0.39649323 -0.27527273 0.3806848
-0.41268834 -0.48248205 0.011825703 0.32699022 0.48443818 0.2807318 -0.06478149 0.51418495
0.33019146 0.4777984 -0.075632766 -0.57540256 -0.031574376 -0.39854157 -0.015862525 0.5931228
-0.3801574 0.34453893 -0.5270597 -0.023353053 -0.23573455 -0.15265487 -0.42310545 0.08411475
0.32519624 -0.20840512 0.30074447 -0.3589326 -0.61266315 0.7954343 -0.28971028 0.38418072
-0.100904286 -0.566475 0.42558545 -0.59521234 -0.14810686 0.7640267 -0.4424431 0.025185851
-0.6277133 -0.2396265 0.53534395 -0.46173882 0.12848137 -0.5460029 -0.58800167 0.3807129
0.37688175 0.3364833 -0.24901988 -0.68432254 0.056126766 -0.6052676 0.34220225 0.34383547
0.20241272 0.23972411 0.22493456 -0.115133025 -0.37031144 -0.054234114 -0.514693 0.6412329
0.2906766 -0.10387196 0.096262336 0.45666555 0.41038805 -0.13859601 0.44184834 -0.037463717
0.44823724 -0.023371914 -0.011269743 0.18539432 0.36282313 0.20096949 0.10458295 -0.12929402
-0.015661752 0.35145953 0.0013816311 0.0842383 0.22516346 0.4431703 -0.010872617 -0.24314404
0.42091465 0.4632955 0.1451959 -0.10976375 -0.035681084 0.34770292 0.22957578 0.09077427
0.15431863 0.0006909134 -0.048319638 0.28678265 0.09718427 -0.19114955 -0.14037044 -0.5845687
-0.14962016 0.64884347 -0.2683994 0.20838006 -0.5161315 -0.4254149 0.030897364 0.23768415
0.2215376 0.2122453 -0.046941314 0.29718 0.25090325 0.36880672 0.14358555 0.19792691
0.43069646 0.18002038 0.11006075 -0.12937836 0.47422326 0.1489214 0.27063838 0.08910367
-0.044385277 0.08869914 0.37236643 0.47443178 -0.012819023 0.34595892 0.14488237 0.13776201
0.058029715 -0.53470725 -0.3580572 -0.59383154 -0.009398297 0.48108464 -0.3603293 0.16680558
-0.24014369 -0.6862316 0.29867318 0.22664294 0.6178757 0.02533632 -0.4637736 0.12716965
-0.5050628 0.17666046 0.59109443 -0.040395904 0.13774143 0.37579805 0.25093758 0.03428122
0.53158903 -0.111080274 0.4035787 -0.074354135 0.0054948335 0.4268185 0.09271372 0.22498806
-0.14358205 0.23780522 0.139601 0.4317519 0.11704232 -0.49019626 -0.011532879 -0.18801017
-0.032088842 0.5336833 -0.5472456 0.47826645 -0.26876456 -0.4107905 -0.077022225 0.25116017
-0.008050874 0.0729283 0.09926285 0.26208428 -0.11990638 0.21394354 0.32889965 -0.50525284
-0.23985736 -0.4453031 0.022802623 0.6514809 -0.289496 0.4557305 -0.33493844 -0.5187618
-0.014195516 0.17980878 0.30016288 -0.11219543 -0.08449799 0.31103873 0.3575447 0.44205236
0.25643444 -0.075934336 0.32174462 0.052017022 -0.10663933 -0.05730567 0.11877721 0.093022615
0.2194716 0.24372125 -0.43461484 -0.3185584 -0.18952692 -0.3685098 0.37042907 -0.07538937
0.029838117 -0.1166014 -0.3114621 -0.24338603 -0.16697961 -0.3380022 -0.15350947 0.5868749
-0.2513907 0.36809853 -0.24600576 -0.4745103 -0.44755664 -0.4420464 -0.37129316 0.15823422
00000000: 1098 993e 9141 db3d 55fd e43e f222 8f3d
00000010: 6d7e 05bf 7476 a33d 8fa9 9bbe 5b7b 3a3e
00000020: 3408 5a3e ac63 8c3d 242c 8ebe 58e0 27bf
00000030: e5f5 1c3e 2901 cb3e 8cf0 8cbe 1ee9 c23e
00000040: e34b d3be e307 f7be 98c0 413c 436b a73e
00000050: 4808 f83e 14bc 8f3e 28ac 84bd a0a1 033f
00000060: db0e a93e fea1 f43e 5ae5 9abd 954d 13bf
00000070: 2254 01bd a40d ccbe 20f2 81bc e5d6 173f
00000080: fea3 c2be 6867 b03e 62ed 06bf e74e bfbc
00000090: 6664 71be 8f51 1cbe 47a1 d8be 5b44 ac3d
000000a0: 1f80 a63e 2768 55be 2efb 993e 04c6 b7be
000000b0: 7ed7 1cbf 95a1 4b3f e854 94be 56b3 c43e
000000c0: e8a6 cebd 8104 11bf 56e6 d93e d65f 18bf
000000d0: 53a9 17be 4197 433f e787 e2be 8f52 ce3c
000000e0: d2b1 20bf a660 75be 4d0c 093f 0869 ecbe
000000f0: 9f90 033e d9c6 0bbf 4787 16bf cdec c23e
00000100: a5f6 c03e 8a47 ac3e 11ff 7ebe c32f 2fbf
00000110: 2ee5 653d d1f2 1abf 2235 af3e 340b b03e
00000120: 4845 4f3e 3d7a 753e 3f55 663e ddca ebbd
00000130: 7699 bdbe 9724 5ebd ecc2 03bf d727 243f
00000140: 90d3 943e d2ba d4bd 3025 c53d 11d0 e93e
00000150: 621e d23e 1dec 0dbe f239 e23e 8e73 19bd
00000160: 5a7f e53e 7576 bfbc baa4 38bc 02d8 3d3e
00000170: f4c3 b93e f2ca 4d3e 962f d63d a765 04be
00000180: 134d 80bc 81f2 b33e d917 b53a 2185 ac3d
00000190: 4091 663e 38e7 e23e 1023 32bc c0fa 78be
000001a0: 2082 d73e 1135 ed3e 3cae 143e d1cb e0bd
000001b0: 5426 12bd 1e06 b23e ea15 6b3e dce7 b93d
000001c0: b405 1e3e 6a1e 353a d0ea 45bd 2dd5 923e
000001d0: 8c08 c73d b5bc 43be 45bd 0fbe 4ba6 15bf
000001e0: 0736 19be 9b1a 263f a56b 89be 9561 553e
000001f0: 3221 04bf fbcf d9be 781c fd3c 7963 733e
00000200: c1da 623e d556 593e 8945 40bd fa27 983e
00000210: 6476 803e 3cd4 bc3e 1708 133e 5aad 4a3e
00000220: 3f84 dc3e 4357 383e 8867 e13d c37b 04be
00000230: 64cd f23e da7e 183e 1d91 8a3e fc7b b63d
00000240: 56cd 35bd e5a7 b53d d0a6 be3e b9e8 f23e
00000250: e106 52bc 8721 b13e 0b5c 143e 7c11 0d3e
00000260: 91b0 6d3d 93e2 08bf 4653 b7be 5805 18bf
00000270: 51fb 19bc ba50 f63e 157d b8be 15cf 2a3e
00000280: 3ae8 75be e0ac 2fbf b1eb 983e 1615 683e
00000290: 1a2d 1e3f 1d8e cf3c bc73 edbe c338 023e
000002a0: cc4b 01bf 7be6 343e f751 173f 2d76 25bd
000002b0: 170c 0d3e 9a68 c03e e47a 803e 776a 0c3d
000002c0: 3816 083f 0e7e e3bd dea1 ce3e fb46 98bd
000002d0: 010e b43b f487 da3e b1e0 bd3d 4563 663e
000002e0: 2c07 13be 3683 733e 91f3 0e3e 960e dd3e
000002f0: e2b3 ef3d 01fb fabe 67f4 3cbc bd85 40be
00000300: 976f 03bd 789f 083f 4a18 0cbf 57df f43e
00000310: 829b 89be 2253 d2be d4bd 9dbd 1198 803e
00000320: d0e7 03bc 6f5b 953d 524a cb3d e92f 863e
00000330: 7a91 f5bd 0414 5b3e 8965 a83e 4058 01bf
00000340: 2b9d 75be c5fe e3be 91cc ba3c 74c7 263f
00000350: d238 94be 8255 e93e 0d7d abbe 93cd 04bf
00000360: 4f94 68bc cb1f 383e f3ae 993e b8c6 e5bd
00000370: 480d adbd 7840 9f3e 1910 b73e b054 e23e
00000380: 604b 833e 7683 9bbd b6bb a43e cd0f 553d
00000390: b965 dabd 5ab9 6abd 7741 f33d a482 be3d
000003a0: 2abd 603e 1092 793e d685 debe 161a a3be
000003b0: 5813 42be 51ad bcbe e1a8 bd3e be65 9abd
000003c0: 116f f43c b7cc eebd f677 9fbe 303a 79be
000003d0: b4fc 2abe a00e adbe 9631 1dbe 6f3d 163f
000003e0: 48b6 80be 6977 bc3e efe8 7bbe 04f3 f2be
000003f0: 2526 e5be e853 e2be 231a bebe 2708 223e

fc.0.bias f4 [128]
-0.19030993 0.35577765 0.14640938 0.36110088 0.37374616 -0.3289086 0.2889557 -0.35701016
-0.25760698 0.21809113 0.081906304 0.17854325 0.10073227 0.32823336 0.08181205 0.19429018
0.15978383 0.3018489 -0.34648734 0.17417048 0.11868651 0.36129853 0.0976087 0.33933586
0.17684922 0.10186149 0.21367306 0.32991537 0.3595509 0.3186404 0.30809236 0.07355801
-0.3755947 0.18545492 0.3144157 0.02658523 0.39652917 0.38639405 0.31430018 0.2980457
0.11824835 0.29655617 0.32830593 0.13005355 -0.33420476 0.13564292 0.12631737 0.3463567
-0.276039 -0.38602456 0.11716842 0.39315325 0.040484805 0.27796516 0.3513439 0.3477322
0.14531188 0.1469661 0.3425816 0.34257928 0.087699115 0.21816549 0.3058075 0.28578892
0.33303443 0.32475138 0.057101976 0.09633131 -0.21141446 -0.3619516 -0.01793529 0.32483324
0.18161745 -0.22301312 0.36240593 0.17613475 0.16976419 -0.05553988 0.33230573 0.32651377
0.042075615 0.3230944 0.2027615 0.07210454 0.040767524 0.08418622 0.35530233 0.1733154
0.04855895 0.33733743 0.12208617 0.38026112 0.3202138 0.15404697 0.25328338 0.39252788
0.12432637 0.32651344 0.036003113 0.34970847 0.19597298 0.36407775 0.39542422 0.18956624
0.14971758 -0.35338423 0.198898 0.37782204 -0.33882368 0.30354702 0.15359041 -0.31229308
0.33457914 -0.3625351 0.30456552 0.30223846 0.33194822 0.11390791 0.32362214 0.39788416
0.20539097 0.36258322 0.3774729 -0.28021297 0.34730822 0.21561867 0.10555429 0.16750902
00000000: 9be0 42be 7d28 b63e 57ec 153e 37e2 b83e
00000010: a85b bf3e b566 a8be 00f2 933e 09ca b6be
00000020: 10e5 83be 4853 5f3e 7ebe a73d 0bd4 363e
00000030: b84c ce3d 340e a83e 138d a73d 01f4 463e
00000040: 5f9e 233e f08b 9a3e ca66 b1be bf59 323e
00000050: ea11 f33d 1ffc b83e 12e7 c73d 6ebd ad3e
00000060: f617 353e c29c d03d 1ccd 5a3e abea a83e
00000070: 0e17 b83e d624 a33e 48be 9d3e 95a5 963d
00000080: f34d c0be e5e7 3d3e 18fb a03e 45c9 d93c
00000090: df05 cb3e 71d5 c53e f4eb a03e 7299 983e
000000a0: 312c f23d 36d6 973e b717 a83e c22c 053e
000000b0: e31c abbe fae5 0a3e 5759 013e aa55 b13e
000000c0: fc54 8dbe 03a5 c5be fff5 ef3d 624b c93e
000000d0: 65d3 253d 7351 8e3e 59e3 b33e f409 b23e
000000e0: a3cc 143e 487e 163e db66 af3e 8d66 af3e
000000f0: 989b b33d c666 5f3e cd92 9c3e ed52 923e
00000100: 7d83 aa3e d045 a63e c3e3 693d 5a49 c53d
00000110: 087d 58be b851 b9be 07ed 92bc 8b50 a63e
00000120: edf9 393e 8d5d 64be 458d b93e ab5c 343e
00000130: aad6 2d3e c97d 63bd fa23 aa3e d02c a73e
00000140: 7b57 2c3d a16c a53e b6a0 4f3e 8cab 933d
00000150: d9fb 263d d369 ac3d 30ea b53e 9879 313e
00000160: c0e5 463d 7eb7 ac3e 5008 fa3d 96b1 c23e
00000170: 10f3 a33e 7dbe 1d3e 5cae 813e 6af9 c83e
00000180: d39e fe3d c52c a73e 0078 133d fd0c b33e
00000190: 24ad 483e 6668 ba3e 0b75 ca3e a71d 423e
000001a0: 914f 193e c7ee b4be ebab 4b3e e471 c13e
000001b0: 4c7a adbe 846a 9b3e ce46 1d3e e1e4 9fbe
000001c0: f54d ab3e 339e b9be 03f0 9b3e 00bf 9a3e
000001d0: 1ef5 a93e 8d48 e93d cdb1 a53e 79b7 cb3e
000001e0: 0352 523e 82a4 b93e 2144 c13e 1378 8fbe
000001f0: 62d2 b13e 24cb 5c3e d92c d83d 7c87 2b3e

fc.1.weight f4 [128, 128]
-0.3163278 0.29268456 -0.07706195 0.46748766 0.25094458 -0.14496581 0.39335498 -0.31000632
-0.2578334 -0.21298575 -0.079884365 -0.33880758 -0.26577085 0.27725142 -0.20030415 -0.17360854
-0.3795752 0.3767609 -0.41967443 -0.10400906 -0.31372097 0.35244527 -0.33580405 0.38913223
-0.25463825 -0.38983372 0.2462355 0.15392554 0.4163384 0.59685117 0.3158586 -0.13249554
-0.51244384 -0.23435321 0.54193133 -0.15074943 0.0742922 0.3948414 0.33823866 0.2743881
-0.20133445 0.4823129 0.4522616 -0.14556435 -0.4009257 -0.27081442 -0.22833905 0.39470977
-0.37529984 -0.436772 -0.26270443 0.4319991 0.15664126 0.3667064 0.611227 0.40641642
-0.095005274 -0.15270813 0.3015397 0.35338357 -0.16723152 -0.07848863 0.29973638 0.3610765
0.2840954 0.39102075 -0.34136838 -0.43331167 -0.2620597 -0.18821855 -0.20356277 0.50694007
-0.1463364 -0.4210936 0.01275257 -0.5479963 -0.17796037 -0.31983814 0.2095934 0.23558055
-0.39451158 0.21044761 -0.22072421 -0.0229588 -0.063657135 -0.2421567 0.3170792 -0.12862454
-0.110773966 0.403698 -0.37588567 0.36359876 0.39501145 0.42448404 0.46059012 0.31763074
-0.24149197 0.23940358 -0.070310354 0.25057834 -0.21704273 0.4256474 0.14311269 -0.2502178
-0.2668388 -0.32272616 -0.20515224 0.28466985 -0.5146685 0.4259319 -0.1980086 -0.4361055
0.48691013 -0.24070667 0.36009103 0.29998875 0.66670704 -0.25540555 0.18188669 0.053565234
-0.31764528 0.35812935 0.33244678 -0.33916765 0.33313018 0.22600304 -0.32734022 -0.3093855
0.15749422 0.2675903 0.32701886 0.20837547 0.12527232 0.119574994 -0.06305316 -0.06393068
0.061111853 0.39257276 0.12205159 0.22854672 0.05980261 -0.31251743 0.23928003 0.08471657
0.41872466 0.018771088 0.20357908 0.29242617 0.019021483 -0.052882805 0.039436486 -0.07854906
0.3606043 0.25658453 -0.056829028 -0.020586155 0.13185039 -0.31387672 -0.14652964 0.12880291
-0.18371065 -0.09053571 0.20925407 0.09366583 0.25025156 0.3711731 0.04610246 0.010737945
0.39401698 -0.1666028 -0.05053707 0.13083763 0.085714936 0.35950682 0.087781966 0.086844586
0.004186802 -0.33439025 0.09565404 0.021674905 -0.13398154 -0.06790309 -0.011015555 0.009009615
0.13303822 0.23785618 0.039500177 -0.022834139 0.38241816 0.24567735 -0.095202185 -0.17832404
-0.12313835 0.08622918 0.12379932 0.57386214 -0.15475214 -0.2077489 0.007298295 -0.10916017
0.39358783 -0.09148889 -0.061969485 0.33727503 0.26215792 -0.14413722 -0.06325444 0.10542272
0.22387886 0.1259676 0.07894231 0.20404717 0.014942742 0.45100075 -0.03623282 0.38372576
0.19817525 -0.19102627 -0.075407214 0.17729159 0.11218275 -0.2772542 -0.24084078 0.08076636
0.2301942 -0.058270022 -0.03433359 0.02850037 0.01977987 -0.020493267 -0.027003393 0.3322106
0.31047454 0.12801933 0.092110805 0.055860866 0.15324548 -0.12268448 0.16365881 0.06589732
-0.02431873 -0.0017835231 0.065382324 -0.13405482 -0.18502733 0.2099579 0.19267637 -0.0508537
0.3907639 -0.14844392 -0.07972912 0.009940662 0.054517943 -0.04755015 0.28426713 0.00809155
00000000: b8f5 a1be c0da 953e a8d2 9dbd 8b5a ef3e
00000010: cf7b 803e eb71 14be d365 c93e 26b9 9ebe
00000020: bd02 84be f018 5abe 6a9a a3bd 3078 adbe
00000030: 1e13 88be e6f3 8d3e 881c 4dbe 70c6 31be
00000040: ae57 c2be cee6 c03e 91df d6be b402 d5bd
00000050: 09a0 a0be b573 b43e 82ee abbe 573c c73e
00000060: f25f 82be 4998 c7be 2925 7c3e a89e 1d3e
00000070: 4f2a d53e 3dcb 183f 38b8 a13e e9ac 07be
00000080: 852f 03bf 4afa 6fbe 03bc 0a3f 0f5e 1abe
00000090: 8226 983d a728 ca3e 9e2d ad3e 997c 8c3e
000000a0: 9e2a 4ebe b7f1 f63e d58e e73e d20e 15be
000000b0: 2246 cdbe 30a8 8abe b6d1 69be 6617 ca3e
000000c0: 4d27 c0be 94a0 dfbe 3281 86be fc2e dd3e
000000d0: 9166 203e f1c0 bb3e 5f79 1c3f d015 d03e
000000e0: 2092 c2bd 855f 1cbe 6963 9a3e b1ee b43e
000000f0: bd3e 2bbe a6be a0bd 0c77 993e 05df b83e
00000100: f474 913e df33 c83e d6c7 aebe 07db ddbe
00000110: b02c 86be 5dbc 40be c272 50be d3c6 013f
00000120: 36d9 15be 9599 d7be 28f0 503c 7c49 0cbf
00000130: 3e3b 36be d3c1 a3be a79f 563e 073c 713e
00000140: 6cfd c9be 947f 573e 8705 62be 1814 bcbc
00000150: ac5e 82bd edf7 77be 3458 a23e 27b6 03be
00000160: 76dd e2bd 81b1 ce3e 1674 c0be 9e29 ba3e
00000170: f13e ca3e f955 d93e 78d2 eb3e 7fa0 a23e
00000180: ac49 77be 3626 753e e0fe 8fbd ce4b 803e
00000190: 7340 5ebe 75ee d93e 228c 123e 8c1c 80be
000001a0: 189f 88be 5d3c a5be 6e13 52be 3fc0 913e
000001b0: 51c1 03bf bf13 da3e c4c2 4abe 3849 dfbe
000001c0: 494c f93e cf7b 76be da5d b83e 2098 993e
000001d0: 50ad 2a3f 84c4 82be 8140 3a3e 3867 5b3d
000001e0: 67a2 a2be bb5c b73e 7736 aa3e 62a7 adbe
000001f0: 0a90 aa3e 576d 673e 2399 a7be c767 9ebe
00000200: 2a46 213e 9901 893e 046f a73e 6160 553e
00000210: 6347 003e bce3 f43d 0422 81bd 17ee 82bd
00000220: 6c50 7a3d 4cff c83e 2ff6 f93d 2708 6a3e
00000230: 95f3 743d 4902 a0be d305 753e e27f ad3d
00000240: 1463 d63e d3c5 993c 0977 503e e2b8 953e
00000250: f1d2 9b3c a49b 58bd 2788 213d 54de a0bd
00000260: 20a1 b83e 0c5f 833e 8ec5 68bd 4ca4 a8bc
00000270: ca03 073e 73b4 a0be de0b 16be e9e4 033e
00000280: a51e 3cbe c96a b9bd b346 563e dfd3 bf3d
00000290: f920 803e 670a be3e efd5 3c3d 35ee 2f3c
000002a0: 98bc c93e ed99 2abe f5ff 4ebd 4dfa 053e
000002b0: 508b af3d 4711 b83e 08c7 b33d 93db b13d
000002c0: 7131 893b 3335 abbe 44e6 c33d 928f b13c
000002d0: 7532 09be c610 8bbd 967a 34bc 109d 133c
000002e0: 2c3b 083e 9290 733e f0ca 213d a90e bbbc
000002f0: 50cc c33e d892 7b3e 5df9 c2bd 949a 36be
00000300: f62f fcbd ed98 b03d 7f8a fd3d a1e8 123f
00000310: 5877 1ebe 21bc 54be 8926 ef3b 5e8f dfbd
00000320: 5884 c93e 875e bbbd b7d3 7dbd 50af ac3e
00000330: 9039 863e b598 13be 8b8b 81bd dee7 d73d
00000340: 8040 653e a7fd 003e 81ac a13d bef1 503e
00000350: 67d2 743c 92e9 e63e de68 14bd b477 c43e
00000360: 74ee 4a3e 649c 43be 196f 9abd ed8b 353e
00000370: 12c0 e53d 43f4 8dbe f79e 76be d568 a53d
00000380: 07b8 6b3e 8cac 6ebd 61a1 0cbd 9c79 e93c
00000390: 6509 a23c 7fe1 a7bc 3836 ddbc 8217 aa3e
000003a0: 85f6 9e3e 8017 033e 97a4 bc3d 5dce 643d
000003b0: 62ec 1c3e 0042 fbbd 2d96 273e 2df5 863d
000003c0: 1338 c7bc 1bc5 e9ba 2be7 853d ab45 09be
000003d0: ce77 3dbe 34ff 563e f44c 453e f84b 50bd
000003e0: 3512 c83e af01 18be 0549 a3bd 29de 223c
000003f0: 354e 5f3d f2c3 42bd 768b 913e 6c92 043c

fc.1.bias f4 [128]
0.2666772 0.11237356 0.2701897 0.13962176 -0.09377771 -0.29401094 0.26561254 0.30364656
0.29142377 0.2770104 -0.2787046 0.29101804 -0.2512354 0.28831097 0.2499925 0.25993294
0.19596912 0.2927366 0.2351927 -0.28281796 0.14206478 0.26175988 -0.26937062 0.096027136
0.24737735 -0.3154812 0.10289935 0.11940833 0.1678626 0.14385656 -0.10923915 -0.29044276
-0.17519638 0.2598638 0.28187275 0.10538828 0.09665617 0.27701762 0.10563338 0.30280748
0.07463124 0.29253 0.2809694 0.12836045 -0.032862317 -0.28544945 0.30290267 0.2565662
0.26848578 0.26597154 0.05596884 0.22529152 0.33729017 -0.26561764 0.12387892 0.27440092
0.109832905 0.084628955 0.25211233 0.28010342 0.27290136 0.27805498 0.092780754 0.28286722
0.26636037 0.26605788 0.2613303 0.12131199 0.07483111 0.24300617 -0.28488126 0.27390426
0.096091144 0.14862874 0.1171102 0.26872396 0.14128721 0.104202904 0.07108941 0.13339554
0.10324703 0.20438641 0.31524727 0.12486565 0.12432169 0.27424353 0.26376307 0.13292749
0.2931254 0.2596283 0.29936975 0.29435992 0.26165348 0.28799188 0.12628125 0.27160597
0.27125365 0.11770536 0.27606037 0.129266 0.11221204 0.259934 0.26624253 0.2714453
0.121008806 0.11196483 0.30327463 -0.0468566 0.27616793 0.22815947 0.27877265 0.31353256
0.07869208 0.2567369 0.14746936 -0.056933966 0.26103464 0.13989584 0.30082285 0.2968152
0.11767992 0.28613347 0.3019528 0.26659703 0.31503868 0.24350718 0.052218135 0.13936318
00000000: ea89 883e 1c24 e63d 4e56 8a3e 02f9 0e3e
00000010: 870e c0bd 9a88 96be 5efe 873e 9077 9b3e
00000020: 7f35 953e 4fd4 8d3e 5fb2 8ebe 5100 953e
00000030: eda1 80be 7f9d 933e 09fe 7f3e ee15 853e
00000040: 21ac 483e 92e1 953e 5bd6 703e 84cd 90be
00000050: 6e79 113e 6405 863e f2ea 89be e0a9 c43d
00000060: 7d50 7d3e c086 a1be e5bc d23d 5b8c f43d
00000070: 2ce4 2b3e 224f 133e c7b8 dfbd eab4 94be
00000080: ae66 33be de0c 853e a051 903e cfd5 d73d
00000090: acf3 c53d 41d5 8d3e 5056 d83d 9509 9b3e
000000a0: 43d8 983d 7ec6 953e 39db 8f3e ec70 033e
000000b0: a39a 06bd 6e26 92be 0f16 9b3e a55c 833e
000000c0: f876 893e 6c2d 883e 953f 653d d2b2 663e
000000d0: 4cb1 ac3e 09ff 87be 3bb4 fd3d 477e 8c3e
000000e0: 13f0 e03d f251 ad3d de14 813e b769 8f3e
000000f0: bab9 8b3e 395d 8e3e d603 be3d f9d3 903e
00000100: 6360 883e bd38 883e 16cd 853e 6c72 f83d
00000110: 0e41 993d 9cd6 783e f5db 91be 2e3d 8c3e
00000120: 6fcb c43d 2232 183e 79d7 ef3d 3096 893e
00000130: 98ad 103e 5568 d53d 5397 913d d798 083e
00000140: 2e73 d33d ac4a 513e 1768 a13e 90b9 ff3d
00000150: 5f9c fe3d a669 8c3e f40b 873e 251e 083e
00000160: 8814 963e 00ee 843e fe46 993e 58b6 963e
00000170: 72f7 853e ac73 933e df4f 013e f00f 8b3e
00000180: c2e1 8a3e 820f f13d c957 8d3e 4e5e 043e
00000190: 6dcf e53d 1216 853e f150 883e e1fa 8a3e
000001a0: 77d3 f73d d14d e53d d046 9b3e b5ec 3fbd
000001b0: e265 8d3e a3a2 693e 4abb 8e3e 5787 a03e
000001c0: 5029 a13d 0573 833e 3502 173e 9733 69bd
000001d0: 55a6 853e db40 0f3e 7405 9a3e 29f8 973e
000001e0: 2b02 f13d 1680 923e 8f99 9a3e 687f 883e
000001f0: c04c a13e f259 793e afe2 553d 39b5 0e3e

fc.2.weight f4 [1, 128]
0.65229696 -0.45194474 0.7033853 -0.37358624 -0.45043156 -0.4250908 0.6264479 0.44138855
0.5064071 0.47901666 -0.58223504 0.50087 -1.0040742 0.5070215 0.85463 0.6341845
0.6276729 0.5103255 0.4053472 -0.55644923 -0.34026626 0.56730896 -0.6700576 -0.5241199
0.48788667 -0.4498477 -0.55936867 -0.36083823 -0.2721801 -0.44395933 -0.3404171 -0.4845793
-0.5543931 0.6558786 0.567746 -0.3934997 -0.36279637 0.5547807 -0.44654304 0.4680675
-0.24495138 0.5161804 0.544127 -0.5854243 -0.08463967 -0.54792076 0.48120084 0.79313874
0.56957793 0.4259782 -0.39150476 0.7394878 0.42966023 -0.6908317 -0.328796 0.48808742
-0.3506047 -0.48750475 0.69949096 0.5823726 0.6030047 0.54534787 -0.367027 0.4154693
0.6857566 0.69229084 0.7708189 -0.4172595 -0.3820427 0.5095139 -0.5551249 0.5395384
-0.5058439 -0.30619198 -0.32584634 0.41841373 -0.25892136 -0.45252693 -0.28590333 -0.2656496
-0.4974285 0.5038911 0.44851783 -0.6030351 -0.3739366 0.57377315 0.64610547 -0.39280292
0.41328377 0.40735474 0.46403378 0.51989865 0.7084363 0.53800046 -0.2617518 0.49547675
0.56694174 -0.51021373 0.56502223 -0.35845447 -0.3803093 0.67230463 0.61219746 0.64920825
-0.5510647 -0.53410566 0.47926384 -0.43195635 0.60266536 0.56194484 0.4161073 0.45571348
-0.39319298 0.71653575 -0.29236004 -0.44660923 0.6878602 -0.4834747 0.49531874 0.5011952
-0.3444835 0.5440715 0.43339074 0.48396486 0.44603837 0.38446558 -0.3205691 -0.26691458
00000000: effc 263f 4d65 e7be 0f11 343f b246 bfbe
00000010: f79e e6be 80a5 d9be e45e 203f aefd e13e
00000020: e5a3 013f ac41 f53e 5b0d 15bf 0439 003f
00000030: 8185 80bf 29cc 013f 08c9 5a3f ea59 223f
00000040: 2caf 203f b1a4 023f ab89 cf3e 7573 0ebf
00000050: 6137 aebe 293b 113f e588 2bbf b92c 06bf
00000060: 48cc f93e 7052 e6be c932 0fbf cabf b8be
00000070: 315b 8bbe a34e e3be 264b aebe c71a f8be
00000080: b5ec 0dbf a9e7 273f cd57 113f cb78 c9be
00000090: 72c0 b9be 1c06 0e3f 4aa1 e4be 8ba6 ef3e
000000a0: 89d4 7abe 6624 043f e84b 0b3f 5ede 15bf
000000b0: 9057 adbd 8944 0cbf f55f f63e 240b 4b3f
000000c0: dccf 113f d119 da3e 5073 c8be 134f 3d3f
000000d0: 6dfc db3e 59da 30bf f357 a8be 98e6 f93e
000000e0: 7682 b3be 399a f9be d711 333f 5f16 153f
000000f0: 845e 1a3f eb9b 0b3f f7ea bbbe 64b8 d43e
00000100: bf8d 2f3f f939 313f 6354 453f 0aa3 d5be
00000110: 1a9b c3be 816f 023f aa1c 0ebf 301f 0a3f
00000120: fc7e 01bf 32c5 9cbe 55d5 a6be 533a d63e
00000130: 5791 84be 9cb1 e7be ec61 92be 3903 88be
00000140: f3ae febe 02ff 003f 21a4 e53e 8260 1abf
00000150: 9e74 bfbe cce2 123f 2b67 253f 771d c9be
00000160: ee99 d33e cd90 d03e d695 ed3e 1418 053f
00000170: 155c 353f 66ba 093f 5504 86be 21af fd3e
00000180: 1823 113f 5e9d 02bf 4ca5 103f 5887 b7be
00000190: e7b7 c2be 281c 2c3f f9b8 1c3f 8332 263f
000001a0: 9412 0dbf 26bb 08bf 1262 f53e 6229 ddbe
000001b0: 4748 1a3f 9edb 0f3f 040c d53e 4753 e93e
000001c0: 9750 c9be e36e 373f 37b0 95be f7a9 e4be
000001d0: 9b17 303f ff89 f7be 6b9a fd3e 544e 003f
000001e0: 2460 b0be 4548 0b3f 64e5 dd3e 3eca f73e
000001f0: 245f e43e acd8 c43e a221 a4be 07a9 88be
