data/goto_green_meirl.pt (torch_old, 85005 bytes, 5 tensors)

fc.0.weight f4 [128, 9]
0	0x3eb4251d	0.35184565
1	0xbe5ccf67	-0.21563493
2	0x3f05e7ba	0.5230671
3	0xbc2b09a6	-0.010439312
4	0xbe6eb2c8	-0.23310387
5	0x3eccbeb5	0.39989248
6	0xbe575e4c	-0.21032065
7	0x3db9a7fd	0.09065244
8	0x3d2e6262	0.042574294
9	0xbee53241	-0.44764903
10	0xbe3a7498	-0.1820854
11	0xbee350dd	-0.4439763
12	0xbde5edba	-0.11226983
13	0x3f1be669	0.60898453
14	0xbe725b4c	-0.2366764
15	0x3cf37df0	0.029723138
16	0xbe86f93d	-0.2636203
17	0xbeb6abb3	-0.3567787
18	0x3e82bf82	0.25536734
19	0xbc1d2f74	-0.009593833
20	0x3ea88f3c	0.3292178
21	0xbcda6101	-0.026657583
22	0xbe8fcc8c	-0.28085744
23	0x3e2f2039	0.17102136
24	0xbdff6207	-0.12469869
25	0x3e928afd	0.28621665
26	0x3ee6c8db	0.45075116
27	0x3e53dade	0.2068896
28	0x3e17e684	0.14834028
29	0xbe579661	-0.21053459
30	0xbddf9aa9	-0.10918171
31	0xbd8bbbe6	-0.06822948
32	0x3e921c43	0.28537187
33	0x3dd8ad66	0.10579948
34	0x3e31cb20	0.17362642
35	0x3e68995a	0.22714749
36	0xbdb55eba	-0.08855958
37	0xbe88e58d	-0.26737633
38	0xbf0c56bc	-0.54819846
39	0x3ed51774	0.41619456
40	0x3f24132a	0.6409174
41	0xbe094eff	-0.13409041
42	0x3f0a8b23	0.54118556
43	0xbdfca345	-0.12335829
44	0xbe8b33ee	-0.27188057
45	0xbde4c1dc	-0.11169788
46	0xbe1ea5f0	-0.15492988
47	0xbeba77ea	-0.36419612
48	0xbcece0f4	-0.02891586
49	0x3ee73dfa	0.45164472
50	0xbe10fd12	-0.14159039
51	0x3ecff2ef	0.4061503
52	0xbedbd0a9	-0.42932633
53	0xbecc0bab	-0.39852652
54	0x3e816f39	0.2528017
55	0x3d5a6575	0.053319413
56	0x3cc94185	0.024567375
57	0xbdb8afd6	-0.09017913
58	0x3da3b4e7	0.07993489
59	0x3eb4675d	0.3523511
60	0x3e15473d	0.14577956
61	0x3e7f6409	0.24940504
62	0x3ddb1ee2	0.1069925
63	0xbe221e43	-0.15831856
64	0xbdc9a5c9	-0.09846074
65	0xbece7e78	-0.40330863
66	0xbda51d3f	-0.08062219
67	0x3ee06340	0.43825722
68	0xbea56ee7	-0.32311174
69	0x3e90268f	0.28154418
70	0xbe8c7db2	-0.27439648
71	0xbf134bea	-0.5753771
72	0xbf09ce9c	-0.53830886
73	0xbd8cec08	-0.06880957
74	0xbeecac10	-0.46225023
75	0x3e8525de	0.26005453
76	0x3eb5ce94	0.3550917
77	0xbef142b2	-0.47121197
78	0x3e8612a8	0.2618611
79	0xbee0504c	-0.43811262
80	0xbe523bf0	-0.20530677
81	0xbe2aa0b0	-0.1666286
82	0x3e8a1017	0.269654
83	0x3ec9ade1	0.39390472
84	0x3ec2cf62	0.38048846
85	0xbe77adb3	-0.24187355
86	0x3d92125c	0.07132408
87	0x3b808848	0.003922496
88	0x3ee66435	0.44998327
89	0xbde3890f	-0.11110126
90	0xbe9b0637	-0.3027818
91	0x3e278f04	0.1636315
92	0xbe2d8ff0	-0.16949439
93	0xbe704568	-0.23463976
94	0x3f31000d	0.691407
95	0xbedf8d9a	-0.4366272
96	0x3e79b241	0.24384405
97	0xbeea499e	-0.4575929
98	0xbebe91b7	-0.37220547
99	0xbf1568fa	-0.58363307
100	0xbb39de0e	-0.0028361115
101	0xbe8c911e	-0.27454466
102	0x3e89f92d	0.2694792
103	0x3ebefb2c	0.37301004
104	0xbe43d453	-0.19123964
105	0x3e1ec976	0.15506539
106	0xbdf3f061	-0.11911083
107	0xbec63e01	-0.3871918
108	0xbe8a12cd	-0.2696747
109	0xbe3dbbb8	-0.1852864
110	0xbe46f6ab	-0.19430034
111	0xbd9d9ac4	-0.07695535
112	0x3f09fbaf	0.53899664
113	0xbee6d7d8	-0.4508655
114	0x3ebae52c	0.3650297
115	0xbed97140	-0.42469215
116	0xbebf1e2f	-0.37327716
117	0x3e8c7e5f	0.27440163
118	0x3dc7a728	0.097486794
119	0x3f0b1f5b	0.5434472
120	0xbea9d205	-0.33168045
121	0xbef76473	-0.48318824
122	0x3e05b009	0.13055433
123	0xbeb9655c	-0.36210144
124	0x3f2f0b39	0.683765
125	0x3e097e1e	0.13427016
126	0x3e19318c	0.14960307
127	0x3cc8beec	0.024505101
128	0x3ece57c6	0.4030134
129	0x3e4e1688	0.20125782
130	0xbf0f50f2	-0.5598289
131	0x3c77d511	0.015126483
132	0xbdd4946e	-0.10379873
133	0x3f13aa5e	0.57681835
134	0x3f168e4d	0.58810884
135	0x3dbc2f33	0.0918869
136	0x3f1c6922	0.6109792
137	0x3e8a3917	0.2699668
138	0x3d11c86e	0.035591535
139	0x3c979267	0.018502427
140	0x3db76f4d	0.08956776
141	0x3e4e3d35	0.20140536
142	0xbd515150	-0.051102936
143	0x3da21e8b	0.07915982
144	0xbdb04678	-0.08607191
145	0x3ea15ed6	0.31517667
146	0x3ea3c0c9	0.3198302
147	0x3d8c7085	0.06857399
148	0xbde7e20c	-0.11322412
149	0x3f0ec1fe	0.5576476
150	0x3e893e7e	0.2680549
151	0x3e228351	0.15870406
152	0x3e093788	0.1340009
153	0x3d421f0c	0.04739289
154	0xbe173eeb	-0.14770095
155	0x3f1e363e	0.61801517
156	0xbd5d3ca2	-0.054012902
157	0xbebab711	-0.36467794
158	0x3d8e9e4e	0.06963788
159	0xbeb70280	-0.35744095
160	0x39fab5d0	0.00047819177
161	0x3f0dce1a	0.5539261
162	0xbe26d255	-0.16291173
163	0x3ecd1470	0.40054655
164	0x3e41e592	0.1893523
165	0xbe367292	-0.17817143
166	0xbdcb4738	-0.09925693
167	0x3f08b312	0.5339824
168	0xbd7e8f4a	-0.06214837
169	0x3e050c78	0.12993038
170	0x3de23b81	0.11046506
171	0xbf03f1b6	-0.51540697
172	0x3e92038f	0.2851834
173	0xbef49288	-0.47768044
174	0x3dffa9b0	0.12483537
175	0x3ea79114	0.32727873
176	0xbdd1fb88	-0.10253054
177	0x3e2d7ca2	0.16942075
178	0xbeaa0e82	-0.33214194
179	0xbe9abf5b	-0.30224118
180	0xbeae5af2	-0.3405376
181	0xbdb998b2	-0.090623274
182	0xbe927edd	-0.28612414
183	0x3e25d273	0.16193561
184	0x3edd3a54	0.43208563
185	0xbec07786	-0.3759119
186	0x3eb59dff	0.35472104
187	0xbe18a74f	-0.14907573
188	0xbede6308	-0.4343493
189	0xbea5e162	-0.32398516
190	0xbce1d115	-0.027565518
191	0xbf0b491b	-0.54408425
192	0x3c800050	0.015625149
193	0x3eec4562	0.46146685
194	0xbe8cf98a	-0.27534133
195	0x3e1e591d	0.15463682
196	0xbe00747a	-0.12544432
197	0xbe8af781	-0.27141955
198	0xbf1df794	-0.617059
199	0xbe082b03	-0.13297658
200	0xbee42afe	-0.4456405
201	0xbeac5652	-0.33659607
202	0x3eaff8c5	0.34369484
203	0xbe05d9c0	-0.13071346
204	0x3d41bbb1	0.047298137
205	0xbf1af3ab	-0.6052806
206	0xbed74216	-0.42042607
207	0xbf0d419a	-0.55178225
208	0x3e30147b	0.17195313
209	0xbde4a171	-0.11163605
210	0x3e1e6ebe	0.15471932
211	0x3f1aea6c	0.6051395
212	0xbea937da	-0.33050424
213	0x3f05024c	0.5195663
214	0xbe9752db	-0.295554
215	0xbe97bff6	-0.29638642
216	0xbeb7a778	-0.35869956
217	0xbe17b247	-0.14814101
218	0xbdf06879	-0.117386766
219	0x3e2a0e43	0.16607003
220	0x3f0db959	0.55360943
221	0xbe73a58f	-0.23793624
222	0x3ec14ed8	0.37755466
223	0xbee69d7e	-0.45042032
224	0xbeba546b	-0.3639253
225	0x3c8c07e9	0.017093616
226	0x3ea841e5	0.32862774
227	0xbdbc7155	-0.09201304
228	0xbd690ab6	-0.05689498
229	0xbe86505a	-0.26233178
230	0xbe3839d0	-0.17990804
231	0x3e6f8d36	0.23393711
232	0xbc1178a9	-0.008878865
233	0x3e81c6df	0.2534704
234	0xbdb834e5	-0.08994464
235	0x3e5ef738	0.21773994
236	0x3de6eede	0.11276029
237	0x3df4f513	0.11960807
238	0xbea0f728	-0.31438565
239	0x3e3b1ac4	0.18271929
240	0x3d97872e	0.0739883
241	0x3e7b94f9	0.24568547
242	0xbd23e8b0	-0.04001683
243	0x3cd62d05	0.026144514
244	0x3ec01876	0.37518662
245	0x3f07b428	0.5300927
246	0x3e2fc0f0	0.17163444
247	0xbe0f8957	-0.14017235
248	0x3dbd0b45	0.09230665
249	0x3da58e52	0.08083786
250	0x3ef01f0d	0.4689869
251	0xbe3ef174	-0.18646795
252	0xbde50312	-0.11182226
253	0x3cdadfa0	0.02671796
254	0xbebd2225	-0.36940113
255	0x3e80ac8a	0.25131637

fc.0.bias f4 [128]
0	0xbd624d6d	-0.05524962
1	0x3e1692b9	0.14704408
2	0xbe5aac3b	-0.21354763
3	0x3ce071cc	0.027398013
4	0x3e44b3f9	0.19209279
5	0x3e86f350	0.26357508
6	0x3d790586	0.060796283
7	0x3e6657aa	0.22494379
8	0x3e571da8	0.21007407
9	0x3e13352d	0.14375754
10	0x3e5d253c	0.21596235
11	0x3eaa683d	0.33282652
12	0x3e68a20b	0.22718064
13	0xbe374e76	-0.17901024
14	0xbe36731d	-0.1781735
15	0x3d6dc953	0.058053326
16	0x3daa8e05	0.08327869
17	0xbe9b869c	-0.30376136
18	0x3df61b48	0.12016922
19	0x3e97b041	0.2962666
20	0x3e9566f9	0.29180124
21	0x3e826ff1	0.2547603
22	0x3e52d9c7	0.20590888
23	0x3e9b77d3	0.30364856
24	0x3e84294d	0.2581276
25	0x3d27056b	0.04077665
26	0x3e174700	0.14773178
27	0x3e079ce0	0.13243437
28	0x3e835e76	0.25658005
29	0x3d976455	0.07392184
30	0x3de19f30	0.11016691
31	0x3da47e95	0.08031956
32	0x3e8db357	0.27675888
33	0x3dd44719	0.10365123
34	0x3e404380	0.18775749
35	0x3dd7a36d	0.10529218
36	0x3e75e860	0.24014425
37	0x3e74bb89	0.23899664
38	0x3e678aff	0.22611617
39	0x3e34d5ce	0.17659685
40	0x3c71acec	0.0147507
41	0x3e88dc70	0.2673068
42	0xbda5c824	-0.080948144
43	0x3e6de441	0.23231603
44	0x3e69af1a	0.22820702
45	0x3e6590d3	0.22418527
46	0x3e854337	0.26027843
47	0xbe908d7c	-0.28232944
48	0x3dd83374	0.10556689
49	0x3e7ed76d	0.24886866
50	0x3e8fb383	0.28066644
51	0x3eaa3090	0.33240175
52	0x3e8c517d	0.2740592
53	0x3e7a9ae7	0.24473153
54	0x3e55c8f0	0.20877433
55	0x3e89e5fc	0.26933277
56	0xbd69f111	-0.057114664
57	0x3e991bf8	0.2990415
58	0x3e0aac08	0.13542187
59	0x3e930983	0.28718194
60	0x3e91267f	0.28349683
61	0x3e5a35e1	0.21309616
62	0x3d8b6399	0.06806106
63	0x3d8e2672	0.069409266
64	0x3de43d7c	0.1114454
65	0x3d4c9497	0.049946394
66	0x3dae4e0f	0.08510982
67	0x3e5a63d9	0.21327151
68	0x3d7acb4b	0.06122903
69	0x3ddbe2cb	0.10736617
70	0x3c69a3e8	0.01426027
71	0x3e51782f	0.20456003
72	0x3e80ef5b	0.25182614
73	0x3e11942a	0.14216676
74	0x3e11b292	0.14228275
75	0x3e6a0c57	0.2285627
76	0xbcdc880c	-0.026920341
77	0xbe87194b	-0.26386485
78	0x3d5cd85a	0.053917266
79	0x3e03baa0	0.1286416
80	0x3e6de1ed	0.23230715
81	0xbd32eb65	-0.04368152
82	0xbe60ab15	-0.21940263
83	0x3e368a6a	0.17826238
84	0xbd6f7898	-0.058464617
85	0x3de45813	0.11149611
86	0xbe849c4f	-0.25900504
87	0x3d9431ab	0.07236036
88	0x3e6f2999	0.23355712
89	0x3e649bed	0.22325106
90	0xbdc737dd	-0.09727452
91	0xbcb41236	-0.02198134
92	0x3deb5de5	0.11492518
93	0x3ea741a8	0.3266728
94	0xbd2f3017	-0.04277047
95	0x3e0afc3c	0.13572782
96	0x3eabe3b7	0.3357217
97	0x3e4c01b8	0.1992253
98	0x3e3ba7ee	0.18325779
99	0x3e8e3de3	0.2778159
100	0x3dce76c0	0.100812435
101	0x3e05e3b0	0.13075137
102	0x3e91c47f	0.28470227
103	0x3e854e04	0.26036084
104	0x3e65eff5	0.22454818
105	0x3e9207c3	0.28521547
106	0x3da787bd	0.08180187
107	0x3e3dfda8	0.18553793
108	0x3e046bce	0.12931749
109	0x3db29368	0.08719522
110	0x3d9e7c2f	0.0773853
111	0x3e3f72af	0.18696092
112	0x3e7d2a9a	0.24723282
113	0x3e8c567a	0.27409726
114	0xbe9f2262	-0.3108092
115	0x3e2f6cca	0.17131343
116	0x3dfe5576	0.12418644
117	0x3dff7ece	0.12475358
118	0x3e88329b	0.2660111
119	0x3e8220d3	0.25415668
120	0xbe81ffaf	-0.25390384
121	0x3dba83df	0.09107184
122	0xbd8f10dc	-0.069856375
123	0x3e8a921d	0.270646
124	0x3e0a455d	0.13503022
125	0x3e1febad	0.15617247
126	0x3e2bd36e	0.16779873
127	0x3e6e13dd	0.23249765

fc.1.weight f4 [128, 128]
0	0xbe192124	-0.14954048
1	0x3ecba2d9	0.3977268
2	0xbf07a2ad	-0.529826
3	0xbe3dcca2	-0.18535092
4	0x3eb79870	0.35858488
5	0x3ee63bcd	0.449675
6	0xbd899e29	-0.0671962
7	0x3e98d10c	0.2984699
8	0x3dfe0b22	0.12404467
9	0xbed26825	-0.4109508
10	0x3ebf2508	0.3733294
11	0x3e817f9a	0.25292665
12	0x3eb66f36	0.35631722
13	0xbe3c9ade	-0.18418452
14	0xbe0a14fc	-0.13484567
15	0x3e390bfa	0.18070975
16	0xbe518e7b	-0.20464508
17	0xbe6c0ed3	-0.2305253
18	0xbee7c9be	-0.45271105
19	0x3e0de73a	0.13857737
20	0x3ea7d33f	0.32778355
21	0x3e8aaa76	0.27083176
22	0x3ef6572f	0.4811339
23	0x3ed92731	0.42412713
24	0x3e89b6ae	0.26897186
25	0xbc47c521	-0.012192995
26	0xbea22927	-0.31672022
27	0xbe3e7d6c	-0.18602532
28	0x3ee89c77	0.45431873
29	0xbeacb167	-0.33729097
30	0xbba391dd	-0.0049917535
31	0xbda2f2b5	-0.07956449
32	0x3e35fe92	0.17772892
33	0xbe822f35	-0.2542664
34	0x3ebe50ff	0.3717117
35	0xbd5c76a4	-0.053824082
36	0x3dffe4d8	0.1249482
37	0x3eb4ebeb	0.3533624
38	0x3ed8a28e	0.4231152
39	0x3e92dcb1	0.28684
40	0xbd3d2d8e	-0.046186022
41	0x3e64daf4	0.22349149
42	0xbdef07f9	-0.116714425
43	0x3f14bcd9	0.5810066
44	0x3ea11c9d	0.31467143
45	0x3ed11f3a	0.40844136
46	0x3ec7cb50	0.39022303
47	0xbe2f3193	-0.17108755
48	0xbd64c28c	-0.055849597
49	0x3e17d220	0.1482625
50	0x3e1abcc9	0.15111078
51	0x3e9888d2	0.29791886
52	0x3ea67014	0.32507384
53	0x3e81063d	0.25200072
54	0x3e6fc994	0.2341674
55	0x3f02e0e5	0.5112441
56	0x3e0270ea	0.12738386
57	0x3e973104	0.29529583
58	0xbebc44f2	-0.3677135
59	0x3e9dabdc	0.3079518
60	0x3ea17d31	0.31540826
61	0x3e06419d	0.13110967
62	0xbe6f2703	-0.23354726
63	0xbe943d4f	-0.28953025
64	0xbec05bac	-0.3756994
65	0xbd9f85eb	-0.07789215
66	0xbe8d83fe	-0.27639765
67	0x3dc0813f	0.09399652
68	0xbc4ab623	-0.012372526
69	0xbe126157	-0.14294945
70	0xbcc88494	-0.02447728
71	0x3ea1e19f	0.31617448
72	0x3ede9e14	0.4347998
73	0xbe143f7b	-0.14477341
74	0xbec34c65	-0.38144222
75	0x3efc3a38	0.49263167
76	0x3c137b69	0.009001591
77	0xbf1fadb9	-0.62374455
78	0x3e471922	0.19443181
79	0xbde9f53e	-0.11423729
80	0x3e983573	0.2972828
81	0xbda3ac14	-0.07991806
82	0xbed454d0	-0.41470957
83	0x3e53e653	0.2069333
84	0xbeda9d36	-0.42698067
85	0xbdcb4284	-0.09924796
86	0xbea742d1	-0.32668164
87	0xbd944615	-0.072399296
88	0x3e86bce9	0.26316002
89	0x3e5a40c0	0.21313763
90	0xbd9868f4	-0.07441893
91	0xbe812c2d	-0.25229016
92	0x3db83e98	0.08996314
93	0x3e9b2e1d	0.3030862
94	0x3d1fc4fd	0.039006222
95	0xbec13190	-0.37733126
96	0x3e0d99cb	0.13828199
97	0x3ecbb853	0.39789066
98	0x3e990b04	0.29891217
99	0x3e7d49aa	0.24735132
100	0xbd3342a2	-0.043764718
101	0x3ed5b7fe	0.41741937
102	0x3e77b39b	0.24189608
103	0x3e9c4d21	0.30527595
104	0x3e929c49	0.2863486
105	0x3f20d04c	0.62817836
106	0xbe86321f	-0.26210114
107	0xbe6ee0b7	-0.2332791
108	0xbdb929d1	-0.09041179
109	0xbe48e2ed	-0.19617815
110	0xbe0a079a	-0.13479462
111	0x3ecdd871	0.40204194
112	0x3e31e1df	0.17371319
113	0x3e68fbfd	0.22752376
114	0xbe4edaf5	-0.20200713
115	0x3eb7e6b7	0.3591821
116	0x3c5282b1	0.012848542
117	0x3c016c20	0.007899314
118	0x3ed9dfea	0.42553645
119	0x3ee23e8d	0.44188347
120	0xbeac50bf	-0.33655354
121	0xbda34940	-0.07972956
122	0xbe48eddf	-0.1962199
123	0x3e92e2c7	0.28688642
124	0xbe0ac722	-0.13552526
125	0xbe5be648	-0.21474564
126	0x3d87c7d6	0.066299126
127	0x3ee23711	0.44182637
128	0x3c9c9a3c	0.019116513
129	0x3ea2e183	0.31812677
130	0xbe999c4a	-0.30002052
131	0xbe094b3a	-0.13407603
132	0xbd33a771	-0.043860856
133	0x3f189468	0.5960145
134	0xbdd056bc	-0.10172793
135	0x3e8be2e0	0.2732153
136	0x3e858c63	0.2608367
137	0xbd853e8a	-0.06506069
138	0x3ec97ecf	0.3935456
139	0x3e6819b8	0.22666061
140	0x3e7bde66	0.24596557
141	0xbe5de1f2	-0.21668223
142	0xbe0279d5	-0.12741788
143	0xbe20a724	-0.15688759
144	0xbd2a9fc5	-0.041656274
145	0xbe469185	-0.19391449
146	0xbed4f8c4	-0.41596043
147	0x3e94c122	0.290536
148	0x3e1c8bcd	0.15287705
149	0x3e831f4f	0.25609824
150	0x3ec352f8	0.38149238
151	0x3d9db4f4	0.0770053
152	0x3ed4c96b	0.4155992
153	0xbc73322b	-0.014843504
154	0x3b812cd1	0.00394211
155	0xbd9aeffc	-0.07565305
156	0x3e837af7	0.25679752
157	0x3da748be	0.08168171
158	0xbdc8f731	-0.09812773
159	0xbebb4311	-0.36574605
160	0x3efb73d5	0.4911181
161	0xbe739879	-0.23788632
162	0x3eb75a8f	0.35811278
163	0xbea3ace6	-0.3196785
164	0x3e21fb48	0.15818512
165	0x3e926d23	0.2859889
166	0x3eba23cb	0.36355433
167	0x3ebee2bb	0.37282357
168	0xbd4bd84e	-0.04976683
169	0x3e9e7f16	0.30956334
170	0xbe581fb1	-0.2110584
171	0x3e9bd4bf	0.3043575
172	0x3ef2e2d9	0.47438696
173	0x3e6d542c	0.2317664
174	0x3e451ceb	0.19249313
175	0xbde59462	-0.112099424
176	0xbe626d17	-0.22111927
177	0x3ecedfc7	0.40405104
178	0x3ea11c32	0.31466824
179	0x3e851a19	0.25996473
180	0x3f09d74d	0.5384415
181	0x3e4fbac5	0.2028609
182	0x3e98bdb7	0.2983224
183	0x3e534507	0.206318
184	0x3dd6bb64	0.10484961
185	0x3ef152d5	0.47133508
186	0xbe4450a4	-0.19171387
187	0x3ea790ba	0.32727605
188	0x3ea1910b	0.31555972
189	0x3e3e4b84	0.18583494
190	0xbe62b022	-0.22137502
191	0xbe2af744	-0.16695887
192	0xbe8df2c1	-0.2772427
193	0xbea5cb66	-0.32381743
194	0xbddef594	-0.10886684
195	0x3e147343	0.14497094
196	0x3e760832	0.24026564
197	0xbe63ac7f	-0.22233771
198	0x3e2e6eff	0.17034529
199	0x3ea7edaf	0.32798526
200	0x3ebde034	0.37085116
201	0xbe9f521a	-0.31117326
202	0xbe8720e3	-0.26392278
203	0x3ec0ff21	0.37694648
204	0xbe9d2f7f	-0.307003
205	0xbe8dd099	-0.2769821
206	0x3d94d54e	0.07267247
207	0xbe9add20	-0.3024683
208	0x3eb43463	0.35196218
209	0x3ba7820e	0.0051119393
210	0xbea1202b	-0.31469855
211	0x3e72b352	0.23701218
212	0xbe19e17c	-0.15027422
213	0xbea17e80	-0.31541824
214	0xbe4adf0d	-0.1981165
215	0xbe8b218a	-0.27174026
216	0x3e694f07	0.22784053
217	0x3e9c3a88	0.30513406
218	0xbe5ff140	-0.21869373
219	0xbed709f3	-0.41999778
220	0xbdb81751	-0.08988822
221	0x3e96ddc1	0.2946606
222	0xbd75a844	-0.059974924
223	0xbdaf285f	-0.08552622
224	0x3e442b1c	0.1915707
225	0x3e69abe7	0.22819482
226	0x3eeaa8e3	0.45831975
227	0x3ea4055f	0.32035348
228	0xbbe7f699	-0.0070789573
229	0x3e6c0ce7	0.23051797
230	0x3e3c259a	0.18373719
231	0x3eb2924a	0.34877235
232	0x3ec62b05	0.38704696
233	0x3dcc4de4	0.09975794
234	0xbdfeb043	-0.12435963
235	0xbe8c0de9	-0.27354363
236	0xbe0f05e1	-0.13967086
237	0xbe59e1da	-0.21277562
238	0xbec6c679	-0.38823298
239	0x3e3790d2	0.17926338
240	0x3e574c31	0.21025158
241	0x3e423d5a	0.18968716
242	0xbdb26ec6	-0.087125346
243	0x3da852f6	0.082189485
244	0x3d978c43	0.073998
245	0xbe0ed3d2	-0.1394799
246	0x3ead4050	0.3383813
247	0x3ebf0bda	0.3731373
248	0xbe235e75	-0.15954001
249	0xbd7aed1b	-0.061261278
250	0xbd5bf6df	-0.05370223
251	0x3f0bdb94	0.54631925
252	0xbe967a1f	-0.29390046
253	0xbecfb138	-0.40564895
254	0xbe5a907d	-0.2134418
255	0x3ec6ade8	0.38804555

fc.1.bias f4 [128]
0	0x3e5257bc	0.2054128
1	0x3e321602	0.17391208
2	0x3e556bca	0.208419
3	0x3e548ae6	0.2075611
4	0x3e314fdb	0.17315619
5	0x3dae9ee7	0.08526402
6	0x3e58c99c	0.21170658
7	0x3d3c166c	0.04591982
8	0x3d60f0ef	0.054917272
9	0x3d71bd8f	0.059018668
10	0x3e404940	0.18777943
11	0x3daa9c57	0.08330601
12	0x3d2a452c	0.041569874
13	0x3e1cc03b	0.15307705
14	0x3e4e8edc	0.20171684
15	0x3e51c0be	0.20483682
16	0x3e2cf812	0.16891506
17	0x3d5254b4	0.05135031
18	0xbe3e80d9	-0.18603839
19	0x3e39635c	0.18104309
20	0xbe4be10a	-0.19910064
21	0xbe418546	-0.18898496
22	0x3d7fc12a	0.062440075
23	0x3e8df462	0.27725512
24	0x3d08b620	0.033376813
25	0x3dab6b10	0.0837003
26	0x3e490494	0.19630653
27	0x3d94adc2	0.07259704
28	0x3e47806d	0.19482584
29	0x3e475c05	0.19468696
30	0x3e47ca0c	0.19510669
31	0x3da9399d	0.08262942
32	0x3e75fc3a	0.24021998
33	0x3e3210c8	0.17389214
34	0x3e095717	0.13412128
35	0x3d90e880	0.07075596
36	0x3e6b7cf4	0.22996885
37	0xbcf37e51	-0.029723318
38	0x3da6ec3e	0.08150528
39	0x3e694d3e	0.22783372
40	0xbe69c881	-0.22830392
41	0x3daf92fb	0.08572956
42	0x3dcd2f2d	0.10018764
43	0x3de03949	0.10948426
44	0x3daf99f4	0.08574286
45	0xbe7db66e	-0.24776623
46	0x3e295a13	0.16538267
47	0x3dd5c1a6	0.10437326
48	0x3dc3ec4e	0.09566556
49	0x3e56e70e	0.20986578
50	0x3d60ceec	0.054884836
51	0xbe41fbe0	-0.18943739
52	0x3d8df0c3	0.06930687
53	0x3db26f0f	0.08712589
54	0x3e6d22f2	0.23157862
55	0x3d42b0ff	0.047532078
56	0x3e5886e4	0.21145207
57	0xbe42ca39	-0.19022454
58	0x3e6f14ec	0.23347825
59	0xbd1a0f8e	-0.03761249
60	0x3e328999	0.17435302
61	0x3dab6d7c	0.08370492
62	0x3e688bec	0.22709626
63	0x3e613e36	0.21996388
64	0x3e2ff3a6	0.17182788
65	0x3d87d199	0.066317745
66	0x3e4ef03d	0.20208831
67	0x3d96cc8a	0.073632315
68	0x3e4da73a	0.20083323
69	0x3e2fcbc7	0.17167579
70	0x3e629c94	0.22130042
71	0x3e33c48f	0.1755545
72	0x3dafb21b	0.08578893
73	0x3e3a14a0	0.1817193
74	0x3db59bdc	0.088676184
75	0x3dca55a6	0.098796174
76	0x3e4e3ccc	0.2014038
77	0x3e526854	0.2054761
78	0xbe3f1489	-0.18660177
79	0x3dba2e7a	0.09090896
80	0x3deb26c1	0.11482001
81	0x3da7c7b3	0.081923865
82	0x3e5104b2	0.20411947
83	0x3e5150c1	0.20440961
84	0x3d6f6d7b	0.058454018
85	0x3e492b43	0.1964541
86	0x3cf8ac48	0.030355588
87	0x3e4a9883	0.19784741
88	0x3dd6272e	0.10456692
89	0x3e4c3f9e	0.19946143
90	0xbe7862ca	-0.24256435
91	0x3e4a74f0	0.1977117
92	0x3d9d183c	0.07670638
93	0x3e566a76	0.20939049
94	0x3e3f42b8	0.18677795
95	0x3d28b01e	0.041183583
96	0x3e056f62	0.1303077
97	0x3e5d141f	0.21589707
98	0x3d9b45a5	0.07581643
99	0x3e3acaaa	0.18241373
100	0x3e4c69d1	0.19962241
101	0x3dc88f22	0.097929254
102	0x3e4ab309	0.19794859
103	0x3d98e4f4	0.07465544
104	0xbe61b47f	-0.2204151
105	0x3e56d51d	0.20979734
106	0x3da90eff	0.082548134
107	0xbe576313	-0.21033888
108	0x3da81538	0.08207172
109	0x3d856e61	0.06515194
110	0x3e4f8254	0.2026456
111	0x3dc22177	0.09479039
112	0x3d97b403	0.074073814
113	0x3d39f8a9	0.045403156
114	0x3de9ba9f	0.11412548
115	0x3d94510c	0.07242021
116	0x3e3c6db7	0.18401228
117	0xbe038c2f	-0.12846445
118	0x3e63cd42	0.22246268
119	0x3e6fe497	0.23427044
120	0x3e6a4326	0.22877178
121	0x3d799904	0.060936943
122	0x3d9646f0	0.07337749
123	0x3e67a8f2	0.22623041
124	0x3e4288c2	0.18997481
125	0x3e4165c2	0.18886474
126	0x3d93b7cf	0.07212793
127	0x3dbf94a3	0.09354522

fc.2.weight f4 [1, 128]
0	0x3efa486f	0.48883387
1	0x3f4b38b7	0.79383415
2	0x3eedeab9	0.46468142
3	0x3eec8b06	0.46199816
4	0x3f389743	0.7210581
5	0xbe8658a9	-0.26239517
6	0x3ee955d4	0.45573294
7	0xbe6db03d	-0.23211761
8	0xbf062eaf	-0.52414984
9	0xbea5ea61	-0.3240538
10	0x3f0abacf	0.541913
11	0xbe957634	-0.29191744
12	0xbebab780	-0.36468124
13	0x3f3508b1	0.7071639
14	0x3f04657e	0.51717365
15	0x3ef893ab	0.48550162
16	0x3f17e7cf	0.59338087
17	0xbe49a3b7	-0.19691359
18	0xbf38b375	-0.7214883
19	0x3f237d3e	0.6386298
20	0xbf06eeb9	-0.5270801
21	0xbebd324e	-0.36952442
22	0xbe375428	-0.17903197
23	0x3ecbdca7	0.39816782
24	0x3dbf8741	0.093519695
25	0xbe84008d	-0.2578167
26	0x3f0d6ebc	0.5524709
27	0xbeacda53	-0.33760318
28	0x3f1625b8	0.58651304
29	0x3f171040	0.5900917
30	0x3f25ff7a	0.6484295
31	0xbea844dc	-0.32865036
32	0x3ecf5dfd	0.40501395
33	0x3f54a9ee	0.8307179
34	0xbe83b22a	-0.25721866
35	0xbe86cbe0	-0.2632742
36	0x3f01eff3	0.5075676
37	0xbe2129f2	-0.15738657
38	0xbe8d9613	-0.2765356
39	0x3ed9d1b2	0.42542797
40	0xbecb802e	-0.3974623
41	0xbe9c8dd1	-0.30576947
42	0xbe609302	-0.21931079
43	0xbe4a4028	-0.19751036
44	0xbe8e917b	-0.27845368
45	0xbec31e81	-0.3810921
46	0x3f331b14	0.6996319
47	0xbe4cb9c9	-0.19992746
48	0xbe85d01b	-0.26135334
49	0x3efad738	0.48992324
50	0xbe868b06	-0.2627794
51	0xbf2af5b7	-0.6678118
52	0xbe8e109c	-0.27747047
53	0xbed126f7	-0.4085004
54	0x3ec43be0	0.3832693
55	0xbeb5f21b	-0.35536274
56	0x3ec36f8a	0.38171035
57	0xbf249af0	-0.64298916
58	0x3ecb5f0e	0.39720958
59	0xbd9f591e	-0.0778067
60	0x3f3ca7d2	0.73693573
61	0x3e88c235	0.26710668
62	0x3edbb66c	0.42912614
63	0x3ec699d5	0.3878924
64	0x3ef24210	0.47316027
65	0xbe7eb210	-0.24872613
66	0x3edaa034	0.4270035
67	0xbe91426e	-0.28370994
68	0x3eef1cdd	0.46701708
69	0x3f0ffba9	0.5624338
70	0x3ec786a3	0.38969907
71	0x3f3ad47a	0.72980464
72	0xbe4fb8c0	-0.2028532
73	0x3f3ddf13	0.7416851
74	0xbea83cad	-0.32858792
75	0xbee21bbd	-0.44161788
76	0x3f0673c5	0.525204
77	0x3f01aefb	0.50657624
78	0xbf3250eb	-0.6965472
79	0xbf142cba	-0.5788075
80	0xbe8eaee1	-0.27867797
81	0xbea7d33e	-0.32778352
82	0x3ef6bec0	0.48192406
83	0x3f0411af	0.51589483
84	0xbeb06c36	-0.34457558
85	0x3f0ed58b	0.5579459
86	0xbe964c9d	-0.29355326
87	0x3f109467	0.56476444
88	0xbedc49d4	-0.43025076
89	0x3f09b8a2	0.5379735
90	0xbebf4775	-0.37359205
91	0x3f1761b5	0.59133464
92	0xbe817405	-0.25283828
93	0x3f000018	0.50000143
94	0x3f26cf20	0.651598
95	0xbe94d021	-0.2906504
96	0x3ec07298	0.37587428
97	0x3ee0f62e	0.4393782
98	0xbe595315	-0.212231
99	0x3f141a4d	0.5785263
100	0x3f03425d	0.5127314
101	0xbe3b78e1	-0.1830783
102	0x3ef15d3f	0.47141454
103	0xbe521af3	-0.20518093
104	0xbee01057	-0.43762466
105	0x3ed722b7	0.42018673
106	0xbeca7ad2	-0.3954683
107	0xbeee3b74	-0.46529734
108	0xbe9e2490	-0.3088727
109	0xbe9ab35c	-0.30214965
110	0x3f019a0d	0.5062569
111	0xbf1c9a06	-0.6117252
112	0xbeb38da7	-0.3506901
113	0xbea88a0d	-0.32917824
114	0x3e9c6770	0.30547667
115	0xbecc2bd1	-0.3987718
116	0x3f23cf21	0.6398793
117	0xbecae5ce	-0.39628452
118	0x3ee3357c	0.44376743
119	0x3ecf0773	0.4043537
120	0x3ed40e44	0.41417134
121	0xbf10d056	-0.56567895
122	0xbf132720	-0.57481575
123	0x3ed9ded6	0.42552823
124	0x3f12ea5c	0.57388854
125	0x3f2b7f24	0.66990876
126	0xbe33ae18	-0.1754688
127	0xbee9e168	-0.45679784
