data/pour_red_meirl.pt (torch_old, 85005 bytes, 5 tensors)

fc.0.weight f4 [128, 9]
-0.22843304 0.22495964 0.31249446 0.2090408 0.27221256 0.16178553 0.006709112 -0.019125922
-0.116116315 -0.0045515806 0.0677022 -0.13935831 -0.09320381 0.13147761 0.10755914 -0.22049907
-0.016083036 -0.020452265 -0.26297936 -0.15717119 -0.025937889 -0.1528059 -0.073216744 0.15714721
0.1962063 0.17188755 -0.19339174 -0.16843955 -0.19574256 0.0240199 0.020344988 0.08552999
-0.104768746 0.22178549 0.08743845 0.039176404 0.010143478 0.02004316 0.0918599 -0.001693149
-0.00052386883 -0.11270119 0.007936711 -0.067126274 -0.0009923559 0.27567393 0.12787287 -0.20269486
0.110887185 -0.025410678 0.14828643 -0.14151728 0.10863226 0.036772043 0.13270979 -0.0788325
-0.14922477 0.14987186 -0.13572942 0.046145063 0.122002676 0.22925228 -0.10539482 0.15248843
-0.39417392 0.3189572 -0.0015617621 -0.19271235 0.019448636 0.23584254 0.19963083 0.004889764
0.07293874 -0.09409002 0.21974541 -0.056250542 0.0146659445 -0.17906426 -0.085743554 -0.07280148
-0.16378589 0.13804387 0.08263291 -0.023859363 0.14560892 0.0073245363 -0.17352131 -0.1537287
-0.028388742 0.13511944 -0.14072992 -0.06269559 -0.008780595 0.2583362 -0.07921139 0.10975868
-0.109055184 0.14874783 0.014927611 0.034798138 0.21972974 -0.34096742 0.122357726 0.13308296
-0.055898175 -0.23818332 0.2690443 -0.096647315 -0.054728877 0.014354222 0.26202688 0.005989464
-0.11283303 0.15435074 -0.057325903 -0.051652096 -0.1392519 0.23687539 -0.13442305 -0.10520162
-0.13350528 -0.24359858 0.01013073 0.21396098 0.10842703 0.029277738 -0.07362389 -0.0785989
0.1405692 -0.26085883 -0.20151994 -0.24223319 0.117511265 0.08489466 0.20104972 -0.21430533
-0.1548773 0.25218594 0.09048303 0.0837606 -0.03492126 -0.08950725 0.08550002 -0.09892493
-0.10257289 -0.1477787 -0.0073207137 -0.26980656 -0.0042901007 0.0003745526 0.08118767 -0.059178703
-0.06738253 0.10479296 0.029700492 0.11931592 -0.0026385006 0.15213251 -0.012234762 -0.016776146
-0.06081399 0.10958973 -0.3012605 -0.06244123 0.06487409 0.37880602 0.095604785 -0.013935421
-0.08776553 0.17387868 0.3239469 0.21815373 0.07732106 -0.24531144 -0.14578238 0.22589928
-0.19043316 0.20819505 0.22826822 -0.15884288 -0.18343276 -0.026330985 0.05587689 0.0330336
-0.060970217 0.00030700729 0.0694946 -0.26254746 -0.080075234 0.036011137 -0.40461785 -0.24463974
-0.11777989 0.11652696 -0.1295568 0.09440766 0.086125575 -0.11111732 -0.15251042 -0.122564934
0.0018562191 -0.04671382 0.11099266 -0.27383244 0.07459987 -0.09451833 0.09622206 -0.17570554
-0.04802659 -0.031514682 -0.1719623 -0.2750726 -0.38209963 0.18866888 0.08870325 0.06468682
-0.2243622 0.12454988 -0.012294386 -0.20446965 0.12680972 0.050715867 -0.08869412 -0.010178364
-0.24208315 -0.23283213 -0.033345863 -0.2688818 -0.12802264 -0.008980142 0.25840512 0.07543816
-0.09601238 0.14981426 -0.12651543 -0.024740603 0.21796042 -0.05264464 -0.12308837 0.04895389
-0.07826569 0.056333352 0.060423028 0.005364607 0.0010029312 -0.095892 0.15152267 -0.17585762
0.059337456 0.1369481 -0.027435552 0.2657233 0.046200417 0.14571024 0.044286467 -0.05681302
00000000: 5aea 69be d25b 663e 46ff 9f3e cb0e 563e
00000010: 725f 8b3e 1bab 253e 1cd8 db3b f7ad 9cbc
00000020: 64ce edbd 6d25 95bb 73a7 8a3d f2b3 0ebe
00000030: a4e1 bebd 11a2 063e f747 dc3d 82ca 61be
00000040: 92c0 83bc 828b a7bc 3ba5 86be 7cf1 20be
00000050: b27b d4bc 2679 1cbe a9f2 95bd 33eb 203e
00000060: 4eea 483e 4a03 303e 7c08 46be 6b7b 2cbe
00000070: bd70 48be 62c5 c43c 88aa a63c 592a af3d
00000080: ff90 d6bd bc1b 633e ee12 b33d 7077 203d
00000090: d530 263c 8e31 a43c 0b21 bc3d a7ec ddba
000000a0: 3e54 09ba e2cf e6bd fb08 023c 8079 89bd
000000b0: f011 82ba 2225 8d3e 1bf1 023e 3e8f 4fbe
000000c0: d218 e33d 0e2a d0bc 66d8 173e e8e9 10be
000000d0: 977a de3d 489e 163d 13e5 073e ef72 a1bd
000000e0: 61ce 18be 0278 193e a7fc 0abe 9b02 3d3d
000000f0: 8adc f93d 1cc1 6a3e 3dd9 d7bd ed25 1c3e
00000100: 2ad1 c9be 5c4e a33e 0ab4 ccba 6356 45be
00000110: bf52 9f3c b580 713e 066c 4c3e 503a a03b
00000120: e860 953d 45b2 c0bd f104 613e f866 66bd
00000130: 6e49 703c 9f5c 37be 519a afbd f118 95bd
00000140: 7db7 27be 5f5b 0d3e 713b a93d b674 c3bc
00000150: 811a 153e aa02 f03b 92af 31be 0e6b 1dbe
00000160: 828f e8bc c05c 0a3e 811b 10be 8c66 80bd
00000170: 7cdc 0fbc a444 843e 9539 a2bd 29c9 e03d
00000180: 5358 dfbd 5a51 183e f092 743c 7e88 0e3d
00000190: d500 613e 4893 aebe b096 fa3d e646 083e
000001a0: 7cf5 64bd 54e6 73be 2dc0 893e 07ef c5bd
000001b0: 632b 60bd f92d 6b3c 6328 863e 4443 c43b
000001c0: 0115 e7bd 1f0e 1e3e 91ce 6abd 2691 53bd
000001d0: 0d98 0ebe 768f 723e 32a6 09be f273 d7bd
000001e0: 9cb5 08be e871 79be 5dfb 253c 9618 5b3e
000001f0: fe0e de3d ded7 ef3c 1fc8 96bd 76f8 a0bd
00000200: 5ff1 0f3e 4a8f 85be 3e5b 4ebe fa0b 78be
00000210: bfa9 f03d 40dd ad3d fadf 4d3e db72 5bbe
00000220: 2898 1ebe 841e 813e 2b4f b93d ad8a ab3d
00000230: 9809 0fbd 944f b7bd a21a af3d 2799 cabd
00000240: bc11 d2bd 4d53 17be 99e2 efbb 1624 8abe
00000250: f993 8cbb 995f c439 b945 a63d 5e65 72bd
00000260: daff 89bd b19d d63d 724e f33c e85b f43d
00000270: b2ea 2cbb a0c8 1b3e 5074 48bc 216e 89bc
00000280: 1718 79bd 9570 e03d d13e 9abe 60c2 7fbd
00000290: b5dc 843d ddf2 c13e 71cc c33d 6451 64bc
000002a0: 6abe b3bd 410d 323e 5edc a53e b163 5f3e
000002b0: 815a 9e3d ec32 7bbe fa47 15be 2452 673e
000002c0: e900 43be 1531 553e 25bf 693e b5a7 22be
000002d0: ccd5 3bbe 14b4 d7bc 2adf 643d 3d4e 073d
000002e0: e8bb 79bd d2f5 a039 2f53 8e3d 9f6c 86be
000002f0: 7cfe a3bd 6a80 133d 122a cfbe d782 7abe
00000300: 9536 f1bd b0a5 ee3d 8aaa 04be ce58 c13d
00000310: 9b62 b03d 7a91 e3bd b12b 1cbe 5303 fbbd
00000320: 614c f33a fe56 3fbd 1f50 e33d c433 8cbe
00000330: d1c7 983d d492 c1bd 1210 c53d 27ec 33be
00000340: 88b7 44bd 8a15 01bd e316 30be 51d6 8cbe
00000350: 90a2 c3be 6a32 413e 0daa b53d 867a 843d
00000360: 34bf 65be 0214 ff3d 646e 49bc 7e60 51be
00000370: 68da 013e 71bb 4f3d 43a5 b5bd 27c3 26bc
00000380: a5e4 77be 8c6b 6ebe ac95 08bd e0aa 89be
00000390: 5e18 03be 7221 13bc ad4d 843e 527f 9a3d
000003a0: 24a2 c4bd e968 193e 438d 01be ceac cabc
000003b0: 0431 5f3e e8a1 57bd c115 fcbd e083 483d
000003c0: c349 a0bd cdbd 663d 237e 773d 96c9 af3b
000003d0: c974 833a 0663 c4bd c228 1b3e 0514 34be
000003e0: d50b 733d 1f3c 0c3e 86c0 e0bc e20c 883e
000003f0: a63c 3d3d 1135 153e ba65 353d c5b4 68bd

fc.0.bias f4 [128]
0.0020329931 -0.00084435154 -0.019499535 -0.0062776282 -0.007278158 -0.008557886 0.016072117 -0.002602969
-0.014774155 -0.009253263 -0.0012476047 0.0029746213 -0.0013735539 -0.006175824 -0.0003307604 0.029659042
0.013805812 -0.0024926944 -0.011102684 0.017929258 -0.0032917846 -0.0010817277 -0.004546071 0.009132227
-0.0015293072 0.011791953 0.0031660816 0.012418078 -0.001173515 -0.0093744295 -0.009964593 0.014182591
-0.009869946 -0.0032630353 -0.0025178418 0.024351351 -0.006610123 0.003970326 0.017418623 -0.009022449
-0.0074167973 0.008918421 -0.004009766 -0.008340679 -0.0048289075 -0.00889564 -0.0033755775 0.0011064926
-0.0024751828 -0.007905487 -0.019110803 0.028059976 -0.005490297 -0.008649436 -0.004172254 -0.0045544035
0.00051386975 0.011883495 0.011768294 0.013383306 0.025360009 -0.022836085 -0.004594226 -0.009447054
-0.003970951 -0.0018854239 -0.0035004853 0.0026697617 -0.005222795 0.007972992 -0.0017527764 -0.008576971
-0.0064314627 -0.0055853934 -0.008903339 0.028988285 -0.009222785 0.006960253 -0.0012960334 -0.013856012
-0.0038403089 0.023607139 0.0024286564 -0.0066065993 0.011878488 0.003040657 0.028470546 -0.0151185915
0.0037761363 0.019722095 -0.011419203 0.005408956 -0.010682935 -0.011987206 0.0072702803 -0.016335167
0.0023622923 -0.0077610277 0.0033438352 0.019203411 -0.0028625764 0.01781443 -0.004548388 0.0050139423
-0.01150044 -0.012051638 0.008905437 -0.016052729 -0.0112609975 0.00075108226 0.010889299 0.0033340266
0.001419688 0.0029935478 -0.008261088 -0.009630856 -0.00024902695 0.0070224996 5.941801e-06 -0.016673086
-0.0011865919 -0.0063249767 0.009986877 -0.011147086 -0.012709352 0.0047794147 -0.0039495775 -0.006284513
00000000: f73b 053b 7957 5dba 7dbd 9fbc 90b4 cdbb
00000010: 9d7d eebb 6036 0cbc aca9 833c 9396 2abb
00000020: 4c0f 72bc ff9a 17bc ab86 a3ba ddf1 423b
00000030: d208 b4ba 915e cabb e969 adb9 85f7 f23c
00000040: c631 623c 795c 23bb 08e8 35bc 61e0 923c
00000050: fbba 57bb c2c8 8dba 35f7 94bb 569f 153c
00000060: 0973 c8ba 0933 413c 097e 4f3b 3275 4b3c
00000070: a1d0 99ba 3597 19bc 8842 23bc 195e 683c
00000080: 8eb5 21bc a6d8 55bb 6002 25bb 7c7c c73c
00000090: bb99 d8bb 8219 823b 80b1 8e3c e5d2 13bc
000000a0: 9b08 f3bb 921e 123c 5b64 83bb 58a7 08bc
000000b0: d03b 9ebb 05bf 11bc cb38 5dbb bb07 913a
000000c0: ad36 22bb 0486 01bc 428e 9cbc 09de e53c
000000d0: f3e7 b3bb 5db6 0dbc 67b7 88bb 1b3d 95bb
000000e0: 37b5 063a feb2 423c cdcf 403c a745 5b3c
000000f0: cbbf cf3c be12 bbbc 298b 96bb d1c7 1abc
00000100: c01e 82bb 5420 f7ba 6668 65bb 2bf7 2e3b
00000110: fb23 abbb 27a1 023c 6bbd e5ba 6c86 0cbc
00000120: 05bf d2bb ad05 b7bb 4fdf 11bc d778 ed3c
00000130: 2a1b 17bc d612 e43b aadf a9ba 5404 63bc
00000140: b1ad 7bbb c263 c13c 182a 1f3b 2c7c d8bb
00000150: fd9d 423c c245 473b 103b e93c f8b3 77bc
00000160: 0e79 773b 3b90 a13c 9c17 3bbc 9d3d b13b
00000170: 7a07 2fbc fc65 44bc 883b ee3b 54d1 85bc
00000180: b0d0 1a3b 3850 febb 3f24 5b3b 7950 9d3c
00000190: 109a 3bbb 91ef 913c a50a 95bb ff4b a43b
000001a0: 576c 3cbc 3c74 45bc 1ce8 113c 0381 83bc
000001b0: 0c80 38bc 47e4 443a 0869 323c af7f 5a3b
000001c0: d314 ba3a 662f 443b 8459 07bc bdca 1dbc
000001d0: d58f 82b9 ff1c e63b af5f c736 ff95 88bc
000001e0: 6b87 9bba c041 cfbb 00a0 233c 44a2 36bc
000001f0: e33a 50bc a39c 9c3b 756b 81bb 51ee cdbb

fc.1.weight f4 [128, 128]
-0.020524839 0.106362335 0.03087778 -0.056555606 -0.009121867 0.001277124 -0.12697716 -0.08574579
-0.01442583 0.03900451 0.029914042 -0.1011792 -0.029838413 0.07861575 -0.059678454 -0.011995152
-0.17290431 0.0006735224 0.0010725202 -0.14471167 0.09827223 -0.15379034 0.028505398 0.0027108195
0.2566753 -0.23761025 0.03001787 -0.0039648134 0.021972042 -0.017004067 0.021754028 -0.11321519
-0.025404053 0.022818495 0.021147316 -3.2081985e-05 0.0002718201 6.631281e-08 -0.0039706845 0.06822795
-0.11167777 -0.083082885 0.02851777 -0.06134601 -0.038891178 2.9772966e-06 0.041478265 0.2290068
-0.0125152385 0.009048973 -0.1139401 0.004867079 -0.017233681 -0.25008342 0.049601912 -0.12267813
-0.09560007 0.0029275855 -0.0039520324 -0.03071606 -0.20094837 -0.0062428014 0.025624635 0.0052996767
-0.023986984 -3.9803817e-07 -0.030469222 -0.02128785 0.0029347686 0.012911473 -0.00026797943 -0.04222587
-0.0047198334 -0.08517692 0.00041708793 -0.195808 -0.36599252 -0.020348761 -0.027776195 0.0061027715
-0.020037012 0.11205698 0.0015750821 0.10274724 0.06745213 -0.0830419 0.051452324 0.008386639
-0.04832868 0.035477735 0.020086838 -0.11312256 -0.0007081965 0.023022803 0.0015986701 0.040767096
0.09465416 0.0024580138 -0.011777212 0.20322147 -0.01923116 -0.07089248 -0.007842331 0.11760809
-0.0035295964 0.3375912 0.18375856 0.025572518 0.16210778 5.2051593e-05 0.037126284 -0.017361311
-0.010058782 -0.10166579 0.23101036 -0.10031554 0.0010788064 -0.15561593 0.0086314 0.006972229
-0.20550169 0.0172884 0.013346058 0.04536487 -0.08398322 0.047211792 0.07238071 0.049383305
-0.054269113 -0.12177489 0.073954545 -0.13135825 -0.0015819621 -0.008565993 -0.18174046 -0.05377971
-0.03267887 0.026020342 0.06167014 0.13145933 0.01718724 0.042873636 0.008454487 0.019479249
-0.10940403 -0.013990258 0.020418456 0.07260114 0.08754598 0.12174101 0.21528393 0.19265765
-0.027044058 0.10073879 0.07434629 0.01653378 -0.01846613 -0.008989971 -0.14186119 0.11644791
-0.0049110563 0.030206556 -0.27704838 0.03271894 -0.06276363 0.13154285 -0.033121683 -0.026590856
-0.02249809 -0.042636614 0.11390797 0.19756667 -0.17736529 0.07251638 0.17489134 0.14425498
7.0908236e-06 -0.0055922996 -0.150462 0.025844865 -0.005992899 0.068577394 -0.019184161 -0.05147763
-0.007161165 -0.079870485 -0.00076739123 -0.18780962 -0.08284325 0.10248256 0.030959269 -0.011428248
0.09909061 0.06573082 -0.22175404 0.011223998 -0.032179214 -0.07347709 0.09516256 -0.060841426
0.0959741 0.006428744 0.000684841 0.06252642 -0.012765127 -0.026885955 0.20589754 0.026321888
-0.007322959 -0.09036713 0.06827363 0.017353084 -0.18044285 0.1161851 0.18545164 -0.02452384
0.061102737 0.20730382 0.07531745 -0.06395554 -0.0076479055 -0.105717495 0.023637077 0.06568957
0.24892028 -0.00017405445 0.036512416 -0.07047003 -0.034541517 -0.03346642 -0.043433294 0.17896828
0.089065805 0.033868026 -0.0014466995 -0.11680928 -0.20475517 0.022904271 0.27771905 0.09847182
0.060378227 0.1515902 0.010946371 0.11902896 -0.007879673 0.05669821 -0.025509777 0.23525795
0.08780762 -0.05098961 -0.02918604 -0.14278685 -0.21975017 -0.17953485 -0.056557816 -0.014132773
00000000: b523 a8bc 7fd4 d93d 66f3 fc3c daa6 67bd
00000010: e273 15bc 2c65 a73a 4d06 02be 7d9b afbd
00000020: 515a 6cbc 31c3 1f3d 4b0e f53c 0a37 cfbd
00000030: b06f f4bc 4b01 a13d 6571 74bd 5087 44bc
00000040: d40d 31be 538f 303a ce93 8c3a 4c2f 14be
00000050: f342 c93d 377b 1dbe 2784 e93c 01a8 313b
00000060: f26a 833e 1a50 73be 09e8 f53c 44eb 81bb
00000070: b6fe b33c 1d4c 8bbc 8135 b23c 5edd e7bd
00000080: 291c d0bc daed ba3c 233d ad3c c58f 06b8
00000090: 1483 8e39 da67 8e33 841c 82bb 18bb 8b3d
000000a0: 51b7 e4bd 5c27 aabd 199e e93c f445 7bbd
000000b0: 5b4c 1fbd 91cd 4736 1de5 293d c280 6a3e
000000c0: b70c 4dbc 2542 143c 6d59 e9bd 057c 9f3b
000000d0: a62d 8dbc ef0a 80be 602b 4b3d ac3e fbbd
000000e0: f8c9 c3bd bcdc 3f3b 0d80 81bb 3fa0 fbbc
000000f0: 69c5 4dbe 6a90 ccbb c1ea d13c e9a8 ad3b
00000100: 5a80 c4bc f3b1 d5b4 979a f9bc db63 aebc
00000110: 3f55 403b a58a 533c 977f 8cb9 09f5 2cbd
00000120: d5a8 9abb 3d71 aebd 98ac da39 e481 48be
00000130: 5f63 bbbe 72b2 a6bc e78a e3bc c2f9 c73b
00000140: a924 a4bc 217e e53d fc72 ce3a 256d d23d
00000150: 5824 8a3d df11 aabd acbf 523d 1d68 093c
00000160: 4bf4 45bd 1a51 113d 278d a43c cdac e7bd
00000170: 43a6 39ba 519a bc3c 788a d13a 66fb 263d
00000180: 0ada c13d a116 213b 35f5 40bc 4a19 503e
00000190: aa8a 9dbc 1430 91bd 1f7d 00bc 83dc f03d
000001a0: cd50 67bb c1d8 ac3e 342b 3c3e 757d d13c
000001b0: 95ff 253e f951 5a38 bb11 183d 4f39 8ebc
000001c0: 97cd 24bc 2736 d0bd fb8d 6c3e 3c72 cdbd
000001d0: bc66 8d3a c859 1fbe b76a 0d3c 4c77 e43b
000001e0: 096f 52be 67a0 8d3c 6da9 5a3c 84d0 393d
000001f0: 65ff abbd 2761 413d 563c 943d 2646 4a3d
00000200: 4a49 5ebd 1d65 f9bd 7b75 973d c782 06be
00000210: d759 cfba 6158 0cbc 2c1a 3abe 1d48 5cbd
00000220: 47da 05bd 9d28 d53c d499 7c3d 469d 063e
00000230: 41cc 8c3c 449c 2f3d b084 0a3c f292 9f3c
00000240: 380f e0bd 6537 65bc 9b44 a73c e8af 943d
00000250: 4f4b b33d 5a53 f93d 6473 5c3e 0c48 453e
00000260: 808b ddbc 2450 ce3d de42 983d da71 873c
00000270: 4846 97bc ac4a 13bc 0f44 11be 3e7c ee3d
00000280: edec a0bb bd73 f73c 49d9 8dbe 4c04 063d
00000290: 388a 80bd 2bb3 063e 9aaa 07bd 11d5 d9bc
000002a0: ea4d b8bc bba3 2ebd 9548 e93d eb4e 4a3e
000002b0: 3f9f 35be 7883 943d b716 333e 94b7 133e
000002c0: b6ed ed36 9c3f b7bb b612 1abe 9cb8 d33c
000002d0: 1560 c4bb 4e72 8c3d 1a28 9dbc 35da 52bd
000002e0: 35a8 eabb 2393 a3bd c12a 49ba 2a51 40be
000002f0: b9a9 a9bd 60e2 d13d 4b9e fd3c 8c3d 3bbc
00000300: 05f0 ca3d e19d 863d 7e13 63be dce4 373c
00000310: 5ace 03bd 287b 96bd 97e4 c23d dc34 79bd
00000320: 128e c43d 37a8 d23b e786 333a da0d 803d
00000330: d324 51bc ef3f dcbc ced6 523e 00a1 d73c
00000340: 6ff5 efbb 6712 b9bd 0cd3 8b3d 0e28 8e3c
00000350: 03c6 38be 74f2 ed3d 09e7 3d3e 38e6 c8bc
00000360: dd46 7a3d 7447 543e 0940 9a3d 1ffb 82bd
00000370: 489b fabb 6a82 d8bd 8ba2 c13c 4188 863d
00000380: f5e4 7e3e 6382 36b9 0b8e 153d 9752 90bd
00000390: 687b 0dbd 1614 09bd 1ce7 31bd 7643 373e
000003a0: 2268 b63d 33b9 0a3d 2e9f bdba b439 efbd
000003b0: 57ab 51be bda1 bb3c 3131 8e3e 98ab c93d
000003c0: 294f 773d 763a 1b3e 6858 333c 75c5 f33d
000003d0: be19 01bc 623c 683d e1f9 d0bc 76e7 703e
000003e0: 7bd4 b33d 7bda 50bd 9017 efbc b736 12be
000003f0: 3006 61be fcd7 37be 2ba9 67bd 258d 67bc

fc.1.bias f4 [128]
-0.0069461893 0.0019807117 0.027170556 -0.0056810137 -0.007848539 0.037294444 -0.015104825 0.0044498662
-0.0005852587 0.0025582137 0.030466776 0.037287343 0.00036739022 -0.0046106623 0.034384746 -0.03590168
0.03957555 0.047254376 0.018368652 -0.0075275637 -0.014060061 -0.008355728 -0.0075094304 0.018413393
0.0008190946 0.03781132 -0.036585126 -3.31758e-07 -0.014545345 -0.0066516907 -0.009214219 -0.007232701
0.0045056907 -0.0014205792 0.03566863 0.022923265 -0.00326079 0.03760001 -0.027753957 0.046036918
5.4568295e-07 0.012653912 0.037605334 -0.010502369 0.040136725 -0.0224578 0.0008954975 -0.0005654336
-0.008022083 0.037417036 0.018654076 -0.020866036 0.0060919547 0.038077064 -0.0018674425 -0.034276355
-0.017300315 -0.015854513 0.017378151 -0.036499575 0.03731775 0.037906732 -0.011388261 -0.0017733484
-0.029853687 -0.021514041 -1.0921935e-06 0.025633084 -0.0026341302 -0.0074462923 -0.004173107 -0.024746457
-0.005558338 -0.035928898 -0.0068383776 0.037226565 0.03785493 0.03697519 -0.034232657 0.012433804
-0.028056718 -0.024018157 -0.021556038 0.001762872 -2.3725115e-06 -0.009046915 0.008167384 0.025224024
-0.006071039 -0.00017528293 0.031399645 0.026009945 0.037692152 -0.022772571 -0.0037078925 -0.0059972834
-0.013416177 0.03738421 0.023004044 0.023874365 0.008779686 0.03829117 0.012003178 -0.0013004191
-0.021649003 0.037414186 0.0047327713 0.010369884 0.037376244 -0.023265567 0.0012733876 2.0353907e-07
1.6121155e-07 -0.029050628 -0.013947881 -0.028308906 0.0050929054 -0.0014823638 0.000789363 0.0006814045
-0.012279498 0.009172003 0.03749295 -0.036005244 0.010139357 0.025041861 -0.03908315 -0.026399108
00000000: dc9c e3bb d4ce 013b c994 de3c cc27 babb
00000010: 2997 00bc 0fc2 183d 3a7a 77bc 2fd0 913b
00000020: 0c6c 19ba b4a7 273b 7695 f93c 9dba 183d
00000030: 489e c039 0a15 97bb 05d7 0c3d a40d 13bd
00000040: f919 223d ce8d 413d db79 963c c8a9 f6bb
00000050: 2c5c 66bc 77e6 08bc ab11 f6bb afd7 963c
00000060: 82b8 563a 0be0 1a3d 49da 15bd 791c b2b4
00000070: 994f 6ebc 6df6 d9bb 3cf7 16bc 4b00 edbb
00000080: 79a4 933b ba32 baba 4519 123d 92c9 bb3c
00000090: fab2 55bb 7802 1a3d 445c e3bc 3591 3c3d
000000a0: 0c7b 1235 5b52 4f3c 0d08 1a3d 2112 2cbc
000000b0: 6866 243d 6cf9 b7bc d2bf 6a3a 9b39 14ba
000000c0: 0e6f 03bc 9b42 193d 6fd0 983c 40ef aabc
000000d0: 059f c73b b2f6 1b3d f9c4 f4ba 5d65 0cbd
000000e0: 64b9 8dbc 53e1 81bc a05c 8e3c 9480 15bd
000000f0: 7fda 183d 1744 1b3d d495 3abc b36f e8ba
00000100: b88f f4bc 373e b0bc 7c97 92b5 79fc d13c
00000110: 5fa1 2cbb 0700 f4bb 8fbe 88bb 15b9 cabc
00000120: b822 b6bb 2e2a 13bd 7814 e0bb e27a 183d
00000130: c50d 1b3d 4c73 173d 8b37 0cbd 27b7 4b3c
00000140: 34d7 e5bc bac1 c4bc 4a96 b0bc 2b10 e73a
00000150: 7037 1fb6 8339 14bc 7ed0 053c 9da2 ce3c
00000160: 91ef c6bb 27cc 37b9 ea9c 003d cf12 d53c
00000170: 1663 1a3d 8b8d babc 1d00 73bb dc84 c4bb
00000180: 86cf 5bbc 2f20 193d fa72 bc3c 2c94 c33c
00000190: acd8 0f3c 34d7 1c3d faa8 443c d372 aaba
000001a0: 4059 b1bc 9e3f 193d 5d15 9b3b 72e6 293c
000001b0: d517 193d 6e97 bebc cce7 a63a 658c 5a34
000001c0: 7e19 2d34 95fb edbc a785 64bc 14e8 e7bc
000001d0: 63e2 a63b e04b c2ba 41ed 4e3a 48a0 323a
000001e0: f32f 49bc 2b46 163c 3592 193d 3c7a 13bd
000001f0: 8c1f 263c 9724 cd3c a715 20bd f142 d8bc

fc.2.weight f4 [1, 128]
0.12859268 -0.1264406 -0.023586093 -0.18197885 0.092044406 -0.07437385 0.005148582 -0.11224188
0.05423917 -0.20713365 -0.2154087 -0.15029383 -0.02925376 0.14523333 -0.413452 0.20395751
-0.07114602 -0.35169792 -0.038728863 0.24550901 0.14920105 0.16557983 0.041552663 -0.11221897
-0.040558036 -0.30502668 0.22777931 0.009184162 0.1515983 0.08120526 0.08558575 0.41104048
-0.058312654 0.09969169 -0.08221807 -0.31422582 0.068140216 -0.1059894 0.07956989 -0.027062763
0.037120048 -0.0066573047 -0.25319374 0.099793896 -0.048101585 0.102076404 -0.028084865 0.047946364
0.099488616 -0.51911956 -0.27776068 0.25816283 -0.04551097 -0.17032795 0.22423872 0.06191199
0.18333104 0.1606134 -0.042843595 0.19288531 -0.10994851 -0.07086828 0.18223529 0.20384076
0.22056368 0.27245477 -0.008597181 -0.31802073 0.3476119 0.11341343 0.0858571 0.3628508
-0.07491312 0.09627071 0.21688439 -0.25343412 -0.12234925 -0.09426692 0.06071208 -0.1050029
0.009476488 -0.00229262 0.03974897 -0.04183513 -0.015952218 0.11439762 -0.16424713 -0.14817494
0.31556848 0.048971094 -0.28282762 -0.021286067 -0.07354263 0.2310841 -0.08762532 0.10017384
0.00048467424 -0.23528789 -0.15279958 -0.21415474 -0.08491035 -0.040618297 -0.025138766 0.0044324207
0.17715211 -0.24133639 0.17732638 -0.22406268 -0.12136466 0.21494435 -0.0030513124 0.015634136
0.017993342 0.36704934 0.058177486 0.006222776 -0.004472593 0.05525296 0.3175059 -0.17401807
0.06488542 -0.08883326 -0.11675931 0.2046039 -0.019029683 -0.2070992 0.37932375 0.46944585
00000000: cdad 033e a579 01be 9f37 c1bc aa58 3abe
00000010: c781 bc3d 5151 98bd 70b5 a83b 12df e5bd
00000020: e429 5e3d d81a 54be 1994 5cbe a0e6 19be
00000030: 95a5 efbc 0cb8 143e fbaf d3be 3dda 503e
00000040: 01b5 91bd c011 b4be 28a2 1ebd b766 7b3e
00000050: 29c8 183e c28d 293e 2033 2a3d 0fd3 e5bd
00000060: 2f20 26bd 752c 9cbe fb3e 693e 2b79 163c
00000070: 963c 1b3e f14e a63d 9547 af3d e673 d23e
00000080: 40d9 6ebd 282b cc3d f361 a8bd 35e2 a0be
00000090: 198d 8b3d f810 d9bd 8af5 a23d bab2 ddbc
000000a0: 310b 183d 8525 dabb 9ca2 81be be60 cc3d
000000b0: 2b06 45bd 6f0d d13d 3b12 e6bc 6863 443d
000000c0: b0c0 cb3d 05e5 04bf a636 8ebe eb2d 843e
000000d0: b669 3abd 736a 2ebe d69e 653e 6d97 7d3d
000000e0: 22bb 3b3e d777 243e c47c 2fbd ba83 453e
000000f0: af2c e1bd 6423 91bd e39b 3a3e a2bb 503e
00000100: 72db 613e 317f 8b3e 31db 0cbc 9dd3 a2be
00000110: 30fa b13e 4d45 e83d d9d5 af3d 94c7 b93e
00000120: 0d6c 99bd 9429 c53d f116 5e3e 1ec2 81be
00000130: 3e92 fabd 040f c1bd 3bad 783d c30b d7bd
00000140: 4643 1b3c c83f 16bb d1cf 223d 505b 2bbd
00000150: 3aae 82bc 4d49 ea3d 6630 28be 2cbb 17be
00000160: 3192 a13e ea95 483d c8ce 90be 1e60 aebc
00000170: 859d 96bd 4fa1 6c3e e774 b3bd f127 cd3d
00000180: e01b fe39 4fef 70be 7e77 1cbe 614b 5bbe
00000190: 7ae5 adbd 5f5f 26bd d0ef cdbc d73d 913b
000001a0: 5d67 353e e320 77be 0c95 353e b070 65be
000001b0: 098e f8bd 5f1a 5c3e 87f8 47bb 2913 803c
000001c0: c666 933c e4ed bb3e 844b 6e3d 6ee8 cb3b
000001d0: d48e 92bb ee50 623d 2290 a23e cb31 32be
000001e0: a6e2 843d 36ee b5bd 811f efbd af83 513e
000001f0: 23e4 9bbc d011 54be b936 c23e 355b f03e
