data/pour_red_angles_c.pt (torch_old, 85005 bytes, 5 tensors)

fc.0.weight f4 [128, 9]
-0.3625381 0.3362751 -0.15364802 0.18181336 0.24252853 0.36710864 -0.015687855 -0.0908236
-0.27219683 -0.016504124 -0.1741243 0.31795684 -0.121398136 -0.37400612 -0.31874278 -0.5927177
-0.12113179 0.102785334 0.16502 -0.2813286 -0.17326419 -0.5678028 -0.06924002 -0.4147532
0.06698566 -0.10339378 0.092292175 -0.4405043 0.6090706 -0.16784322 0.0033451207 0.49475083
0.34707564 0.15278482 -0.14272617 -0.516836 -0.2716577 0.21846958 -0.2156387 0.14441147
0.005868268 0.425477 0.00023526413 0.081783146 -0.27193794 -0.16638853 0.28338405 -0.44222623
-0.05003045 0.26265052 0.4829414 0.28141364 -0.2460398 -0.15301454 0.23573025 0.13301975
-0.26176405 -0.337355 -0.34601352 -0.058514696 -0.12241704 0.3987618 0.12760022 0.3770438
0.07649109 -0.040731955 0.049689025 -0.39264435 -0.17922556 0.20218746 -0.19236974 0.13354571
-0.33039182 0.42409056 -0.24205467 0.34825197 0.43187264 0.3035648 -0.10564652 0.17302585
-0.041376773 0.32510948 0.047868982 0.3961693 -0.094497226 -0.47342724 -0.33604202 -0.367146
0.13640663 0.24102415 0.26552477 0.18709974 0.2878432 -0.069672525 0.10604159 -0.116662554
0.0103544155 0.06460229 -0.0010768288 0.27593613 -0.54097664 -0.13821897 -0.049222283 0.12669119
-0.51167756 -0.1954858 -0.21434574 -0.034050148 -0.37718055 -0.06215202 -0.17749053 0.09164545
0.31913328 0.24684498 0.41012657 -0.09605396 -0.27272037 0.26898718 -0.03846955 0.20825718
0.114184484 0.16857938 0.15129314 0.2498779 -0.056725416 0.2162134 -0.07438036 0.3378196
-0.18592219 0.2848066 0.24809475 0.42834112 0.4361224 -0.036318157 -0.24331383 -0.17256384
0.5324851 -0.2964354 0.2673913 0.32465786 0.121959336 0.36339372 -0.18325537 0.16230787
-0.30817923 0.2704229 -0.07854773 -0.2197512 0.26072446 0.40738147 0.08817678 0.24187532
-0.29042825 0.22508842 0.12602964 0.2544766 -0.15024407 -0.38028094 -0.45563954 -0.47218138
0.0010361818 0.34997183 0.24532734 0.09535651 -0.21425007 -0.16944465 -0.33655792 -0.19480127
-0.10880268 0.70839953 0.14174542 -0.22352482 -0.5471951 0.26019084 0.17644794 0.15877621
-0.33601946 -0.14560375 -0.26629522 -0.10052423 -0.052708156 0.054281306 0.32598186 0.27738902
0.007648512 -0.031809296 0.14239329 -0.054105446 -0.038488396 -0.24879698 0.5383008 -0.07697306
-0.19910704 0.28317887 0.34604955 0.33662304 0.24014226 -0.07012756 -0.050136007 -0.095964424
-0.10466914 0.41776627 0.11580993 -0.18038745 -0.044097796 -0.11846974 -0.08883902 0.09175641
0.34498724 -0.36967117 0.07250104 0.4287235 0.3635839 0.34351966 0.115355566 -0.2716858
-0.22253054 0.17936814 -0.18423529 0.10502799 0.38761786 0.57065547 0.22758994 -0.030850414
-0.27012268 0.02222282 -0.2948762 -0.12253554 0.083865464 -0.18346968 -0.1697242 0.08505144
-0.39638492 0.023274494 0.04023589 -0.095700815 -0.11301746 -0.38682094 -0.14989412 -0.3276271
0.053204145 0.0071446477 0.095521875 -0.17165454 -0.29023263 -0.11676452 0.100380905 -0.24924393
-0.43646324 0.06677267 -0.40517735 0.063121445 -0.2411755 0.32110512 -0.23636174 -0.24630336
00000000: 989e b9be 402c ac3e e855 1dbe 482d 3a3e
00000010: 6659 783e aaf5 bb3e d183 80bc b901 babd
00000020: 625d 8bbe a833 87bc a44d 32be 3dcb a23e
00000030: 969f f8bd bb7d bfbe 4132 a3be 59bc 17bf
00000040: f213 f8bd 1e81 d23d 01fb 283e 4d0a 90be
00000050: 2b6c 31be 865b 11bf b6cd 8dbd 885a d4be
00000060: c72f 893d 1ec0 d3bd ae03 bd3d c889 e1be
00000070: 0dec 1b3f 18df 2bbe d039 5b3b fb4f fd3e
00000080: e6b3 b13e a073 1c3e cf26 12be 5d4f 04bf
00000090: b816 8bbe 7db6 5f3e 64d0 5cbe 9ae0 133e
000000a0: 9a4a c03b 1fd8 d93e 3cb1 7639 ec7d a73d
000000b0: 733b 8bbe c161 2abe b717 913e 7a6b e2be
000000c0: bbec 4cbd 217a 863e 1844 f73e 7315 903e
000000d0: dbf1 7bbe d8af 1cbe 4563 713e 5436 083e
000000e0: f005 86be cbb9 acbe af28 b1be 1bad 6fbd
000000f0: c9b5 fabd 822a cc3e a2a9 023e e30b c13e
00000100: 5ca7 9c3d 8dd6 26bd b886 4b3d ae08 c9be
00000110: e886 37be 3b0a 4f3e 93fc 44be 35c0 083e
00000120: 1e29 a9be 6622 d93e 2edd 77be 154e b23e
00000130: 691e dd3e d86c 9b3e 345d d8bd b02d 313e
00000140: b17a 29bd c074 a63e 4412 443d b4d6 ca3e
00000150: c387 c1bd 0e65 f2be b30d acbe 8ffa bbbe
00000160: 2eae 0b3e 09cf 763e ddf2 873e 1397 3f3e
00000170: 2f60 933e 78b0 8ebd 552c d93d c7ec eebd
00000180: 91a5 293c 354e 843d 6124 8dba 8047 8d3e
00000190: 727d 0abf 4689 0dbe 4e9d 49bd 56bb 013e
000001a0: 4dfd 02bf 6e2d 48be 737d 5bbe 2b78 0bbd
000001b0: cf1d c1be 1e93 7ebd 14c0 35be 9cb0 bb3d
000001c0: 7065 a33e eec4 7c3e 1cfc d13e f0b7 c4bd
000001d0: 01a2 8bbe b0b8 893e 3f92 1dbd 5f41 553e
000001e0: 8ed9 e93d 13a0 2c3e 97ec 1a3e fedf 7f3e
000001f0: e958 68bd 0c67 5d3e bb54 98bd b1f6 ac3e
00000200: 6362 3ebe 2cd2 913e 8d0c 7e3e 874f db3e
00000210: 6f4b df3e 59c2 14bd 4327 79be 93b4 30be
00000220: f250 083f 61c6 97be 83e7 883e 8e39 a63e
00000230: d1c5 f93d be0e ba3e 4ca7 3bbe 0934 263e
00000240: abc9 9dbe df74 8a3e a2dd a0bd 7506 61be
00000250: ad7d 853e 4e94 d03e 0796 b43d 2aae 773e
00000260: 03b3 94be 947d 663e ea0d 013e c24a 823e
00000270: 95d9 19be 2fb4 c2be 9649 e9be c2c1 f1be
00000280: 7ed0 873a 822f b33e 1737 7b3e 464a c33d
00000290: 5f64 5bbe e682 2dbe 5251 acbe fc79 47be
000002a0: f1d3 debd ac59 353f b625 113e b1e3 64be
000002b0: fa14 0cbf bc37 853e c5ae 343e 3b96 223e
000002c0: be0a acbe 2619 15be d957 88be a6df cdbd
000002d0: 82e4 57bd 1356 5e3d 18e7 a63e ef05 8e3e
000002e0: 5ea0 fa3b 774a 02bd 8ccf 113e ac9d 5dbd
000002f0: 02a6 1dbd a3c4 7ebe 15ce 093f 0da4 9dbd
00000300: b7e2 4bbe d2fc 903e 682d b13e db59 ac3e
00000310: dae7 753e 0a9f 8fbd 6a5b 4dbd ff88 c4bd
00000320: c65c d6bd 76e5 d53e c22d ed3d 7db7 38be
00000330: e49f 34bd 43a0 f2bd 3bf1 b5bd c9ea bb3d
00000340: 2ba2 b03e 8a45 bdbe 6d7b 943d a681 db3e
00000350: ab27 ba3e cfe1 af3e 8a3f ec3d 671a 8bbe
00000360: 0cdf 63be 48ac 373e 2da8 3cbe ea18 d73d
00000370: d975 c63e 7a16 123f 560d 693e 02ba fcbc
00000380: 854d 8abe a20c b63c 03fa 96be eaf3 fabd
00000390: a8c1 ab3d 7adf 3bbe 2ecc 2dbe 732f ae3d
000003a0: f7f2 cabe 27aa be3c 63ce 243d cafe c3bd
000003b0: b375 e7bd 650d c6be d87d 19be bdbe a7be
000003c0: 97ec 593d a61d ea3b f9a0 c33d 35c6 2fbe
000003d0: 5f99 94be 3d22 efbd 8194 cd3d cd39 7fbe
000003e0: 1c78 dfbe 1cc0 883d 6873 cfbe d145 813d
000003f0: b6f6 76be e467 a43e d008 72be f336 7cbe

fc.0.bias f4 [128]
0.18180315 -0.21638693 0.08990866 0.22282335 0.1523918 0.28358367 0.06435204 -0.037526216
0.15529583 -0.29843375 -0.012830634 0.065025836 0.30741087 -0.0153742395 0.17564858 0.15700917
0.22234735 -0.28558356 0.07985799 -0.010541891 -0.0370008 0.20706625 0.048160195 0.2817857
0.22673406 0.043201532 0.12907074 0.013871321 0.2282956 0.18237197 0.009087748 0.27713624
-0.23684701 0.25310302 -0.024272835 0.28741777 0.116209015 0.27977923 0.086914316 -0.12988815
0.047095247 0.019750705 -0.001350245 0.022207836 0.28135338 0.16802317 -0.27776536 -0.28051174
0.10195188 -0.32659185 -0.007301298 0.2476133 0.038240466 -0.26099697 0.007208044 -0.2591046
0.24522835 0.044179276 0.28184777 0.1624344 -0.00023607511 0.12129547 0.20364419 -0.03794457
0.32082528 0.086164996 0.28516018 0.05470409 0.1485016 0.030992107 -0.006156446 0.14309415
0.16240047 0.27776083 0.076115616 -0.052604865 0.2972109 0.27319482 0.32023907 0.13399144
-0.16503058 0.07260533 -0.23534186 0.13062526 0.1040862 0.25702494 0.17388904 0.25649226
0.2197522 0.11273187 0.042317428 0.1114574 0.27203354 -0.27230483 0.23089565 0.21349601
0.018758312 -0.297086 0.2329821 0.2665802 0.23057272 0.2936188 0.12128281 -0.28474692
0.23035759 0.12523909 0.27701938 0.31473297 -0.27089342 -0.24815537 0.26975137 0.21605815
0.26325905 0.07287661 0.03959824 -0.30392322 0.1609403 0.078679524 0.31208265 0.17983955
0.09034947 0.114403665 0.1933138 0.08739962 0.28294468 -0.0152925495 0.124408334 0.28850192
00000000: 9b2a 3a3e 8994 5dbe 0822 b83d ce2b 643e
00000010: 990c 1c3e e131 913e 01cb 833d 17b5 19bd
00000020: df05 1f3e 4fcc 98be 9437 52bc 442c 853d
00000030: f564 9d3e 3ce4 7bbc 39dd 333e 03c7 203e
00000040: 06af 633e 0238 92be 968c a33d e5b7 2cbc
00000050: 278e 17bd 2d09 543e a043 453d 3746 903e
00000060: f92c 683e 17f4 303d 1f2b 043e 8a44 633c
00000070: 52c6 693e b8bf 3a3e c7e4 143c cde4 8d3e
00000080: 0688 72be b896 813e d3d7 c6bc 6c28 933e
00000090: fefe ed3d 393f 8f3e 2200 b23d 6601 05be
000000a0: f2e6 403d 3bcc a13c b4fa b0ba 35ed b53c
000000b0: 8d0d 903e 440e 2c3e 4337 8ebe 3c9f 8fbe
000000c0: 26cc d03d 0c37 a7be ba3f efbb 578e 7d3e
000000d0: 09a2 1c3d 65a1 85be 7531 ec3b 5ca9 84be
000000e0: 241d 7b3e 54f5 343d 5a4e 903e 3455 263e
000000f0: ee8a 77b9 c269 f83d 1a88 503e c46b 1bbd
00000100: 3643 a43e 4677 b03d 8400 923e 6511 603d
00000110: ce10 183e 29e3 fd3c 03bc c9bb 4687 123e
00000120: 4f4c 263e ab36 8e3e 81e2 9b3d 3378 57bd
00000130: 072c 983e 31e0 8b3e 60f6 a33e 0d35 093e
00000140: c7fd 28be 1ab2 943d 75fd 70be a1c2 053e
00000150: 252b d53d c698 833e f80f 323e f452 833e
00000160: b906 613e f7df e63d 0a55 2d3d c743 e43d
00000170: fb47 8b3e 8a6b 8bbe e96f 6c3e b39e 5a3e
00000180: 08ab 993c a81b 98be dc92 6e3e 337d 883e
00000190: 411b 6c3e 3455 963e 1f63 f83d 59ca 91be
000001a0: dce2 6b3e ad3e 003e 7cd5 8d3e ae24 a13e
000001b0: 8bb2 8abe 711c 7ebe da1c 8a3e 593e 5d3e
000001c0: e4c9 863e 5540 953d c431 223d d39b 9bbe
000001d0: 89cd 243e bb22 a13d 4cc9 9f3e dc27 383e
000001e0: 2509 b93d 784c ea3d 0ef4 453e 92fe b23d
000001f0: 20de 903e 9a8d 7abc ccc9 fe3d 86b6 933e

fc.1.weight f4 [128, 128]
0.44548845 -0.19062452 -0.22069299 0.113842785 0.35194898 0.2988301 -0.15762717 0.15547644
0.15385233 -0.3518347 0.07627075 -0.38288707 0.34759971 -0.116929084 0.09705524 0.26078993
0.024712175 -0.2088383 -0.2936528 -0.23666923 0.030515112 0.23392867 -0.052564595 0.30228272
0.24830939 -0.07617448 -0.11526459 -0.45016572 0.460411 0.24956858 -0.30458194 0.30628654
-0.19334714 0.3744102 0.045340378 0.17665036 0.28116184 0.27383855 -0.1911474 -0.25340387
-0.09126258 -0.08643383 -0.11753018 -0.15688103 0.012530796 0.50304276 -0.33947703 -0.27281985
-0.16020906 -0.28923503 -0.16227491 0.5615265 0.2478588 -0.13206187 -0.031266935 -0.20663346
0.26452804 -0.50190145 0.15558799 0.20054619 -0.17558937 -0.13218023 0.34440076 -0.24024895
0.42615324 -0.08770702 0.16115944 -0.15157181 -0.21755949 -0.025203818 0.08823148 0.4547417
0.13279258 0.414205 -0.0795567 0.1639686 0.31874326 0.33181223 0.44901276 -0.11008065
-0.48714983 -0.029646626 -0.031945992 0.23733896 0.08299793 0.28074497 -0.028801445 0.23933052
0.15776715 -0.1608707 -0.06033769 -0.35483754 0.46292835 -0.29198414 0.046685915 0.38550493
-0.23057981 -0.18386747 0.5235143 0.29183313 0.36933357 0.3640626 0.0076185456 -0.071994305
-0.009174379 0.23036256 0.22100867 0.39503002 -0.20466962 -0.21699192 0.29197997 0.0039747376
0.11318759 -0.18569413 -0.2716861 -0.2185188 0.22043127 -0.07868516 0.24313204 0.21380237
-0.37364152 -0.0768491 0.12010712 -0.31656286 -0.023392202 0.13034518 -0.2201494 0.20198244
-0.1600284 -0.26500738 0.15248136 -0.06202618 -0.080285445 0.09580241 0.20768504 0.0077855336
-0.39020464 -0.13760453 -0.21951698 -0.0118373865 0.05565339 0.065790616 -0.22481056 -0.06569982
0.03308619 -0.1605178 0.17521363 0.20745976 -0.11908767 -0.05786693 0.18151191 -0.026043054
-0.10125286 0.10218256 0.14235404 0.14086515 -0.0925123 -0.22012532 0.13065815 0.19236131
-0.23640244 0.036417052 -0.073007986 0.11898173 -0.06899212 -0.12469304 0.09791897 -0.12168142
0.20789857 0.069286264 0.08364983 0.40908062 -0.19842318 -0.22261912 -0.16518608 0.06452415
0.10998395 0.0015379442 0.32519445 0.08146942 -0.1569154 -0.2161494 0.13208142 -0.27677125
0.044177383 0.20625854 -0.19485885 -0.09340747 0.23425037 0.19125704 -0.049911473 0.18388562
-0.20355918 0.1791737 -0.098037295 0.026317405 0.20123032 0.061688893 0.09371622 -0.47508925
0.17526755 0.10890874 0.20974702 -0.36272284 0.2335166 0.3027814 0.017913822 0.31540513
-0.035805356 0.11036401 -0.06269306 0.09627862 0.029750122 0.032227 0.40630192 0.18413402
-0.10335803 0.06317378 0.43329316 0.330175 -0.1320793 -0.14765896 0.3694787 -0.3659831
-0.19661824 -0.107119314 0.08726586 0.10799875 0.15808687 0.21717276 0.07067031 0.013183725
0.17275375 -0.026057929 -0.076853685 -0.127022 -0.026579764 -0.23248304 -0.003506344 0.17723212
-0.030281372 0.24083735 0.14872882 0.04146053 -0.31981558 0.32290155 0.01881316 -0.07094374
0.25293806 0.04561124 0.11800244 0.14413875 -0.1236524 0.15521887 0.099169426 0.1496483
00000000: 1017 e43e 1333 43be 58fd 61be 6826 e93d
00000010: a832 b43e 4200 993e 0469 21be 3735 1f3e
00000020: 778b 1d3e ae23 b4be d733 9c3d c609 c4be
00000030: 97f8 b13e 8478 efbd e6c4 c63d 4286 853e
00000040: 3071 ca3c b5d9 55be a959 96be 6b59 72be
00000050: d4fa f93c ff8a 6f3e f94d 57bd cdc4 9a3e
00000060: d144 7e3e 5e01 9cbd d70f ecbd 1f7c e6be
00000070: feba eb3e e88e 7f3e 2af2 9bbe 97d1 9c3e
00000080: cbfc 45be b2b2 bf3e d5b6 393d d5e3 343e
00000090: 72f4 8f3e 9134 8c3e 25bc 43be 27be 81be
000000a0: e0e7 babd 3804 b1bd aab3 f0bd 6ca5 20be
000000b0: f84d 4d3c 69c7 003f efcf adbe 0baf 8bbe
000000c0: d80d 24be 9d16 94be 652b 26be 33c0 0f3f
000000d0: b3ce 7d3e 3a3b 07be c211 00bd b997 53be
000000e0: 3870 873e 9d7c 00bf 7552 1f3e fb5b 4d3e
000000f0: b3cd 33be 415a 07be 4c55 b03e d203 76be
00000100: c230 da3e bd9f b3bd fb06 253e a435 1bbe
00000110: eac7 5ebe 3d78 cebc b5b2 b43d e7d3 e83e
00000120: c7fa 073e ae12 d43e a0ee a2bd 62e7 273e
00000130: 5132 a33e 4be3 a93e 00e5 e53e f771 e1bd
00000140: b46b f9be 7bdd f2bc cdd9 02bd fc08 733e
00000150: d2fa a93d cebd 8f3e 02f1 ebbc 0f13 753e
00000160: b68d 213e 4abb 24be a724 77bd 44ad b5be
00000170: f204 ed3e f27e 95be bb39 3f3d e760 c53e
00000180: 1d1d 6cbe c147 3cbe 0805 063f 276b 953e
00000190: 4a19 bd3e 6a66 ba3e fea4 f93b c071 93bd
000001a0: 2250 16bc 2ae4 6b3e 1950 623e 6041 ca3e
000001b0: ea94 51be 2133 5ebe 667e 953e 843e 823b
000001c0: e5ce e73d 9a26 3ebe 711a 8bbe 64c3 5fbe
000001d0: bcb8 613e af25 a1bd 9bf7 783e 02ef 5a3e
000001e0: f14d bfbe 1063 9dbd b9fa f53d 8714 a2be
000001f0: 01a1 bfbc 3579 053e d86e 61be 7cd4 4e3e
00000200: 7cde 23be 0caf 87be 1324 1c3e 2a0f 7ebd
00000210: b26c a4bd 0e34 c43d 63ab 543e ca1d ff3b
00000220: e7c8 c7be 34e8 0cbe 0fc9 60be 99f1 41bc
00000230: cff4 633d 3bbd 863d bd34 66be a18d 86bd
00000240: 6285 073d c75e 24be 346b 333e 5570 543e
00000250: 3de4 f3bd e005 6dbd 42de 393e 3e58 d5bc
00000260: a95d cfbd 1745 d13d 42c5 113e f43e 103e
00000270: 1777 bdbd 8868 61be 40cb 053e 5dfa 443e
00000280: 7b13 72be 0c2a 153d 3685 95bd b1ac f33d
00000290: be4b 8dbd 115f ffbd be89 c83d 1c34 f9bd
000002a0: 5de3 543e f5e5 8d3d 9a50 ab3d 0473 d13e
000002b0: 722f 4bbe 44f6 63be 8a26 29be 3d25 843d
000002c0: 443f e13d d894 c93a e37f a63e 70d9 a63d
000002d0: 6eae 20be 4556 5dbe 5a40 073e f6b4 8dbe
000002e0: 58f3 343d 7035 533e 1489 47be 6a4c bfbd
000002f0: 54df 6f3e e3d8 433e f96f 4cbd 834c 3c3e
00000300: d171 50be 4f79 373e c7c7 c8bd 9997 d73c
00000310: 520f 4e3e 7ead 7c3d 4aee bf3d e63e f3be
00000320: 5679 333e 8c0b df3d ecc7 563e cfb6 b9be
00000330: fa1e 6f3e 2a06 9b3e 02c0 923c c87c a13e
00000340: a3a8 12bd 8706 e23d 3865 80bd ba2d c53d
00000350: 87b6 f33c 7500 043d ce06 d03e a18d 3c3e
00000360: 60ad d3bd 4161 813d 9ad8 dd3e b30c a93e
00000370: cc3f 07be e933 17be 502c bd3e 2362 bbbe
00000380: 4b56 49be 5f61 dbbd 71b8 b23d 732e dd3d
00000390: 86e1 213e 8962 5e3e 98bb 903d 8d00 583c
000003a0: 5ce6 303e 7077 d5bc 7765 9dbd 0e12 02be
000003b0: cebd d9bc 0910 6ebe b1ca 65bb 567c 353e
000003c0: a410 f8bc 119e 763e 5e4c 183e 84d2 293d
000003d0: debe a3be 5a53 a53e 0e1e 9a3c f44a 91bd
000003e0: 1981 813e dad2 3a3d 43ab f13d 1c99 133e
000003f0: 783d fdbd b2f1 1e3e 5719 cb3d 673d 193e

fc.1.bias f4 [128]
0.20694658 0.11099982 0.24129604 0.2436226 0.24596737 0.0582898 0.25791135 -0.24576168
0.29796326 0.06597691 0.101265624 -0.3145095 0.20782901 0.2839768 0.2443349 0.018919913
0.29340106 0.20979708 0.26313412 0.25269538 0.013123631 0.27657038 -0.25848696 -0.014816194
0.31920427 0.023537992 0.061098617 0.058161363 0.083403915 0.2514513 0.26165277 0.21540953
0.033730008 0.057130598 0.27948135 0.19527283 -0.28350222 0.040979903 0.17115077 0.27074453
-0.3249548 0.27261537 0.08252373 0.024237577 0.13249308 0.054346293 0.2168321 0.24426262
0.050970923 0.013213692 0.26147893 0.08822686 0.08536319 0.076925896 0.10300132 -0.021894667
0.30347586 0.020198228 0.26457098 0.022419784 0.27810788 0.052727617 0.07174578 0.06778048
0.24853943 0.17272684 0.03939601 0.11689216 0.055947408 0.30595362 0.06291505 0.08655034
0.31213924 0.120657586 0.11835458 0.2801107 0.062136248 -0.022237517 -0.28322294 0.2674537
0.24047124 -0.2603513 0.08892234 0.25126556 0.1939329 -0.24588875 -0.27729318 0.11093529
0.028345691 0.26504034 0.032697607 -0.015339384 0.25535917 0.11090947 0.26578295 -0.023887394
0.07139285 -0.25487444 -0.26633355 0.2512209 0.045796953 0.2170157 -0.24520737 0.27678275
0.15775439 -0.31096062 0.01932972 0.17240737 0.05470382 0.07898085 0.28122097 0.06628434
0.21975286 0.2638441 -0.013102912 0.2707963 0.12174213 0.007267666 0.069196366 0.047694217
0.020987699 -0.25034097 0.035007745 0.18931347 0.26267543 0.23047163 0.12578908 0.022254992
00000000: cee9 533e e053 e33d 4f16 773e 3478 793e
00000010: dfde 7b3e 49c1 6e3d f50c 843e f3a8 7bbe
00000020: a48e 983e e71e 873d 5a64 cf3d 6407 a1be
00000030: 21d1 543e 6865 913e ee32 7a3e effd 9a3c
00000040: aa38 963e 0cd5 563e 84b9 863e 4a61 813e
00000050: 7f04 573c a29a 8d3e 6758 84be 9fbf 72bc
00000060: be6e a33e bfd2 c03c 8b42 7a3d 9c3a 6e3d
00000070: accf aa3d 3abe 803e 5af7 853e 5194 5c3e
00000080: 7a28 0a3d c601 6a3d 2e18 8f3e 9af5 473e
00000090: 3427 91be 8bda 273d 2642 2f3e 079f 8a3e
000000a0: 7a60 a6be 3e94 8b3e 3402 a93d e28d c63c
000000b0: 44ac 073e 389a 5e3d 3c09 5e3e fb1f 7a3e
000000c0: e3c6 503d 3e7e 583c 91e0 853e 49b0 b43d
000000d0: e5d2 ae3d 538b 9d3d 5bf2 d23d 725c b3bc
000000e0: 3061 9b3e c176 a53c d975 873e b2a9 b73c
000000f0: 2864 8e3e eaf8 573d 74ef 923d 7ed0 8a3d
00000100: 1f81 7e3e 4edf 303e b65d 213d 2865 ef3d
00000110: 1c29 653d f4a5 9c3e 9bd9 803d 4e41 b13d
00000120: b7d0 9f3e 531b f73d e363 f23d ab6a 8f3e
00000130: 9482 7e3d 742b b6bc 9902 91be b1ef 883e
00000140: 183e 763e c44c 85be ea1c b63d e1a5 803e
00000150: 5996 463e 43ca 7bbe 5ff9 8dbe 0b32 e33d
00000160: 3935 e83c 5eb3 873e eded 053d 0a52 7bbc
00000170: 70be 823e 8124 e33d b414 883e 7faf c3bc
00000180: 6a36 923d e77e 82be df5c 88be 07a0 803e
00000190: 9695 3b3d 5d39 5e3e a417 7bbe 78b6 8d3e
000001a0: 5e8a 213e 3b36 9fbe 5c59 9e3c 8f8b 303e
000001b0: 1d11 603d b6c0 a13d 32fc 8f3e 16c0 873d
000001c0: e506 613e 9316 873e 99ad 56bc d0a5 8a3e
000001d0: f053 f93d 9a25 ee3b d3b6 8d3d 035b 433d
000001e0: 65ee ab3c b12c 80be 4864 0f3d 64db 413e
000001f0: 657d 863e c100 6c3e dace 003e 1a50 b63c

fc.2.weight f4 [1, 128]
0.699383 -0.4465577 0.5564846 0.8050058 0.47678268 -0.39106813 0.53800684 -0.6576159
0.40589336 -0.5104314 0.2969296 -0.35937577 0.66656375 0.3825087 0.6249387 0.19901778
0.36685783 0.42046908 0.40673292 0.51474524 -0.45441252 0.4601355 -0.5701426 -0.09371625
0.34891427 -0.39601836 -0.50861657 -0.36188203 -0.5797029 0.56312203 0.5270443 0.551729
-0.5600225 -0.39317876 0.4518806 0.4684855 -0.43417445 -0.42845818 0.35342798 0.47354895
-0.33873633 0.43981433 -0.5452985 -0.57304335 0.44890732 -0.34836686 0.39368066 0.6618053
-0.42545104 -0.52587396 0.49350926 -0.3385291 -0.41277242 -0.3128996 -0.25745502 0.07924115
0.3737835 -0.37841347 0.48956287 -0.2756003 0.4495065 -0.5847885 -0.2734179 -0.26977435
0.7113422 0.43945962 -0.22721909 -0.38627663 -0.25314298 0.3622444 -0.5126928 -0.3096539
0.37826654 0.1757068 -0.2887572 0.43727985 -0.23257661 -0.20561181 -0.40803343 0.47922608
0.61146486 -0.50323695 -0.20512412 0.62995875 0.44527537 -0.719183 -0.4104922 -0.35957178
-0.4079018 0.48922235 -0.25727838 0.003409442 0.59855884 -0.24412933 0.5247684 -0.17700736
-0.59206516 -0.58258855 -0.5105711 0.5336781 -0.32727307 0.63871443 -0.72624636 0.43920454
0.5286654 -0.36959344 -0.22644678 0.6162933 -0.42890567 -0.39805254 0.45669225 -0.34296998
0.40778273 0.5305487 -0.21210061 0.47296172 0.18932138 -0.24300693 -0.40765306 -0.25379214
-0.46217516 -0.6562836 -0.58590263 0.5825865 0.46320322 0.49888557 0.4639674 -0.6599228
00000000: c40a 333f 36a3 e4be c675 0e3f dc14 4e3f
00000010: dc1c f43e 153a c8be d1ba 093f 8459 28bf
00000020: 41d1 cf3e a2ab 02bf 2807 983e 1a00 b8be
00000030: eca3 2a3f 2ed8 c33e fcfb 1f3f 51cb 4b3e
00000040: cad4 bb3e b947 d73e 4c3f d03e 58c6 033f
00000050: c2a8 e8be e196 eb3e def4 11bf 4eee bfbd
00000060: e4a4 b23e ebc2 cabe b234 02bf 9a48 b9be
00000070: 6967 14bf c428 103f 60ec 063f 1d3e 0d3f
00000080: a25d 0fbf ba4e c9be e55c e73e 55dd ef3e
00000090: 1d4c debe df5e dbbe 83f4 b43e 0275 f23e
000000a0: d96e adbe 582f e13e af98 0bbf f8b2 12bf
000000b0: 2ed7 e53e 245d b2be 8390 c93e 126c 293f
000000c0: b8d4 d9be ad9f 06bf 3fad fc3e b053 adbe
000000d0: e856 d3be 6034 a0be 25d1 83be 2f49 a23d
000000e0: 8d60 bf3e 69bf c1be fca7 fa3e 7c1b 8dbe
000000f0: b725 e63e b3b4 15bf 6efd 8bbe dd1f 8abe
00000100: 861a 363f da00 e13e 1fac 68be 0dc6 c5be
00000110: f59b 81be 1978 b93e d63f 03bf f58a 9ebe
00000120: 27ac c13e 7cec 333e fcd7 93be 25e3 df3e
00000130: 9028 6ebe e78b 52be c2e9 d0be 1f5d f53e
00000140: f688 1c3f 23d4 00bf 0f0c 52be fa44 213f
00000150: 22fb e33e 611c 38bf 092c d2be cb19 b8be
00000160: 81d8 d0be 5a7b fa3e feb9 83be f270 5f3b
00000170: 273b 193f 0afd 79be 3957 063f 6b41 35be
00000180: 9591 17bf 8624 15bf cab4 02bf 219f 083f
00000190: 5690 a7be ca82 233f 48eb 39bf 6bdf e03e
000001a0: 9e56 073f 5a3b bdbe aae1 67be 66c5 1d3f
000001b0: 8699 dbbe 8bcd cbbe 91d3 e93e c399 afbe
000001c0: e6c8 d03e 0ad2 073f e730 59be 0a28 f23e
000001d0: 77dd 413e cfd6 78be e7b7 d0be 0bf1 81be
000001e0: 39a2 ecbe 3402 28bf b7fd 15bf 6424 153f
000001f0: f928 ed3e ee6d ff3e 238d ed3e b3f0 28bf
