data/pour_red_new_meirl_test.pt (torch_old, 83467 bytes, 5 tensors)

fc.0.weight f4 [128, 6]
000000 b4 78 17 3f 7f 4f 07 3f 13 7a 43 3d ae 1b 53 be
       0.59168553 0.52855676 0.04772384 -0.20616028
000010 e4 b5 04 bf 1f 32 81 b7 b4 95 6e be ea 1f 01 bf
       -0.51840043 -1.5401338e-05 -0.23299295 -0.5043932
000020 23 1b a8 be 08 ff 19 3f b7 9d 92 3e 40 64 0f 3b
       -0.32833204 0.6015477 0.28635952 0.0021879822
000030 6e d6 01 bf 71 ba e2 be ae 96 27 3e 14 83 b8 bd
       -0.5071782 -0.44282869 0.16366073 -0.09009376
000040 f6 e1 b9 be c4 49 93 b5 74 a7 d5 3e d5 8b c8 3e
       -0.36305207 -1.0973822e-06 0.4172932 0.39169183
000050 f7 ac ab be 2f c4 93 be b8 a8 55 bd cd ab d4 b2
       -0.335304 -0.28860614 -0.052162856 -2.4758174e-08
000060 1d 82 95 3e 89 c4 41 3e 83 b1 16 3f 53 8f 2d 3d
       0.2920083 0.18922628 0.5886461 0.042373013
000070 7c 7e d1 be 11 54 03 b3 21 ca 15 3f a5 c8 9b 3e
       -0.40916812 -3.0577272e-08 0.5851155 0.30426517
000080 8f da 47 3d 02 29 58 be 9d 50 bf 3d 7d a2 f0 bb
       0.048792418 -0.21109393 0.09341548 -0.007343589
000090 96 5d 01 3f 7e 59 9a 3e 97 ba 15 be 1a 87 8c be
       0.50533426 0.30146402 -0.1462196 -0.27446824
0000a0 86 54 4a 3e be 44 76 bb 9a bd 0b 3f b0 14 19 3f
       0.19758806 -0.0037577595 0.54586184 0.5979719
0000b0 a8 b3 28 be 68 20 a9 be dd 1c be be 01 82 a8 3a
       -0.16474783 -0.33032537 -0.37131396 0.0012856127
0000c0 d9 af b5 3e 18 fe 59 3e 15 85 96 3e 02 2a a1 be
       0.35485724 0.21288335 0.2939841 -0.31477362
0000d0 e9 73 9d be 0d 05 60 b2 05 18 c7 be 64 40 08 bf
       -0.30752495 -1.30396645e-08 -0.38885513 -0.5322325
0000e0 44 93 b6 3e ae 61 09 3e 88 b0 51 be 05 7f b1 b7
       0.3565923 0.13416168 -0.20477498 -2.1159192e-05
0000f0 2c c8 12 3f 03 92 b4 3e d3 c8 b0 3e 05 14 84 be
       0.5733669 0.35267648 0.34528217 -0.25796524
000100 6c f1 08 bf 3c 61 79 bd 6a c5 d5 be b1 0e d2 be
       -0.5349338 -0.060883746 -0.41752177 -0.41026834
000110 36 7c 9a be c5 00 aa 3e 01 b0 91 3e 9b 9a d3 3d
       -0.3017289 0.33203712 0.28454593 0.10332223
000120 d4 2f 05 bf 0c d2 07 bf d5 f7 f7 bc f9 5b 94 3e
       -0.52026105 -0.5305488 -0.030269543 0.2897642
000130 94 e2 81 3e 2f 37 00 3e a4 0c c0 be eb 4d 15 bf
       0.25368178 0.12521051 -0.37509644 -0.5832202
000140 35 77 cd 3c da 56 24 3e 43 87 06 3e 5c b7 12 3c
       0.025081256 0.16048756 0.13137536 0.008954849
000150 33 98 8b be ef ce 0b bf 37 12 4d 3e 5b 6b ba bd
       -0.27264556 -0.5461263 0.2002648 -0.09102508
000160 17 f1 15 3e fa 49 57 bb 5a b8 a4 3e fd ff a2 3e
       0.1464275 -0.003285049 0.321719 0.3183593
000170 22 1f b3 be 49 34 b0 bc f5 2d a6 3d 6e 53 8a 30
       -0.3498469 -0.021509307 0.08114234 1.0064534e-09
000180 ed 18 de 3e b9 af 04 3f 82 98 36 3d 77 95 bd be
       0.43378392 0.5183063 0.044579037 -0.37028095
000190 76 19 28 bf 72 e3 27 bc 49 9a 2c bf 1c d5 c2 be
       -0.6566385 -0.010247098 -0.6742292 -0.38053215
0001a0 3a 81 df bd b6 9d d4 3e f1 ef e2 3d 9a 77 2e b2
       -0.1091332 0.41526574 0.110809214 -1.0155327e-08
0001b0 9d 90 db 3e 48 b1 fa 3e 04 e5 81 bd 6b a1 9c bd
       0.4288377 0.4896338 -0.063425094 -0.076479755
0001c0 63 ff 9b be 3e 69 80 bc 68 8a 32 bf a0 3e de be
       -0.30468282 -0.015675183 -0.6974244 -0.43407154
0001d0 9b 77 3e 3e 30 12 31 be 5a 9e 51 be 1b fd 05 3b
       0.18600313 -0.17292094 -0.20470563 0.0020445052
0001e0 f2 31 44 3e 1d d0 3e 3f df 4b 1c 3e 8f 63 26 bf
       0.19159678 0.74536306 0.15263318 -0.64995664
0001f0 59 2b 47 be 44 72 4c b8 5b 8e e8 3e 7f ee d2 3e
       -0.1945013 -4.874381e-05 0.4542111 0.41197583
000200 f1 61 e5 bd b7 79 b1 bd ef b9 d0 be ab 9f af ba
       -0.112003215 -0.086657934 -0.40766856 -0.0013399025
000210 2a cb 83 be 79 73 fe be b2 27 52 3e c1 62 82 bc
       -0.2574094 -0.49697474 0.20522955 -0.01591623
000220 e4 75 5c bd c9 e4 96 b9 4e 95 aa 3e e4 b3 13 3f
       -0.053823367 -0.00028780688 0.33317035 0.57696366
000230 c5 f1 52 3e f6 3a 94 be f7 f3 0c 3d e8 71 c4 bb
       0.2060004 -0.28951234 0.03441235 -0.005995024
000240 05 5c f9 be df 2d fe be 79 0d df 3e 67 c3 89 be
       -0.48703018 -0.49644372 0.43564966 -0.26906893
000250 28 f8 70 3e f8 cb d5 bc 12 7a 09 bf 44 fd bf be
       0.23532164 -0.026098236 -0.5370189 -0.37497914
000260 ac 69 11 3d 1c da e3 3e 1f f9 44 3e 2d bc 41 b4
       0.035501167 0.44502342 0.19235657 -1.8042984e-07
000270 6c 2e 32 3f 6e 9c cf 3e d9 21 b9 bd 11 9b 61 be
       0.69602084 0.40549034 -0.09039659 -0.2203181
000280 88 77 1b be c2 8b 8c 37 38 0e 09 be a4 a6 30 bf
       -0.15182316 1.675438e-05 -0.1338433 -0.69004273
000290 c3 49 cb 3e 9c 2a b0 be ca d9 9b bb 00 61 67 b4
       0.39704713 -0.34407508 -0.004756187 -2.154884e-07
0002a0 9b 9b 86 be 56 96 15 bf 5c 25 f4 bd 25 79 95 3e
       -0.26290593 -0.5843252 -0.11921188 0.29193988
0002b0 1a ee 7e 3e 61 89 44 34 63 43 ee bd 68 94 44 bf
       0.24895516 1.83039e-07 -0.11633947 -0.7678895
0002c0 50 f3 3c 3e 7a bf e3 bc a7 bd 8d be 81 7b 77 b5
       0.18452191 -0.027801264 -0.27683756 -9.219439e-07
0002d0 12 a8 1c 3f 1f a1 d7 3e d7 b5 9a 3b fc 77 cb be
       0.61193955 0.42115113 0.004721384 -0.39739978
0002e0 70 ff f0 bd 1c e0 ee 33 d7 92 d6 3e 55 47 04 3f
       -0.11767471 1.1123504e-07 0.41908905 0.51671344
0002f0 82 9a 97 bd 1b 97 0b bf 44 82 c1 be 64 d5 88 34
       -0.07402517 -0.54527444 -0.37794697 2.5487236e-07
000300 a3 ba e1 3e 77 00 e7 3e dc 34 a3 ba 85 3a 9c 3c
       0.44087705 0.45117542 -0.0012451666 0.019070873
000310 df 72 6d be 70 46 5c 34 8f cd 98 be e1 08 17 bf
       -0.23188351 2.0514722e-07 -0.2984433 -0.58997923
000320 b3 d4 8a bc f1 52 af 3e bd ec d9 3e 9e 13 a7 b3
       -0.016947126 0.34242967 0.4256343 -7.780112e-08
000330 ca 68 fd 3e a9 a7 b5 3e c7 d9 32 3f 11 8d a7 be
       0.4949401 0.35479477 0.6986355 -0.32724813
000340 4c 5c c0 be eb 0c 2f 3d c7 4b ca be 58 4a e0 be
       -0.37570417 0.04273693 -0.3951094 -0.4380672
000350 2b 7c e2 be 23 e2 82 3e a7 0f b8 3e 6e 88 52 ba
       -0.44235358 0.25563154 0.35949442 -0.0008031194
000360 c0 c6 87 3e a1 36 16 3f 6b 2a 84 3d 1f f4 ce be
       0.26518822 0.5867711 0.06453403 -0.40420625
000370 d6 19 c9 be 78 21 a0 b4 9b 72 05 3f fc 2c 93 3e
       -0.39277524 -2.9826674e-07 0.52128 0.28745258
000380 ea 4b 42 bd 44 5d 6a be 9f c9 bc 3d d7 78 a0 3d
       -0.04743568 -0.2288714 0.09218144 0.07835548
000390 0f 5a c7 be 75 33 10 bf 64 3b f3 3d 87 7e be 3e
       -0.38935897 -0.5632852 0.11876562 0.37205908
0003a0 6f 81 62 3e 23 3b 11 bd 02 37 08 3f 01 ea 10 3f
       0.22119687 -0.035456788 0.53208935 0.5660706
0003b0 a7 b2 b4 3e 87 c7 01 be 61 e4 27 be f3 16 8c 3c
       0.3529255 -0.1267377 -0.16395713 0.017100787
0003c0 4d d7 cc be d5 ae 13 bf e7 72 44 3e c7 0d 90 bd
       -0.4000801 -0.5768865 0.19184457 -0.07033878
0003d0 d7 b3 9e bd 32 cd c8 31 0b 2b 45 3f 15 e8 28 3f
       -0.077491455 5.844094e-09 0.77018803 0.6597913
0003e0 e3 90 cd 3c 3d 77 af bd 49 14 95 bd 07 f9 1c 3d
       0.025093501 -0.08567665 -0.0727926 0.03832343
0003f0 73 55 4e 3e 7b 17 25 3f 62 05 20 3e 69 97 04 bf
       0.20149784 0.64488953 0.15627053 -0.51793534

fc.0.bias f4 [128]
000000 36 b5 87 3e cb 6a b3 be 52 b2 54 3c 99 74 79 3e
       0.2650544 -0.35042414 0.012981968 0.24360885
000010 04 f5 53 3e 47 8e 46 3e a0 7b 08 3e 21 e7 2b 3e
       0.20698935 0.19390212 0.13328409 0.16787387
000020 22 a4 94 3e ec 4d a4 3c 9f 1f a7 3e 70 34 b1 be
       0.29031473 0.020056687 0.32641312 -0.3461032
000030 11 23 3e be 46 c3 3d be 60 37 d3 bc ee 02 a9 bd
       -0.18568064 -0.18531522 -0.02578324 -0.08252512
000040 0a b4 80 3e c4 85 8e be 1b c0 01 3e 13 e8 c4 3b
       0.2513736 -0.2783643 0.12670939 0.0060091107
000050 2e 90 a8 3e 64 cc 20 3e 6b ab 36 bb 3b 9b 77 3e
       0.329225 0.15702969 -0.002787317 0.2418031
000060 5f 75 93 3c 0e a9 75 be d4 0d 18 3e 02 54 41 bd
       0.018000303 -0.2399027 0.14849025 -0.047199257
000070 68 70 65 be b3 b4 a6 bc 17 40 89 3e 66 f8 7b 3e
       -0.22406161 -0.020349836 0.2680671 0.24606475
000080 22 76 18 3e 48 25 7e be 51 97 9a 3e 81 84 ae be
       0.14888814 -0.24818909 0.3019357 -0.34085467
000090 0b 55 a4 3e 7f 4b 43 3e 3a 51 61 be 94 d7 a8 3e
       0.32096133 0.19071768 -0.22003642 0.32976973
0000a0 e4 c6 a7 3c 4e a3 33 3e 11 6d 98 3e 43 b0 9f 3e
       0.02048058 0.17542765 0.2977071 0.31189165
0000b0 35 ea a8 3e 54 10 1a 3e ae 77 88 3e 8f 79 87 bc
       0.32991186 0.15045291 0.26653808 -0.016537456
0000c0 c2 d0 4c bb c6 51 70 3d c0 61 5a 3e 1d 61 8f bc
       -0.003125236 0.058671735 0.21326351 -0.017502362
0000d0 da 84 24 3d 3a 06 57 be ef 6c 45 3c ab 89 52 3e
       0.04016576 -0.20998469 0.012049898 0.20560329
0000e0 d0 a9 4e 3e 20 dc 4c 3d 00 98 d6 bb c2 72 8a 3b
       0.20181966 0.050014615 -0.0065488815 0.004225106
0000f0 d5 96 54 be 85 4c 83 3d 5e f2 82 3e 26 66 94 3e
       -0.20760663 0.06411079 0.25575536 0.28984183
000100 c4 1d 81 bd 99 52 97 3e 18 5d 91 3d 73 f8 26 3e
       -0.063045055 0.29555205 0.07097834 0.16305713
000110 96 3c 57 3d 64 5a 8f 3e 7f c8 93 be a1 e1 9d 3e
       0.052548014 0.2799865 -0.28863904 0.30836204
000120 cd cf 8d bd 8e d2 ae 3d f7 18 8a 3e d4 3e b3 be
       -0.069244005 0.08536254 0.26972172 -0.35008872
000130 1d 86 1b 3e 93 0d 88 be 67 09 26 3e 1c 8b 27 bd
       0.15187879 -0.26572856 0.16214524 -0.04090415
000140 a6 53 98 3e 9d 99 28 3e 81 13 85 3e 8e e5 43 3d
       0.2975132 0.16464849 0.25991443 0.047826342
000150 58 25 ab 3d 3a f1 80 be a1 93 75 3e 2a 32 ad 3c
       0.08356732 -0.2518404 0.23982097 0.021142084
000160 59 d3 0f 3e 65 8f cc 3c 1b 19 56 3e 2e 83 56 3d
       0.14045466 0.02497072 0.20908014 0.052371196
000170 5d f7 9c be 27 22 f1 3d 9b 7d 3d 3d 65 0e 44 3e
       -0.30657473 0.11774092 0.046262365 0.19146116
000180 46 11 1b 3e fd be 98 3e a2 aa 8f 3e 94 53 b6 bd
       0.15143308 0.29833212 0.2805987 -0.0890266
000190 5c ce 62 bd 7d 69 92 bc 12 1d ab 3e a7 4d 2c 3e
       -0.05537258 -0.017872566 0.33420616 0.16826497
0001a0 ba 6c 18 3e 54 f2 29 3e 98 b7 d3 bc f9 be 92 be
       0.14885226 0.16596347 -0.02584438 -0.28661326
0001b0 ea 30 02 3d 9a 4e 8b 3e 81 b2 8d be bb 6c 9a bc
       0.03178493 0.27208406 -0.2767525 -0.018850675
0001c0 6f 02 18 3e 63 8b 2d 3e f8 ca 75 be c7 36 a1 3e
       0.14844678 0.16947703 -0.24003208 0.31487104
0001d0 de cb 70 3e 4a 1a f6 3d dd 00 85 3e 37 94 ad 3d
       0.23515269 0.12016733 0.2597722 0.08475535
0001e0 2b d1 82 3c 32 2d 37 3e 8d c6 a9 3e 6e d4 7a 3e
       0.01596888 0.17888334 0.33159295 0.24495098
0001f0 fd 76 26 3d dd c2 26 3c 6d 7d 06 3e c8 7b 23 3e
       0.04064082 0.010178295 0.13133784 0.15965188

fc.1.weight f4 [128, 128]
000000 0f 5f 3e 3e bf f8 82 be 4b 6e b3 be 31 90 69 3e
       0.1859095 -0.25580403 -0.35045084 0.22808911
000010 ed 9a a4 3e 66 a9 81 3e 82 5f d6 3e fe a8 58 3e
       0.3214945 0.25324553 0.41869742 0.21158215
000020 3d 2b 54 3e 25 72 09 bf 60 01 86 3e cc b9 84 be
       0.20719619 -0.53689796 0.26172924 -0.25923002
000030 97 7e df be 13 ed ef be cf 1f b8 be 52 b5 86 3e
       -0.43651268 -0.4686056 -0.35961768 0.2631021
000040 ef af 87 3e b3 3b 83 be aa f6 e1 3e 64 1a d2 be
       0.26501414 -0.25631484 0.44133502 -0.4103576
000050 6d a1 ea 3e 66 f2 b9 3e da 15 a8 be 1a ff d0 3e
       0.45826283 0.36317748 -0.3282917 0.40819627
000060 17 77 43 be 83 74 95 be 6c bd 2a 3e 1e 59 6e bd
       -0.19088398 -0.29190454 0.16673821 -0.058190458
000070 71 68 ae bd c5 45 03 bf 82 14 a4 3e 12 98 62 3e
       -0.08516014 -0.51278335 0.32046896 0.22128323
000080 1c e1 80 3e 57 35 d3 be cc 66 08 3e 8f ec 09 bf
       0.25171745 -0.41251633 0.13320464 -0.53876585
000090 a8 c0 16 3e bf 0b de 3e 52 ff 1c be 1e f6 21 3e
       0.1472193 0.43368337 -0.15331772 0.15816543
0000a0 8f cf b3 be 58 9e 7f 3e b2 de 7d 3e 76 b9 a2 3e
       -0.35119292 0.24962747 0.24791983 0.3178212
0000b0 fc bc 8e 3e 66 58 1b 3f 3b ee 37 3e 1e 84 05 bf
       0.2787856 0.6068176 0.17961971 -0.5215472
0000c0 05 e1 81 be 57 12 91 be e9 aa 88 3e 5a c3 cc be
       -0.2536699 -0.28334305 0.26692894 -0.3999279
0000d0 16 31 00 be 9a 64 a2 be 1a 52 a8 be 28 b4 dc 3e
       -0.12518725 -0.31717378 -0.3287514 0.43106198
0000e0 da b2 21 3f ce d6 37 be 43 11 60 3e 90 e3 dc 3e
       0.6316353 -0.17953035 0.21881585 0.43142366
0000f0 97 fc 0c bf 3b e9 d2 3e 91 b6 ff 3e e4 e1 7d 3e
       -0.5507292 0.41193566 0.49943975 0.24793202
000100 40 28 c6 be 6a 46 c5 3e af 73 b6 be 09 e1 a0 3e
       -0.38702583 0.38530284 -0.35635135 0.31421688
000110 af 91 de be c3 69 b0 3e 5b 65 00 bf 3a c4 28 3e
       -0.43470523 0.3445569 -0.50154656 0.16481104
000120 de e5 ac be 5e 24 a6 3e ec 25 82 3e cc ad 3f be
       -0.33769125 0.3244962 0.25419557 -0.18718642
000130 b4 f6 9e 3e da 9b 33 be ba a4 ca 3e e4 cf 0d be
       0.31047595 -0.17539921 0.395788 -0.13848835
000140 fd 9b 99 3e a0 31 cd 3e 0c 4e fc 3e 36 3d d4 be
       0.30001822 0.40076923 0.49278295 -0.4145295
000150 13 27 f7 3e d1 74 4e be 2e b3 99 3d fc b4 a1 be
       0.48272 -0.2016175 0.07504879 -0.31583393
000160 c2 be 11 3f cc eb 9a be 76 df de 3e 15 d5 05 3e
       0.569317 -0.30258024 0.43529862 0.13069566
000170 78 87 bf be dc 4f f7 3d a2 4b c7 be 0c 9a cd 3e
       -0.37408042 0.12075779 -0.3892489 0.4015659
000180 fd 51 ae 3d 80 fe 19 3e 53 76 4a 3e 4b 88 d6 be
       0.08511732 0.1503849 0.197717 -0.41900858
000190 9c b8 9d be 93 86 03 be cf 54 ac 3e ed 5f 34 3e
       -0.30804908 -0.12844305 0.33658454 0.17614718
0001a0 a9 e3 a0 3e 0c 97 b4 3e d9 0c 42 be 29 97 b2 be
       0.3142369 0.3527149 -0.18950213 -0.3488095
0001b0 52 60 8e 3e 41 a1 6e 3e 0e 30 d0 be fc 67 80 be
       0.27807862 0.23303701 -0.40661663 -0.25079334
0001c0 e6 3c 5a 3e ac a9 99 3e b6 25 bb be d4 cd 6a 3e
       0.21312293 0.30012262 -0.3655221 0.2293008
0001d0 00 ab fa 3e 38 b8 a1 3e 74 4c 8f 3e 6f cd 82 3e
       0.48958588 0.3158586 0.27988017 0.25547358
0001e0 1d 78 f9 be 53 53 dd 3e b2 ab 04 3f 09 9e d3 3e
       -0.48724452 0.43227634 0.51824486 0.4133151
0001f0 f1 45 ac be ef 72 03 bf 39 84 93 3e 15 68 ff 3e
       -0.3364711 -0.5134725 0.28811815 0.49884096
000200 78 ec 9e 3e 1f f0 9a be 30 4e 8e be 15 8f cb 3e
       0.31039786 -0.30261323 -0.27794027 0.397576
000210 49 96 77 3e 95 68 a8 3e 68 b8 c1 3e b0 ce 28 3f
       0.24178423 0.3289229 0.37836003 0.6594038
000220 f7 f8 9f 3e c5 e9 02 bf 0a 2d 00 3f d6 d2 c3 be
       0.31244633 -0.51137954 0.50068724 -0.38246793
000230 35 b1 cb be 09 c8 9c be d4 90 f4 be 02 99 37 3e
       -0.39783636 -0.30621365 -0.47766745 0.17929462
000240 4e e2 da 3e 31 1e 98 be 0d 57 e6 3e b5 01 85 be
       0.42750782 -0.29710534 0.4498829 -0.25977865
000250 f0 78 08 3f ca 24 a6 3e 07 39 49 be 49 fd 23 3f
       0.53309536 0.32449943 -0.1965066 0.6405836
000260 39 ff 03 bf e7 12 e2 be 80 18 ae 3e b3 d4 92 be
       -0.51561314 -0.44155046 0.34003067 -0.28677902
000270 fc 8b ae be 4b dd 02 bf 6f a7 b1 3e f9 8a b3 3e
       -0.34091175 -0.51118916 0.34698054 0.35066965
000280 3b 50 e0 3e 89 9c ce be d2 c1 47 3e ab cd 1b be
       0.4381121 -0.40353802 0.1950753 -0.15215175
000290 c8 0d ef 3e 8a ab af 3e 4a 4d 89 be 3c bb c9 3e
       0.46690202 0.3431056 -0.2681678 0.3940066
0002a0 0f 51 08 bf f4 34 00 3f 18 9a a6 3e de 35 9e 3e
       -0.53248686 0.500808 0.3253944 0.30900472
0002b0 35 f5 8b 3d 5c ce f1 3e 02 55 c1 3e e0 64 e3 be
       0.06833879 0.47227752 0.37760168 -0.444129
0002c0 41 ce 8f be 24 1d f2 be 3d 44 a4 3e d2 b4 9f be
       -0.28087047 -0.47287858 0.32083312 -0.31192642
0002d0 99 cb c4 be 6c 91 d2 be 66 bc d7 be 47 15 d8 3e
       -0.38436583 -0.41126573 -0.42135924 0.42203733
0002e0 84 69 fa 3e fb 5c d2 be 59 d9 63 3e 0e a0 d0 3e
       0.48908627 -0.41086563 0.2225088 0.40747112
0002f0 43 4a e9 be 6c f5 d0 3e ad 73 dc 3e fe 8a 86 3e
       -0.4556447 0.40812242 0.43057004 0.26277918
000300 ce e4 0b bf 3c 78 0e 3f 56 c4 95 be a1 ed ff 3e
       -0.54646003 0.55652213 -0.29251355 0.49985984
000310 44 45 0d bf fc 96 e4 3e c5 48 25 be 91 6e eb 3e
       -0.55183816 0.44646442 -0.1614104 0.45982793
000320 9d d4 14 bf 85 46 de 3e 12 43 c4 3e 34 a4 a4 be
       -0.5813692 0.43413177 0.3833242 -0.32156527
000330 eb fa e5 3e f3 03 f7 be 77 00 b7 3e be 99 91 be
       0.44917998 -0.482452 0.35742542 -0.28437608
000340 60 07 b1 3e 05 1f cd 3e 53 3d 87 3e 91 99 ad be
       0.3457594 0.4006273 0.26413974 -0.33906224
000350 91 bd d4 3e 1f af ae be f3 62 db 3d a9 83 0d be
       0.41550878 -0.34117982 0.107122324 -0.13819756
000360 8d ff a9 3e 59 58 3a bd 42 41 b6 3e 91 c7 ce 3e
       0.33202782 -0.04549441 0.35596663 0.40386632
000370 3c 5b ce be 1d cd 87 3e 14 6b f8 be 48 e1 a8 3e
       -0.4030398 0.26523677 -0.48519194 0.32984376
000380 65 be 01 3f 80 db b0 3e ab f1 1e 3f 71 a9 94 be
       0.50681144 0.34542465 0.62087506 -0.29035524
000390 7c 5a 05 bf 48 95 9d be ff 1d 92 3e 83 35 e7 3e
       -0.52091193 -0.30777955 0.2853851 0.45158014
0003a0 e1 9b bc 3e 31 db cc 3e c2 20 da be 90 7e 86 be
       0.36837676 0.4001098 -0.42603117 -0.26268435
0003b0 b0 8b bc 3e 47 52 14 3f e4 c2 a3 be 2e 5f bf be
       0.36825323 0.57938045 -0.31984627 -0.37377304
0003c0 43 b3 81 3e 87 af e8 3e 73 98 d2 be 63 80 81 3e
       0.25332078 0.45446417 -0.41131935 0.25293264
0003d0 32 eb d6 3e 7f be d0 3e 26 92 aa 3e 07 c5 71 3e
       0.41976315 0.40770337 0.33314627 0.23610316
0003e0 2b 1e 0b bf 7c 16 a2 3e 08 48 b7 3e 33 1b e5 3e
       -0.5434291 0.3165778 0.35797143 0.44747314
0003f0 95 dc fc be 21 fb ae be 67 65 a1 3e 22 81 c5 3e
       -0.4938704 -0.3417597 0.31522676 0.38575083

fc.1.bias f4 [128]
000000 71 62 4d 3e 98 1c 9f 3e 05 b8 c0 3d 08 4c 9c 3e
       0.20057084 0.31076503 0.09410099 0.30526757
000010 e5 1f 96 3e a2 37 94 be 93 88 d1 3d cc 5c d2 3d
       0.2932121 -0.28948694 0.102311276 0.10271606
000020 15 cf a4 be 37 2e eb 3d 93 33 91 3e 22 8c 96 3e
       -0.3218924 0.11483424 0.2835966 0.29403788
000030 a6 31 97 3e ae ef 9d 3e 6b d9 42 be c3 50 5e 3e
       0.29530066 0.30846924 -0.19028251 0.21710496
000040 a9 2d a4 3e a2 9b 8e 3d 56 82 9d be e1 ef a3 3e
       0.32066086 0.06963278 -0.307635 0.3201895
000050 49 f1 93 be 2c 73 dc 3d 63 31 98 be 28 a5 9c 3e
       -0.28895023 0.10764155 -0.2972518 0.30594754
000060 69 18 a0 3e ca c2 95 3e a9 cb b1 bc 0f a5 98 be
       0.31268623 0.29250175 -0.021703558 -0.2981343
000070 75 08 9d be 7e 85 71 be 85 2d 81 3e 6f dc 82 3e
       -0.30670515 -0.2358608 0.2523004 0.25558802
000080 c7 bd 93 be 09 10 93 3e 54 3a a5 be 46 3c 93 be
       -0.28855726 0.2872317 -0.32271063 -0.28756922
000090 a8 db 7d 3e 6b be 8e 3e 18 20 91 3d 42 59 91 3e
       0.24790823 0.27879652 0.070861995 0.2838841
0000a0 16 32 a0 be 2d be 32 3e be c8 98 3e 4d 45 9c 3e
       -0.31288213 0.17455359 0.29840654 0.30521622
0000b0 60 22 94 be e6 30 9f 3e 3e 12 9c 3e 1f 6c 85 3e
       -0.28932476 0.31091994 0.30482668 0.26059052
0000c0 59 a8 e2 3d 6c ef ca 3d 84 51 f6 3d 9a 38 82 3e
       0.11067266 0.09908947 0.120272666 0.2543381
0000d0 70 fa fb bc ae 1a 9c 3e 35 bd 76 3e 34 7d 98 3d
       -0.030759066 0.30489105 0.24095614 0.074457556
0000e0 b8 0b b3 3d 0c 68 9b be 61 0f 8f 3e 0f 73 9e 3e
       0.087424695 -0.3035282 0.2794142 0.30947158
0000f0 f2 e0 a6 3e c0 b4 96 be fa 83 81 3e 42 17 cc 3d
       0.32593495 -0.29434776 0.25296003 0.099653736
000100 91 78 94 3e 61 c3 a8 3e df 73 83 3e 4c c5 9d 3e
       0.28998235 0.32961562 0.2567434 0.30814588
000110 ae a4 75 3e f9 4d eb 3d 17 1d 94 3e 1e 16 c0 3d
       0.23988602 0.114894815 0.28928444 0.093792185
000120 ef f4 eb 3d 3b 17 bd 3d 86 73 36 3e b9 bb 81 3e
       0.11521327 0.092329465 0.17817506 0.25338534
000130 71 47 99 be 1c 51 8d bd f7 cb 48 3e 9d 96 76 3e
       -0.29937318 -0.06900236 0.19609056 0.24080892
000140 46 ad 8b 3e ab d1 b3 3d cb 61 e5 3d c6 1b 88 3e
       0.27280635 0.08780225 0.11200293 0.2658369
000150 72 66 a5 3e ad 24 d6 3d 6a f6 ab 3e e2 ff 27 3e
       0.32304722 0.10456214 0.33586437 0.16406205
000160 3c 68 73 3e 45 91 7b 3e 75 27 91 be 60 5e c5 3d
       0.23770231 0.24567135 -0.28350416 0.09637141
000170 ad d6 d7 3d 4d 7f 84 3d b7 6e 07 3e ca d9 a4 3e
       0.10538993 0.06469593 0.13225828 0.3219741
000180 17 7d 67 bd 0d 05 99 3e f4 a8 9f 3e 5f 4c 9c 3e
       -0.05651578 0.29886666 0.31183589 0.30527017
000190 7c 18 b9 3d 3d 43 ba 3d 05 9f 0a 3e f1 e6 9d 3e
       0.09037873 0.09094856 0.13537224 0.30840257
0001a0 00 70 96 3e 25 d6 9d 3e dd 40 14 3e 5f 63 93 be
       0.29382324 0.30827442 0.14477868 -0.28786752
0001b0 00 08 98 3e bf 8e 94 be 4f 37 89 3e 87 57 fe 3d
       0.29693604 -0.29015157 0.2680001 0.12419038
0001c0 e0 f8 cb 3d 98 0e 73 3e 1e 33 7d 3e 5d 00 9b 3e
       0.099595785 0.23736036 0.24726531 0.30273715
0001d0 34 67 77 3e 43 50 a0 be 5f 21 89 3d 6e 7b a6 3e
       0.24160463 -0.31311235 0.06695818 0.32516044
0001e0 ad 57 9b 3e 43 2b 98 be 2f 4f 9c 3e df 6c 9d be
       0.3034033 -0.29720506 0.30529162 -0.30747125
0001f0 fc ed 97 3e 9b 56 7d 3e 6c df 67 3e 43 2e 99 3e
       0.29673755 0.24740069 0.22643822 0.29918107

fc.2.weight f4 [1, 128]
000000 88 4c dd 3e a1 3b db 3e 7e b7 da be 76 81 07 3f
       0.4322245 0.4281893 -0.42718118 0.52931917
000010 12 7d 26 3f 9d 32 2e bf 0b 53 0e bf 15 44 0f bf
       0.6503459 -0.6804598 -0.55595464 -0.5596326
000020 31 3e e1 be 5c 91 e2 be cb 40 e2 3e 7d b9 24 3f
       -0.4399276 -0.44251525 0.44190058 0.6434553
000030 f6 eb 1c 3f 55 bf 01 3f 99 58 21 bf a6 c2 ad 3e
       0.6129755 0.50682575 -0.63025814 0.33937567
000040 a1 32 e8 3e 1d e2 a0 be 1c 18 01 bf 22 2a e9 3e
       0.45351127 -0.3142251 -0.50427413 0.45539957
000050 53 d3 31 bf f4 f7 2f bf b6 8e 15 bf b7 5e d5 3e
       -0.6946308 -0.6873772 -0.58420885 0.41673824
000060 5b f3 fa 3e e0 06 28 3f 63 c3 4f be 6a ea 11 bf
       0.4901379 0.6563549 -0.20289378 -0.5699831
000070 67 b0 02 bf 66 57 c7 be 84 e8 04 3f 2a e5 07 3f
       -0.5105042 -0.38933867 0.5191729 0.5308405
000080 98 09 36 bf 35 89 42 3f 01 14 e5 be dc bf d2 be
       -0.7110839 0.7599061 -0.44741824 -0.41162002
000090 00 33 ea 3e 5e 6c d4 3e 7b e3 e3 be 70 c0 fa 3e
       0.45742035 0.41488928 -0.4450949 0.48974943
0000a0 ec 80 f4 be 10 d0 fa 3e 30 84 d0 3e 15 bc 06 3f
       -0.4775461 0.48986864 0.4072585 0.5263074
0000b0 c2 5e 31 bf 65 b9 ff 3e ca 89 08 3f a6 cb f0 3e
       -0.69285214 0.49946132 0.5333525 0.4703037
0000c0 6f a5 2d bf 5b 94 bd be 4e 1d 01 bf 0e ec 1c 3f
       -0.67830557 -0.3702725 -0.5043534 0.6129769
0000d0 c6 6c 93 be bc 16 09 3f da c3 30 3f 4d 23 11 bf
       -0.28793925 0.53550315 0.69048846 -0.5669449
0000e0 82 53 2f bf 1a 49 07 bf 30 ff d2 3e 1e aa fe 3e
       -0.684868 -0.5284592 0.41210318 0.49739164
0000f0 0a 66 e2 3e 4c c6 1e bf ca ab 0a 3f 60 68 11 bf
       0.44218475 -0.62021327 0.5416838 -0.5679989
000100 d1 58 30 3f 80 63 df 3e fe 05 08 3f db cb 01 3f
       0.68885523 0.436306 0.53134143 0.50701684
000110 c1 36 22 3f 3b eb db be e3 0f df 3e a3 b6 30 bf
       0.633648 -0.42952904 0.43566808 -0.6902868
000120 a3 04 11 bf 9c 93 2f bf c5 90 ba 3e 16 79 1a 3f
       -0.566477 -0.6858461 0.36438575 0.6034101
000130 ac 4b 12 bf 4c 58 36 be 86 e5 24 3f 0e 07 1e 3f
       -0.57146716 -0.1780712 0.64412725 0.61729515
000140 73 05 01 3f bf dc 22 bf 0e d3 dd be 65 6e ec 3e
       0.5039894 -0.6361808 -0.43325084 0.46177974
000150 3d d4 dd 3e b3 d5 20 3f 1e b7 d0 3e 1b 78 34 3f
       0.43325987 0.6282608 0.40764707 0.70495766
000160 4d cf 2a 3f 44 2a 44 3f 7c 85 54 bf 97 4c 1b 3f
       0.66722566 0.7662699 -0.8301618 0.6066374
000170 ea 20 13 bf 36 01 c4 be 9d 36 11 3f 10 c4 e5 3e
       -0.574721 -0.38282174 0.5672396 0.44876146
000180 06 f0 83 be d0 fe 13 3f c0 59 cd 3e 5b 09 da 3e
       -0.2576906 0.5781069 0.40107536 0.42585263
000190 04 56 29 bf fa ef 31 bf 8d f0 e4 be 67 a4 02 3f
       -0.66146874 -0.695068 -0.44714776 0.5103211
0001a0 77 7e e6 3e f9 68 fe 3e e4 6c e6 3e e3 27 39 bf
       0.4501836 0.49689463 0.45004952 -0.7232649
0001b0 f3 d9 19 3f 48 51 24 bf 4a 5b 06 3f c0 73 e1 be
       0.6009819 -0.64186525 0.52483046 -0.44033623
0001c0 9f 44 e4 be d0 f0 e8 3e 5b 39 3b 3f 8a af eb 3e
       -0.44583604 0.45496225 0.7313439 0.46032363
0001d0 5d 4f 27 3f d8 26 f3 be 20 49 fb be 5e 18 e4 3e
       0.65355474 -0.47490573 -0.49079227 0.4454984
0001e0 ce 8b 0b 3f 19 a6 14 bf 31 da 06 3f b9 d3 01 bf
       0.545102 -0.58065945 0.52676684 -0.5071369
0001f0 ce 8f 1c 3f 3f 7e 14 3f 16 54 31 3f d4 6f 13 3f
       0.6115693 0.58005136 0.6926893 0.5759251
