data/pour_red_new_meirl_test2.pt (torch_old, 83465 bytes, 5 tensors)

fc.0.weight f4 [128, 6]
0	0xbceadfd9	-0.028671192
1	0x3e410050	0.18847775
2	0xbcdee4d3	-0.027208721
3	0x3ea64ce4	0.32480538
4	0xbb5d2edd	-0.0033749857
5	0x3cf8368a	0.030299444
6	0xbe3d76b7	-0.18502317
7	0x3e4779cb	0.19480054
8	0x3c3b0dfc	0.011416908
9	0x3d6cb446	0.05778911
10	0x3d609dbe	0.054837935
11	0xb54c74fd	-7.616616e-07
12	0xbdeed455	-0.11661593
13	0x3d9b0a6e	0.07570349
14	0x3e8cb2ce	0.27480167
15	0x3cf6343b	0.030054202
16	0x3d1d6f8d	0.03843646
17	0x31aa3fbc	4.954897e-09
18	0xbe00c855	-0.1257642
19	0xbec14fa6	-0.3775608
20	0xba6a3479	-0.00089342106
21	0xbc95aa97	-0.01826982
22	0x3e4d9a17	0.20078312
23	0x3e096029	0.13415588
24	0x3d28b853	0.04119141
25	0xbe7240df	-0.23657559
26	0xbe0e42c2	-0.13892654
27	0x3e06a7fe	0.13150021
28	0x3dee2a32	0.11629142
29	0xb254ae77	-1.2379693e-08
30	0x3e4459cc	0.1917488
31	0x3c50ab62	0.012736173
32	0xbe702822	-0.2345281
33	0xbe8450e9	-0.2584298
34	0xbcdcdb5c	-0.026960067
35	0xb2044bef	-7.7006765e-09
36	0xbdb06ee8	-0.08614904
37	0x3d18aaea	0.03727237
38	0xbe2d081a	-0.16897622
39	0x3e6bb5da	0.2301859
40	0x3d2049f7	0.03913304
41	0x3dc96280	0.098332405
42	0xbdd72393	-0.10504832
43	0xbee0192a	-0.437692
44	0xbd5e6f75	-0.054305512
45	0x3e87a778	0.26494956
46	0x3b1c290d	0.002382818
47	0x3de5d67d	0.11222551
48	0x3dbead70	0.09310424
49	0x3e42a846	0.19009504
50	0x3de5e2bf	0.11224889
51	0x3ca0f609	0.019648569
52	0x3c583d51	0.013198213
53	0x3d31ae5c	0.043379173
54	0x3cded340	0.027200341
55	0xbe7e8450	-0.2485516
56	0xbe6842e7	-0.22681771
57	0xbda2c632	-0.07947959
58	0x3bed532f	0.0072425823
59	0x36bc49a0	5.6114077e-06
60	0xbd75e8f6	-0.060036622
61	0xbe1bde77	-0.15221582
62	0xbe16349f	-0.14668511
63	0x3d84feb0	0.0649389
64	0x3dc8ca9c	0.0980427
65	0xbe8b7a0e	-0.27241558
66	0xbbde5202	-0.0067846784
67	0x3eeb4056	0.45947522
68	0xbdaf7de7	-0.08568936
69	0xbe63caae	-0.22245285
70	0x3d112ebe	0.035444967
71	0xb58cb765	-1.0484188e-06
72	0xbea55c34	-0.32296908
73	0x3e3a4c98	0.1819328
74	0xbe58ee0e	-0.2118456
75	0xbddface2	-0.10921647
76	0xbd82a3b6	-0.06378882
77	0x3c3b9744	0.011449639
78	0x3ed3784d	0.4130272
79	0xbe86f681	-0.26359943
80	0x3e830258	0.25587726
81	0xbe7da3ce	-0.24769518
82	0x3e9cd6a6	0.30632514
83	0x3365b295	5.3480637e-08
84	0xbe07fa89	-0.13279165
85	0x3d87996d	0.066210605
86	0x3d888063	0.06665113
87	0x3ebcd687	0.3688242
88	0x3bd40619	0.0064704535
89	0x3a5a67c5	0.0008331503
90	0xbd87e9bc	-0.06636378
91	0x3e850383	0.25979242
92	0xbe86b97e	-0.26313394
93	0xbc0420a5	-0.008064424
94	0xbd57d930	-0.05269736
95	0x39f31579	0.0004636457
96	0xbe293fc8	-0.16528237
97	0xbe958730	-0.29204702
98	0xbe106b34	-0.14103395
99	0xbccdd4c4	-0.025125869
100	0xbcb8b46f	-0.022546975
101	0xbdca45d6	-0.098766014
102	0xbe4c7c2d	-0.19969244
103	0xbe746bcc	-0.23869246
104	0x3e0c7935	0.13718112
105	0xbd28633a	-0.041110255
106	0x3dea4b56	0.114401504
107	0xb6871e30	-4.026828e-06
108	0xbe51627c	-0.20447725
109	0xbdf0fc30	-0.11766851
110	0x3e023917	0.1271709
111	0x3ceebff2	0.029144261
112	0xbdfe3c88	-0.12413889
113	0xbaa2a29f	-0.0012408084
114	0xbe89f557	-0.26944992
115	0x3ed489fd	0.41511527
116	0xbdeef5c9	-0.116679735
117	0xbe6929bb	-0.22769825
118	0xbe2b8914	-0.1675151
119	0x3b8592c9	0.004076336
120	0xbe8e2d7d	-0.2776908
121	0x3e2e6181	0.17029382
122	0xbd65f781	-0.05614424
123	0x3e7067be	0.23477075
124	0xbd8687d2	-0.065688744
125	0xb3d78d2c	-1.0037397e-07
126	0xbe6e461b	-0.2326893
127	0x3e82eb6e	0.25570244
128	0x3e5e601f	0.21716355
129	0x3e551e89	0.2081243
130	0x3c7bb225	0.015362297
131	0xbce71be3	-0.02821154
132	0x3dbc1b94	0.091849476
133	0x3e287c24	0.16453606
134	0xbe3cb2b2	-0.18427542
135	0x3e4dd2ce	0.20099947
136	0xbd544272	-0.05182118
137	0x3c20f98e	0.0098251235
138	0xbe16762a	-0.14693514
139	0x3e2c5cdc	0.16832298
140	0xbe509479	-0.20369138
141	0xbe068806	-0.13137826
142	0xbd46bee5	-0.048521895
143	0xb94f22ce	-0.00019754024
144	0xbe821811	-0.25408986
145	0x3d1e1553	0.038594555
146	0xbb888ea5	-0.004167395
147	0xbe100494	-0.14064246
148	0x3e901f10	0.281487
149	0x3cc31835	0.023815254
150	0xbde2d882	-0.11076452
151	0x3d2dfb98	0.042476267
152	0x3e2fc33c	0.1716432
153	0x3dbc19a2	0.091845766
154	0x3de9bf30	0.11413419
155	0x3c21c147	0.009872741
156	0xbe46286f	-0.19351362
157	0xbda8f8d2	-0.08250584
158	0x3d9de734	0.07710114
159	0x3e514bb2	0.20439032
160	0xbd075b71	-0.03304619
161	0xba947edc	-0.0011329311
162	0x3ee53398	0.44765925
163	0x3e0434e9	0.12910809
164	0xbdc5e33e	-0.09662484
165	0xbe335b1c	-0.17515224
166	0x3d91d7da	0.071212485
167	0x389c8ac3	7.464506e-05
168	0xbdd57bd5	-0.1042401
169	0x3ebdb2a2	0.3705035
170	0x3e4f96ad	0.20272322
171	0x3cc40868	0.02392979
172	0x3d5edbc9	0.054408822
173	0x3b1c5a84	0.0023857662
174	0x3c534fbb	0.012897427
175	0x3d28dfd7	0.041229095
176	0x3d171337	0.03688356
177	0x3e79311b	0.24335138
178	0x3d9b670b	0.07588013
179	0x3ba612a4	0.00506814
180	0xbd6e248f	-0.058140334
181	0xbed02cba	-0.40659124
182	0xbd6fa523	-0.058507096
183	0xbe2d833d	-0.16944595
184	0x3e06ab2c	0.13151234
185	0xba802517	-0.0009776679
186	0x3e4f06bc	0.20217413
187	0x3ec80911	0.39069417
188	0xbe35ff04	-0.17773062
189	0x3dc3c03d	0.09558151
190	0xbcde92d2	-0.027169619
191	0xb46ea4b3	-2.2225395e-07
192	0x3ca7b22c	0.020470701
193	0x3e83e749	0.25762394
194	0x3e3b9765	0.18319471
195	0x3e434fb1	0.19073369
196	0xbe1b0ca1	-0.15141536
197	0xbae6f0f6	-0.0017619419
198	0xbe257633	-0.1615837
199	0x3cb32654	0.021868862
200	0xbda2efa9	-0.07955868
201	0x3db9af1d	0.09066603
202	0x3d63c4e0	0.055607677
203	0xb8250db1	-3.9351817e-05
204	0x3d33c5d8	0.04388985
205	0x3e755254	0.23957187
206	0xbd7b839c	-0.06140481
207	0x3e7259a4	0.23667008
208	0xbc399e72	-0.01132928
209	0x354d7fe1	7.655454e-07
210	0x3e1bd1d4	0.15216762
211	0xbda0c872	-0.07850732
212	0x3e8f15c0	0.2794628
213	0xbe210d80	-0.15727806
214	0xbeae38e8	-0.3402779
215	0xb9755e36	-0.00023400117
216	0x3b4175af	0.0029519608
217	0x3df00c21	0.117210634
218	0xbc88b584	-0.016688116
219	0x3cbb50af	0.022865621
220	0xbab331c0	-0.0013671443
221	0x3d25af54	0.04045041
222	0xbe20a3dd	-0.15687509
223	0x3e0e025c	0.13868088
224	0xbe09ad49	-0.1344501
225	0x3e96345c	0.29336822
226	0x3dd0002d	0.101562835
227	0xaf081a70	-1.237852e-10
228	0x3d9d8a08	0.07692343
229	0xbe69d3e0	-0.2283473
230	0x3e844fe0	0.2584219
231	0x3e77c6ea	0.24196973
232	0x3e3ba523	0.18324713
233	0xbdafd050	-0.08584654
234	0xbd4d6566	-0.05014553
235	0xbd9679fa	-0.07347484
236	0xbe5ff0c0	-0.21869183
237	0x3d4e4a37	0.050363746
238	0x3ca5a934	0.020222284
239	0xbdfe3188	-0.12411791
240	0xbe255325	-0.16144998
241	0x3e8ed97a	0.27900296
242	0x3ce268b9	0.027637826
243	0x3e69cb61	0.22831489
244	0x3c8792ca	0.016549487
245	0xbe3027ba	-0.17202654
246	0xbd903b9b	-0.07042619
247	0xbe818531	-0.2529693
248	0x3df3cfe6	0.11904888
249	0xbeaea4d8	-0.3411014
250	0x3d39671f	0.04526436
251	0x39a47eee	0.00031375088
252	0x3eb156c8	0.3463652
253	0x3d30c8f0	0.04316038
254	0xbd93d644	-0.07218602
255	0xbde06775	-0.10957233

fc.0.bias f4 [128]
0	0xbc114942	-0.008867564
1	0xbac9674e	-0.001536587
2	0x3b6821d6	0.0035420558
3	0xbc1f48fd	-0.009721992
4	0xbc090291	-0.008362428
5	0xbc6684be	-0.014069734
6	0x3bf2805e	0.0074005565
7	0xbc31a584	-0.010842685
8	0x3cb57e95	0.022155086
9	0xbc3e5616	-0.011617204
10	0x3beccfbf	0.0072269137
11	0x3a5b58cd	0.00083674194
12	0x3b41b77c	0.0029558828
13	0x3bb60506	0.005554798
14	0xbb808475	-0.00392204
15	0x3c7f3a10	0.015577808
16	0xbb78a699	-0.0037941097
17	0x3a92ea06	0.001120866
18	0x3c85e0cc	0.016342543
19	0x3c48eba4	0.012263212
20	0xbc8476fe	-0.016170021
21	0xbc647dda	-0.013946021
22	0x3c836aeb	0.016042193
23	0xbc7ddcf4	-0.015494574
24	0x3c29db77	0.010367266
25	0x3b7f31f2	0.0038939682
26	0x3b3a53c3	0.0028431274
27	0x3bf6e9ee	0.007535211
28	0x3b2319f4	0.0024887295
29	0xbccef651	-0.025263937
30	0x3ac8feb7	0.00153347
31	0xbba1acc8	-0.004933927
32	0xbbf65afd	-0.007518171
33	0x3bd58a8b	0.0065167597
34	0x3c730d35	0.014834692
35	0x3c488933	0.012239742
36	0xbc08767f	-0.008329033
37	0x3c2243f4	0.009903897
38	0xbba75ed8	-0.005107742
39	0xbc85cbc6	-0.016332518
40	0x3c078f54	0.008273918
41	0xbaa06d2f	-0.001223957
42	0xbace4b8c	-0.0015739067
43	0xbb9c4e4f	-0.0047700773
44	0xbc4cfabf	-0.012510954
45	0xbc041815	-0.008062382
46	0xbb968953	-0.004594007
47	0x3a9031a4	0.0011001122
48	0xb913255d	-0.00014032931
49	0xbc8d651a	-0.017260123
50	0x3b8b8f17	0.004259001
51	0x3b83db58	0.0040239505
52	0xbc8739d3	-0.016507065
53	0x3c29f5e0	0.010373563
54	0x3b88dd9e	0.0041768095
55	0xbc0d15f1	-0.008611188
56	0x3c2ebf02	0.010665657
57	0xbc4aaca2	-0.01237026
58	0xbbc949af	-0.006142817
59	0x3a8455f6	0.0010096419
60	0xbc7daada	-0.015482629
61	0xbbe33eba	-0.006934968
62	0xbc8b9946	-0.01704086
63	0xbcb2ba7c	-0.021817438
64	0x3b84a8b9	0.0040484336
65	0x3c823ab3	0.01589713
66	0xbb0f98b2	-0.0021911082
67	0xbc1e114f	-0.009647681
68	0xbba9e1b4	-0.0051843766
69	0x3cb13ff6	0.021636944
70	0xbc30da21	-0.0107941935
71	0x3c456d08	0.012049921
72	0xbba0b076	-0.0049038483
73	0x3be77c04	0.0070643444
74	0x3b1e99e9	0.0024200624
75	0x3c73bfcb	0.01487727
76	0x3b9c88cf	0.004777051
77	0x3c05ccb5	0.008166482
78	0x39a06370	0.00030591665
79	0x3c80c857	0.01572053
80	0x3c119f1f	0.008888035
81	0x3c8080ea	0.015686471
82	0x3a00d4f6	0.0004914546
83	0x3c164306	0.009171253
84	0x3ad377e4	0.0016133753
85	0xbc22d3c1	-0.009938181
86	0x3c02d521	0.007985384
87	0x3cae98f0	0.02131316
88	0xbb02bb0e	-0.001994792
89	0x3ac61d4a	0.001511493
90	0xbc5be386	-0.013420945
91	0x3c0cbcb7	0.008589915
92	0xbcee9e45	-0.029128203
93	0x3aa6bf3d	0.0012721788
94	0xbc8b8d32	-0.0170351
95	0x3c3e96d7	0.011632643
96	0xbb9bead3	-0.004758218
97	0x3c353955	0.011061032
98	0x3b9e67ad	0.0048341365
99	0xbccc0466	-0.024904441
100	0xbb7f5cb4	-0.0038965167
101	0x3cc7fae9	0.024411635
102	0x3c564f48	0.013080426
103	0x3c3d06a6	0.01153723
104	0xbc816230	-0.01579389
105	0xbb3aaadf	-0.0028483195
106	0x3cad0613	0.02112106
107	0x3a6e2eee	0.00090859726
108	0x3c52e5c7	0.012872166
109	0xbb6b6d5d	-0.003592334
110	0x3a513b34	0.0007981539
111	0x3c01d112	0.007923381
112	0xbc05e236	-0.008171609
113	0xbb906e8c	-0.0044077095
114	0xbae08164	-0.0017128405
115	0xbc959310	-0.018258601
116	0x3c034cdb	0.008013929
117	0x3c11620f	0.008873477
118	0xbc276260	-0.0102163255
119	0xbb0cbc5a	-0.002147457
120	0xbc85a640	-0.016314626
121	0xbc941a09	-0.01807882
122	0xbc319033	-0.010837602
123	0xbb689597	-0.0035489553
124	0xbb67f4aa	-0.0035393634
125	0x3ca688d7	0.020328922
126	0xbc0ef7a5	-0.008726035
127	0x3ac4f4ab	0.001502653

fc.1.weight f4 [128, 128]
0	0x3e34c271	0.17652299
1	0x3d8766b4	0.06611386
2	0x3d149358	0.03627333
3	0xbd46580a	-0.048423804
4	0x3d0939bb	0.03350232
5	0x3d8c8880	0.06861973
6	0x3c8db03b	0.017295947
7	0xbd5fb746	-0.054618143
8	0x3dff7b28	0.12474662
9	0x3d214e90	0.039381564
10	0xbd243c92	-0.040096827
11	0x3da5994e	0.08085881
12	0x3c48e416	0.012261411
13	0xbc9c4b3b	-0.019078841
14	0x3d8f8f26	0.07009725
15	0xbd3d7022	-0.046249516
16	0xbcf990d2	-0.030464564
17	0xbd709c33	-0.058742713
18	0x3cb8a9d0	0.02254191
19	0xbe67ee4d	-0.22649498
20	0x3c4aa4c1	0.012368382
21	0xbc819757	-0.015819235
22	0xbd9bbcb9	-0.07604355
23	0x3d53f5c8	0.051748067
24	0x3ddf421c	0.10901281
25	0xbdf23232	-0.1182598
26	0xbc5b62d6	-0.013390264
27	0x3e18c28e	0.14917967
28	0xbda85bcc	-0.08220634
29	0x3ac6a5ff	0.0015155672
30	0xbc17c04f	-0.009262159
31	0xbd1dec25	-0.038555283
32	0x3d1b127f	0.037859436
33	0xbcfd8fdf	-0.030952392
34	0xbd460f2d	-0.048354317
35	0xbd4151bd	-0.047197092
36	0x3dabef82	0.08395292
37	0xbd2e73cf	-0.042590912
38	0xbdd4dd17	-0.10393732
39	0xbd152141	-0.036408667
40	0xbbeece94	-0.0072878096
41	0xbdcd95d5	-0.10038344
42	0xbd29f531	-0.0414936
43	0xbdd7278c	-0.1050559
44	0xbd75fb3e	-0.060054056
45	0x3d18862c	0.03723733
46	0xbe448bd7	-0.1919397
47	0xbd417e3a	-0.04723952
48	0x3cb6db73	0.022321438
49	0xbd63c283	-0.055605423
50	0x3e192880	0.14956856
51	0xbd20e64f	-0.03928214
52	0x3d9aaff9	0.07553095
53	0xbe14dd01	-0.14537431
54	0x3c515f61	0.012779088
55	0xba1efd11	-0.00060649315
56	0x3dbf29da	0.093341544
57	0x3cbfd6fb	0.02341794
58	0xbd0aac1c	-0.033855543
59	0xbcdeaee0	-0.027182996
60	0x3c9b7cfe	0.0189805
61	0x3c89f001	0.016838076
62	0xbe010239	-0.12598504
63	0xbe14c772	-0.14529207
64	0x3d0f8d01	0.03504658
65	0x3ce05207	0.027382864
66	0xbce6cebb	-0.028174749
67	0xbcd56c4e	-0.02605262
68	0x3db399fd	0.08769605
69	0xbd87ac99	-0.06624717
70	0x3c28b7ca	0.010297725
71	0x3e09ba23	0.13449912
72	0xbd8a9e15	-0.06768433
73	0x3cf86a4b	0.030324122
74	0x3cae11ff	0.021248816
75	0x3dd4629d	0.103703715
76	0xbe230bd1	-0.15922476
77	0x3d0022d5	0.03128322
78	0x3b728b7b	0.0037009406
79	0xbe4983ba	-0.19679156
80	0xbcd884c4	-0.026430495
81	0xbe3ae03e	-0.18249604
82	0xb9a4f7f8	-0.0003146527
83	0xbc194e3f	-0.009357034
84	0xbd82698e	-0.06367789
85	0xbc9d4a00	-0.019200325
86	0xbe1622c5	-0.14661701
87	0xbd3e015a	-0.046388008
88	0x3cfb3f21	0.03066975
89	0x3c0b2390	0.0084923655
90	0x3bdad2c0	0.0066779554
91	0x3e9e085e	0.3086576
92	0x3c844a29	0.016148644
93	0xbdc7e542	-0.09760524
94	0xbddfdc22	-0.10930659
95	0xbe3e6739	-0.18594064
96	0x3c0a451d	0.008439329
97	0xbd6451ec	-0.05574219
98	0x3dae43a4	0.08508995
99	0xbce87655	-0.028376738
100	0xbca3ba61	-0.019986333
101	0x3e6ba6f0	0.230129
102	0x3e21b476	0.15791497
103	0x3d657106	0.05601599
104	0xbe0d11cf	-0.13776325
105	0x3dab398e	0.08360587
106	0x3e50f2bf	0.204051
107	0x3d831ffb	0.06402584
108	0xbd2aea34	-0.04172726
109	0xbc5ebdb3	-0.0135950325
110	0xbe0453e5	-0.12922628
111	0xbdce2867	-0.100663
112	0xbd8c01e9	-0.06836302
113	0x3ca97252	0.020684395
114	0x3c4b9f09	0.012428054
115	0x3dc9c325	0.09851674
116	0x3c9f25a1	0.019427123
117	0x3e130ed0	0.1436112
118	0x3c6e6cdb	0.01455232
119	0x3cd37588	0.02581288
120	0xbca20e75	-0.019782284
121	0x3dad98c7	0.084764056
122	0x3d075d79	0.033048127
123	0x3da12203	0.07867815
124	0x3c31ab86	0.010844117
125	0x3d0334e3	0.03203286
126	0x3e32ab64	0.17448193
127	0x3d26c3f0	0.040714204
128	0xba1a6df6	-0.0005891019
129	0xbc898429	-0.016786652
130	0xbd518202	-0.051149376
131	0x3e706670	0.23476577
132	0x3e4bc423	0.19899039
133	0xbd7b2f1d	-0.061324228
134	0x3de309fa	0.11085887
135	0x3e5e1763	0.21688609
136	0xbdc7de6c	-0.097592205
137	0x3d5b2154	0.05349858
138	0x3e8249f1	0.25447038
139	0x3e4c56d8	0.19955003
140	0x3c82ab8a	0.015950937
141	0x3e8de69d	0.27715006
142	0xbe02f367	-0.12788163
143	0x3d9c40a7	0.07629519
144	0x3e7a8a48	0.24466813
145	0xbd93abc3	-0.07210495
146	0x3e0ba25e	0.13636157
147	0xbd4c9cfd	-0.049954403
148	0x3db1b871	0.086777575
149	0xbde6a97c	-0.11262795
150	0x3d919376	0.07108204
151	0x3d22aa7f	0.03971338
152	0x3daf2351	0.08551658
153	0xbc86866a	-0.016421515
154	0x3d612478	0.05496642
155	0xbcfa6679	-0.03056644
156	0xbdf98bf5	-0.12184898
157	0xbd149125	-0.036271233
158	0x3e4858de	0.1956515
159	0x3df50da9	0.11965496
160	0xbe14e247	-0.14539443
161	0x3d20e9ef	0.039285596
162	0xbd70b01e	-0.05876171
163	0xbcc85f28	-0.024459437
164	0xbd0afe37	-0.033933844
165	0x3d860e59	0.06545705
166	0x3ea444f0	0.32083845
167	0xbdafbaf1	-0.08580578
168	0x3db24768	0.08705026
169	0x3d323610	0.04350859
170	0xbc1de5b6	-0.009637287
171	0x3e950315	0.29103914
172	0x3be32096	0.006931375
173	0x3df9fe31	0.12206686
174	0x3db30a6f	0.087422244
175	0x3e9cb758	0.3060863
176	0xbe288024	-0.16455132
177	0x3da84cf2	0.08217801
178	0xbdcc6147	-0.09979492
179	0xbe0075ca	-0.12544933
180	0x3d4cda6a	0.050012983
181	0x3d853c3d	0.0650563
182	0xbe3e7ab7	-0.186015
183	0xbd88fa70	-0.06688392
184	0xbd89be91	-0.06725801
185	0xbd58198e	-0.052758746
186	0x3dcf4595	0.101206936
187	0xbcd9eebe	-0.026603099
188	0x3dd92c08	0.106041014
189	0xbc0f1884	-0.008733872
190	0xbdc2b438	-0.0950703
191	0x3e6797e4	0.22616535
192	0xbc65ec37	-0.014033369
193	0x3e701558	0.23445642
194	0x3dd2fd0c	0.10302171
195	0x3e259499	0.16169967
196	0xbe5d3e7f	-0.21605872
197	0x3e9ba1e6	0.30396956
198	0x3d2bf6b7	0.041983332
199	0xbdc00461	-0.09375835
200	0x3b54be83	0.0032462187
201	0xbe00878c	-0.12551707
202	0xbd81567a	-0.06315322
203	0xbd942328	-0.07233268
204	0xbdfe6531	-0.124216445
205	0xbe4d2c69	-0.20036472
206	0xbd125091	-0.035721365
207	0xbd37f842	-0.04491449
208	0x3ca15daf	0.019697992
209	0x3c01637d	0.007897255
210	0xbe7897fd	-0.24276729
211	0xbbac8871	-0.0052652885
212	0xbdbf48b7	-0.09340041
213	0x3c52db14	0.012869615
214	0x3e8d6465	0.27615657
215	0xbe4a5275	-0.19758017
216	0xb9adecc3	-0.00033173533
217	0x3d35896b	0.044320505
218	0xbc6681cd	-0.014069033
219	0x3c8d0a00	0.017216682
220	0xbe6eb5f4	-0.23311597
221	0x3e45a5f3	0.19301586
222	0x3e149c82	0.14512828
223	0x3c88ef75	0.016715745
224	0xbddedd78	-0.108820856
225	0xbe34ba3e	-0.17649171
226	0xbe0c6f0e	-0.13714239
227	0x3d0ad50e	0.03389459
228	0x3cba1101	0.022713186
229	0x3dec87db	0.1154935
230	0xbd1ad297	-0.03779849
231	0xbc358e5a	-0.011081303
232	0x3e3781b8	0.17920578
233	0xbcf87884	-0.030330904
234	0xbd4d38cd	-0.050102998
235	0xbc3d0470	-0.0115367025
236	0xbe93db58	-0.28878284
237	0x3c5a532a	0.013325492
238	0x3de9b319	0.11411113
239	0x3e1fe1d4	0.1561349
240	0xbde45522	-0.1114905
241	0x3ccf8994	0.025334157
242	0xbc849828	-0.016185835
243	0x3e00f599	0.12593688
244	0xbd02f4b5	-0.031971652
245	0xbe2104f0	-0.1572454
246	0x3c0e2b79	0.008677357
247	0x3d69f365	0.057116885
248	0xbd111ca0	-0.03542769
249	0x3d72e090	0.05929619
250	0xbd0d6965	-0.03452434
251	0xba7f228e	-0.0009732627
252	0x3e6e3b66	0.23264846
253	0x3c09effa	0.008419031
254	0x3e77b65a	0.24190655
255	0x3db8f2ae	0.090306625

fc.1.bias f4 [128]
0	0xbca6cf25	-0.020362446
1	0x3cde504c	0.027137898
2	0x3c7aa918	0.015299104
3	0xbc73351a	-0.014844203
4	0x3ce54945	0.02798904
5	0x3babbf9f	0.005241349
6	0x3c403951	0.011732415
7	0x3d7e04d0	0.06201631
8	0x3cd82a65	0.026387403
9	0xbc2608e5	-0.010133957
10	0x3b76bfa6	0.0037650852
11	0xbba05979	-0.0048934785
12	0x3c1398f4	0.009008635
13	0xbb3b71f1	-0.002860185
14	0x3cdb381c	0.026760153
15	0xbc93e1f2	-0.018052075
16	0x3c964f08	0.018348232
17	0x3c09c0b9	0.008407765
18	0xbca1166d	-0.019664014
19	0xbc4e3a13	-0.012587088
20	0xbca34ab7	-0.019933088
21	0xbb596083	-0.0033169098
22	0xbc44392f	-0.011976524
23	0x3cec15b9	0.028818952
24	0xbbfee9d4	-0.0077793393
25	0xbc8694a8	-0.016428307
26	0xb9b83e56	-0.0003514166
27	0x3b55f395	0.0032646407
28	0x3b22af6c	0.0024823798
29	0xbc367129	-0.011135378
30	0x3cdc030b	0.02685692
31	0xbca202df	-0.01977676
32	0x3ce0f95c	0.027462654
33	0x3c3dda0d	0.011587632
34	0x3c9b07f1	0.018924685
35	0xbc5ea9ff	-0.013590335
36	0xbc3edee0	-0.011649817
37	0x3cea86b4	0.028628685
38	0xbc85b6ca	-0.016322512
39	0xba9ea072	-0.001210226
40	0x3cb06860	0.021534145
41	0x3cdf58aa	0.027263958
42	0xbc7c4a4f	-0.015398576
43	0x3bd71e24	0.0065648723
44	0xbc33449b	-0.01094165
45	0xb97e3258	-0.00024242082
46	0xbb93ff3a	-0.0045165094
47	0x3ce88fd5	0.028388897
48	0xbd7af791	-0.061271254
49	0xbc9e29a7	-0.01930697
50	0xbb250f4a	-0.0025186115
51	0xbca6bee8	-0.020354703
52	0x3d359663	0.044332873
53	0x3c0f0a79	0.008730524
54	0x3ce7db1e	0.028302725
55	0xbcc503e3	-0.024049705
56	0x3c132830	0.008981749
57	0x3cde1a21	0.027112069
58	0x3a28675f	0.0006424095
59	0xbc01e45a	-0.007927978
60	0x3cee3e5d	0.029082472
61	0x3cefc5e0	0.029269159
62	0x3c66aa6a	0.014078716
63	0xbc0939c6	-0.008375591
64	0x3b1fb64a	0.0024370127
65	0x3cce80f6	0.025207978
66	0xbc8517f3	-0.016246771
67	0x3b76f2d5	0.003768136
68	0xbc19b49d	-0.0093814405
69	0x3cdf7b9a	0.027280618
70	0x3cecb1f0	0.028893441
71	0xbd032886	-0.032021068
72	0xbc376d0f	-0.011195435
73	0xbd3fa2fb	-0.04678629
74	0xbd0584e7	-0.03259745
75	0x3ce82294	0.0283368
76	0xbc84bdc1	-0.016203763
77	0x3ad3339a	0.0016113401
78	0xbc745a08	-0.014914043
79	0xbc35b765	-0.011091088
80	0xbc9294ec	-0.017893277
81	0xbcce9a94	-0.025220193
82	0x3ce98ac0	0.028508544
83	0x3cd1f744	0.0256306
84	0x3c537e0e	0.012908472
85	0x3cef3b9c	0.029203229
86	0xbc038ffc	-0.008029934
87	0xbb5f27e3	-0.0034050874
88	0xbca70354	-0.02038733
89	0xbccf2f49	-0.025291102
90	0x3beb3ecc	0.007179117
91	0xbcb90700	-0.022586346
92	0x3cb8f621	0.0225783
93	0x3ce13c2e	0.027494516
94	0x3c51c4da	0.012803281
95	0xbc9c1a1e	-0.019055422
96	0x3cea480f	0.028598813
97	0x3c1fc034	0.009750415
98	0xbcc9cb64	-0.024633117
99	0xbbddc5e4	-0.006767975
100	0xbca5ea11	-0.020253213
101	0xb9a4fe11	-0.00031469812
102	0xbada6b4c	-0.0016664057
103	0xbc75861c	-0.014985587
104	0x3c0ce9e0	0.008600682
105	0xbc527df8	-0.012847416
106	0xbc4db5af	-0.012555524
107	0xbc602075	-0.013679613
108	0x3c5b684f	0.013391568
109	0xbc200f0e	-0.009769214
110	0x3ce445c0	0.02786529
111	0x3ce2bf1d	0.02767902
112	0xbc4a9ec4	-0.012366954
113	0x3cd92430	0.026506513
114	0x3c971785	0.018443832
115	0xbbf2a153	-0.0074044853
116	0x3cd76353	0.026292479
117	0xbc08f408	-0.008358963
118	0x3ce107ea	0.027469594
119	0xbcaddf40	-0.021224618
120	0x3caf60f4	0.021408536
121	0x3ceafcfd	0.028685087
122	0x3ce8e2e1	0.028428497
123	0xbcb45b71	-0.022016259
124	0xbcec039c	-0.028810315
125	0x3b7d253d	0.0038626932
126	0xbcb4d8a4	-0.022075959
127	0xbc75a2c1	-0.014992417

fc.2.weight f4 [1, 128]
0	0xbda0ef05	-0.07858089
1	0x3e856d5c	0.26059997
2	0xbe0ed075	-0.13946708
3	0xbe202786	-0.15640077
4	0x3ebb54a9	0.36588028
5	0xbe2bfc68	-0.16795504
6	0x3e255768	0.16146624
7	0x3e12eef9	0.14348973
8	0x3e3ecedf	0.18633603
9	0xbdfea8b9	-0.12434525
10	0xbe4d5e4f	-0.20055507
11	0x3e8bb74e	0.27288288
12	0xbe496267	-0.19666444
13	0xbe538b67	-0.20658647
14	0x3e5dcbf8	0.21659839
15	0xbe971db6	-0.29514855
16	0x3e00e1e7	0.12586175
17	0x3da0fd24	0.07860783
18	0xbe5c5f93	-0.21520834
19	0xbd430e00	-0.047620773
20	0xbe0df41b	-0.1386265
21	0x3e835dec	0.25657594
22	0xbe067b84	-0.13133055
23	0x3e82dc4e	0.25558704
24	0xbe2d8c4c	-0.1694805
25	0xbe4244d9	-0.18971576
26	0x3b4eb9d8	0.0031543877
27	0xbd9e712b	-0.07736429
28	0xbe074b6f	-0.1321237
29	0xbe3432fa	-0.17597571
30	0x3e29ae3b	0.1657037
31	0xbe72c8cf	-0.23709415
32	0x3dda33d2	0.10654415
33	0xbe3feef9	-0.18743505
34	0xbe9973f7	-0.29971287
35	0xbe08367d	-0.13302036
36	0xbe15d5a3	-0.14632277
37	0x3eb26329	0.34841278
38	0xbe69cd3b	-0.22832195
39	0xbe63fe38	-0.22264946
40	0x3dc62356	0.096747085
41	0x3e572502	0.21010211
42	0xbe2fc179	-0.17163648
43	0x3e851de8	0.2599938
44	0xbe12a4a0	-0.14320612
45	0x3dd6b0dc	0.10482952
46	0x3d3043c5	0.04303338
47	0x3ea3c47b	0.3198584
48	0xbe3496b5	-0.17635615
49	0xbde0d1a0	-0.10977483
50	0x3d2a57ff	0.041587826
51	0x3a8d442b	0.0010777762
52	0x3e5f21bd	0.21790214
53	0x3e7c21cb	0.24622266
54	0x3e47c462	0.19508508
55	0xbe8354cc	-0.25650632
56	0x3e9ce426	0.30642813
57	0x3e58c2d5	0.21168073
58	0x3e8c86f4	0.2744671
59	0x3e06e444	0.13173014
60	0x3eaf1cad	0.34201565
61	0x3e9d4ab6	0.30721062
62	0xbe45ea41	-0.19327642
63	0xbe0da409	-0.13832106
64	0x3e67f331	0.22651364
65	0x3e8b7123	0.27234754
66	0xbe040cc2	-0.12895492
67	0xbe56608f	-0.20935272
68	0xbe080b6f	-0.13285612
69	0x3e2340b7	0.15942656
70	0x3e80b411	0.2513738
71	0xbe771c28	-0.24131835
72	0xbe0ce224	-0.13758141
73	0xbe03b7f3	-0.1286314
74	0xbc93db70	-0.018048972
75	0x3e3ead88	0.18620884
76	0xbe10b3e4	-0.14131123
77	0xbd8b77ce	-0.0680996
78	0xbe31a20f	-0.17346977
79	0xbebcab77	-0.36849567
80	0xbe2b13e7	-0.16706811
81	0xbe558320	-0.20850801
82	0x3edfe39e	0.43728346
83	0x3da61043	0.081085704
84	0x3dae87a1	0.08521963
85	0x3df34f51	0.11880363
86	0xbe5bb787	-0.21456729
87	0xbdd65ac7	-0.10466533
88	0xbe5b1b60	-0.21397161
89	0xbed6d9df	-0.41963097
90	0xbea8700c	-0.32897985
91	0xbe9e6b07	-0.3094103
92	0x3d942d1c	0.072351664
93	0x3eccc540	0.3999424
94	0x3e3be1a7	0.18347798
95	0xbe45f143	-0.19330315
96	0x3e96ecdd	0.29477587
97	0x3dc0d64d	0.09415875
98	0xbedcb5af	-0.43107364
99	0xbe1bc098	-0.15210187
100	0xbd7f211f	-0.062287446
101	0xbebde817	-0.37091133
102	0xbe59249c	-0.21205372
103	0xbddc0335	-0.10742799
104	0x3e2c4291	0.16822268
105	0xbe1a5779	-0.1507243
106	0xbe8dddee	-0.2770838
107	0xbde59f5c	-0.11212036
108	0x3d89eef5	0.067350306
109	0xbe94ed7f	-0.29087445
110	0x3e903590	0.28165865
111	0x3ddb9ae9	0.10722906
112	0xbdfe4b82	-0.12416746
113	0x3e57ff9a	0.21093598
114	0x3e19507e	0.14972112
115	0xbe7e3f6f	-0.24828885
116	0x3d5e30ba	0.054245688
117	0xbddcac38	-0.107750356
118	0x3d938b1c	0.072042674
119	0xbe9d9485	-0.30777374
120	0x3e27bdac	0.16380948
121	0x3e021a57	0.1270536
122	0x3e865e82	0.2624398
123	0xbe92260f	-0.2854466
124	0xbdbc3c43	-0.091911815
125	0xbea10253	-0.31447086
126	0xbea7dffc	-0.32788074
127	0xbe33325d	-0.17499681
