data/pour_red_pose_uc.pt (torch_old, 85005 bytes, 5 tensors)

fc.0.weight f4 [128, 9]
00000000: c4d9 edb9 ab37 8a3e 72db c6be dcb2 5eba
00000010: 8e4a 2a3f 6151 e03e ab50 123f f74c 4dbe
00000020: 3194 21bf 1701 bebe 14af 893e f2e5 06bf
00000030: f0a3 b23d b0e7 b63e b67d 353f e50a d23e
00000040: ba63 8ebe e949 a3be 1a6a 0b3e 0d72 a63e
00000050: ca97 0d3e 3548 0d3d bd16 8fbe 1ab8 69bd
00000060: a234 26be 3851 963e ecab 053e 41a0 3d3e
00000070: ba01 dfbe ba6a e7bd fa6f 85bc 04d9 aebd
00000080: 1f0c b7be ca82 fd3d 00cb 593e 3c3f 023e
00000090: 2b85 43be 7d70 5f3d 33f6 0abf 5734 77bd
000000a0: 7fb2 d13e 7304 253f afee cb3e 7993 afbe
000000b0: 0c9b 2ebf 99f6 7a3e d8ab 0abe 6cde 32bc
000000c0: 2629 a3be 41d2 d6be 02a9 ecbe 6374 c33e
000000d0: 943f 7a3e 41ea 03be 2c8d 14bd 7773 1dbd
000000e0: 4e98 debe 86bf 923e 964b 393f 677a bb3e
000000f0: 1ff1 d13e 7e6e 23be 51d8 e3be 2f4f 84be
00000100: bebc ba3e 28fd fdbe ccf1 5a3e baac a13e
00000110: 8c3a 053f 5f28 a93e 8129 46be 739b efbe
00000120: 89c6 b3be f3a6 ce3e d8c0 d0be c15e af3e
00000130: 2dc5 113f 4a23 d73e 3d5d 8e3e 29f4 3fbe
00000140: da6e 90be c21c cdbe 0857 853e 560d c9be
00000150: 117c 6e3e 3240 e13e a9cb 103f cbce ea3e
00000160: 5688 c4be 4654 ecbd 5de2 e33e 3904 cabe
00000170: a2c5 28be 3828 e0bd 84c6 bdbd 47e5 9fbe
00000180: 7f50 9abd 4062 5e3e bad5 7fbe dfc0 903e
00000190: 616b fabe 8d60 35be 261e 91be a1df 95bc
000001a0: 72af babe 5348 d13d 505c 913e 32fc 7a3e
000001b0: 7deb 83be bf3e 77bc 69ef 16bf 80bb 9b3e
000001c0: 8483 153f d517 6a3e bf68 c13e 7185 0cbf
000001d0: 8715 1ebd 28e9 d5be c9f1 9b3e 4050 dcbe
000001e0: db77 113e 079a ca3e 91ed 1a3e 9e4d f23e
000001f0: 43ed 4cbe 1a1f eabe d338 1bbd 9835 01be
00000200: ae5e 8e3d 8c99 80be 8e69 68be f7f0 1fbf
00000210: e188 823e c3d0 073e a943 e53d 91f4 bebe
00000220: fa6f 243e ee3f 8ebe 7364 f23e fb77 c33e
00000230: 4504 223d 29f3 413e b0a3 43be 44c0 05bf
00000240: 478c 633e 55e5 5bbd e598 45be c310 d6be
00000250: 380c 60be 3692 dabe b4f6 c73d c294 413e
00000260: ef03 36bc 65e1 083f bb70 d6bc 5e3d ca3e
00000270: 5444 4b3d 2f08 c6be f2cc 7abe e4a4 09bf
00000280: b0c1 8e3e 9d46 ad3e 1440 fd3e 92fb d8be
00000290: ff78 c8be 2b13 c6be d9b4 08be ae21 1fbe
000002a0: 4def 9abd 324e b63e 87a3 eebd 322b b03d
000002b0: 497d c9bd ecd8 803d 5109 01be cb01 ebbd
000002c0: ad2d d7be 7a8c fd3d 28a7 b8bd 9306 9cbc
000002d0: 6603 03bf 8ea4 853e 228f b4be fb32 773e
000002e0: 326e 823e 05b1 e23e ef9e 003f 0a63 02be
000002f0: 0751 8dbe f862 bcbe afb3 463f 6d79 03bf
00000300: 4006 cb3e bf50 9e3e 82b8 a03e 9fc6 eb3e
00000310: 16c3 48be 8498 a2be 5568 a8be 2a37 ac3e
00000320: 7c76 b2be 6b7f 823d e1d7 f03e 553e 0a3f
00000330: 0eba 093f d834 a9be ccfa 85be 0bba 07bf
00000340: 08ce ad3e 8cf7 5bbf 21dd e43d 6374 1f3f
00000350: 3035 ec3e a275 f03e 7b1a 6abe 4fdc 9cbe
00000360: 0675 363f 64f1 b03c 59f3 cc3e a6e4 443e
00000370: 8261 afbe aa4f c1be ab38 b0be 8555 813e
00000380: 74b9 573e 9abe 2b3e b9a2 9fbe 9589 25be
00000390: b73a 52be 09a6 18bd 4517 e1be a1ec fbbd
000003a0: 93af 1c3e 7b52 f13c 2e4c 0cbf e737 153e
000003b0: 68a1 9abe ec89 8c3e 06ac d73e 4728 de3e
000003c0: c9b5 403e bc05 12be 973d cebe 52ae 90be
000003d0: 2e04 973e b774 10bf 1e01 293c a680 573f
000003e0: 8cd7 a23e 0453 683e e2fb 323e 18f5 09bf
000003f0: bacf 9a3e 5142 8cbe aeef 26bc a5cc 19be
-0.0004536641 0.26995596 -0.38839298 -0.000849528 0.6652001 0.43812087 0.5715434 -0.20048891
-0.6311675 -0.37110206 0.26891387 -0.5269462 0.08722675 0.3572364 0.70894945 0.41023937
-0.2781046 -0.31892326 0.13614693 0.3250889 0.13827434 0.03449269 -0.27947035 -0.05706034
-0.16231015 0.2935884 0.13053864 0.18518163 -0.43556005 -0.11299653 -0.016288746 -0.08537486
-0.35751435 0.12378462 0.21268845 0.12719434 -0.19093768 0.054550637 -0.5428192 -0.06035265
0.40956494 0.64459914 0.3983054 -0.342922 -0.6820533 0.24508132 -0.13542116 -0.010917287
-0.3186733 -0.41957286 -0.46222693 0.38174734 0.24438316 -0.1288233 -0.036267444 -0.038440194
-0.43475574 0.28661746 0.7238096 0.36616823 0.41004273 -0.15960118 -0.44500974 -0.25841662
0.36472124 -0.49607205 0.213813 0.31577092 0.5204246 0.33038613 -0.1935177 -0.46798286
-0.35112408 0.40361747 -0.40772128 0.3425198 0.5694149 0.4201911 0.2780551 -0.18745483
-0.28209573 -0.40061003 0.26042962 -0.39267987 0.23289515 0.4399429 0.5656076 0.45860896
-0.38385266 -0.115395114 0.4450864 -0.39456347 -0.16481641 -0.10945171 -0.092663795 -0.31229612
-0.07534885 0.21717167 -0.24983874 0.2827215 -0.4891005 -0.17712612 -0.28343314 -0.018295111
-0.3646198 0.10218873 0.2839074 0.24510267 -0.257656 -0.015090643 -0.5895906 0.3041649
0.584038 0.22860654 0.37775227 -0.54891115 -0.03859475 -0.41779447 0.30457905 -0.43029976
0.14205877 0.3957064 0.15129687 0.47324842 -0.20012383 -0.45726854 -0.03789599 -0.126181
0.069516525 -0.25117147 -0.22696516 -0.6247706 0.25495055 0.1326323 0.11194546 -0.37295964
0.1605834 -0.2778315 0.47342262 0.38177475 0.039554853 0.18940414 -0.1910541 -0.522465
0.2222148 -0.053685505 -0.19296606 -0.41809663 -0.21879661 -0.42689675 0.09763852 0.18904403
-0.011109336 0.53468925 -0.026176801 0.39499944 0.04962571 -0.3867812 -0.24492243 -0.5376723
0.27882147 0.33842936 0.4946295 -0.42379433 -0.39154813 -0.386865 -0.13350238 -0.15540192
-0.07565174 0.35606533 -0.11652284 0.08601989 -0.09838349 0.062913746 -0.1260121 -0.11474951
-0.42027035 0.123803094 -0.090162575 -0.019046104 -0.5117706 0.26102108 -0.35265452 0.24140541
0.25474697 0.4427568 0.50242513 -0.12733093 -0.2760088 -0.36794257 0.77617925 -0.51357156
0.39653206 0.3092098 0.31390768 0.46049973 -0.1960567 -0.31756985 -0.328921 0.33635837
-0.3485602 0.06371959 0.47039703 0.5400136 0.5379952 -0.3304813 -0.26167905 -0.53018254
0.33946252 -0.859246 0.111749895 0.6228697 0.4613433 0.46964747 -0.22861664 -0.30636832
0.71272314 0.021599479 0.4002941 0.19227847 -0.3425408 -0.3775609 -0.34418234 0.2526056
0.21066839 0.16771927 -0.31178835 -0.16165765 -0.2053021 -0.03726772 -0.43963066 -0.12300993
0.15301351 0.029458275 -0.5480374 0.14572106 -0.30201268 0.27448976 0.4212343 0.43390104
0.18819346 -0.1426 -0.40281364 -0.28257996 0.29495376 -0.5642809 0.010315208 0.84180677
0.31805074 0.22687918 0.17478898 -0.5388961 0.30236608 -0.27394345 -0.01018898 -0.15019472

fc.0.bias f4 [128]
00000000: a529 cc3e d07d c33e 93b8 91bd 6bce 983c
00000010: 62dd c33e a33f bf3d 63b5 c23e 1d87 b23e
00000020: 25e6 c33e 1352 c33e 1bb7 293d 5127 483c
00000030: 522d cc3e e81d c93e dcfa 293d 5831 b73e
00000040: 1f11 183d a0dc c8be a06e 73bb f788 cb3b
00000050: 6666 b83e 2a46 c83e 675a ba3e 88b4 c83e
00000060: 6b1f a7be d729 d33c 78c4 ba3e a13e c23e
00000070: cd9e 883d c704 c43e 7e97 b93e 4255 cb3e
00000080: 7607 b83e 9762 c73e 02a5 8c3d 56a5 76be
00000090: b29b 9d3e b9ce babe 23e6 c63e 20e2 403d
000000a0: 77a6 eb3c 07f8 ca3e 26b2 603e a595 c73e
000000b0: b472 bd3e 665a bc3e 4b00 2a3c 7276 243d
000000c0: 5f1c 81be 296e 03be 5950 c63e b155 bf3e
000000d0: cc3a a83e 7abd 34be 4ce3 943d 70a3 c23e
000000e0: 3ce5 53bd f78f cb3e 5f3b 353d 06ad b9be
000000f0: d903 ba3e e436 c33e a325 d03e 0a93 bd3e
00000100: d44c c43e 05e5 833d a2e2 073d 35f4 963e
00000110: 509f bc3e 1401 c7be d8a4 223d ac1f ca3e
00000120: f584 ccbe 2869 c13e 11f3 c0be 2aea bbbe
00000130: 8fc0 c1be 70e0 a63e a2ad be3e a0fb b23e
00000140: 3396 bf3e 5b54 adbe dbe8 c83e 31f5 b73e
00000150: d13e a73e 4be6 b33e 4e29 c33e 15e7 be3e
00000160: 4a46 cabe 20e8 1c3d 3e67 c9be df14 f33b
00000170: 3556 fd3d 50bf 953a eba6 b43e a06f ca3e
00000180: 577d 96be acdc b83e 8d8f c6be 8c19 be3e
00000190: 30aa 7ebe 86a1 453d f045 c2be 13b2 6a3e
000001a0: f90f bf3e 8905 bd3e 9628 b23c 3ef7 c6be
000001b0: a51c cabe 61a6 cb3e b0e2 c9be cd60 ca3e
000001c0: bdc3 bdbe fc4e 34be c477 02bd 24de c3be
000001d0: 4d69 c73e e72e c03c 1ac4 d03e d191 933d
000001e0: fb59 ca3e 0631 0d3d fd14 bb3d c6ae c8be
000001f0: eb86 c1be ad8b c13e aeb5 ca3e 22d0 bc3e
0.39875522 0.38181925 -0.07115283 0.018653115 0.3825484 0.093383096 0.38029012 0.34868708
0.38261524 0.38148555 0.04143439 0.012216405 0.39878327 0.3928063 0.041499004 0.35779834
0.037125703 -0.39230824 -0.0037144795 0.006211396 0.36015624 0.3911603 0.36397097 0.39200234
-0.32641158 0.025776787 0.3647802 0.37938407 0.06670914 0.38284895 0.36248392 0.39713484
0.35943192 0.38942406 0.0686741 -0.24086508 0.3078285 -0.36485842 0.38847455 0.04709065
0.0287659 0.39642355 0.21942958 0.38981357 0.37001574 0.3678772 0.010376046 0.04015202
-0.25216958 -0.12834992 0.38733175 0.37370065 0.32857358 -0.17650405 0.07269916 0.38015318
-0.051732287 0.39758274 0.044246074 -0.3626482 0.3633106 0.38127816 0.40653715 0.37026244
0.38339865 0.064401664 0.03317512 0.2948319 0.36840296 -0.3886801 0.03970799 0.3947729
-0.39945188 0.3777554 -0.37685445 -0.3670209 -0.37842223 0.32593107 0.37241846 0.349576
0.3741928 -0.3385342 0.39240155 0.35929254 0.32665113 0.35136637 0.3811745 0.37285677
-0.3950675 0.03830731 -0.3933658 0.0074182595 0.12369958 0.0011424813 0.35283598 0.39538288
-0.29392502 0.3610586 -0.38781396 0.37128866 -0.24869609 0.048249744 -0.37943983 0.22919492
0.37316874 0.36918285 0.021747869 -0.38860506 -0.3947498 0.39775375 -0.3943076 0.39526978
-0.370634 -0.17608255 -0.0318525 -0.38255417 0.38947526 0.023459865 0.40774614 0.07205547
0.39521775 0.03447058 0.091348626 -0.39195842 -0.37798247 0.37801877 0.39591736 0.36877543

fc.1.weight f4 [128, 128]
00000000: c9df ab3e b24b b53e 372b c9bd 9215 8bbe
00000010: 82aa 223f 6191 91be ca7e 843e 4972 1a3f
00000020: 2be7 f73e a2be d33e 4d1b c3be edd0 4fbe
00000030: f4db ae3e b164 df3e d8f2 abbe 16b6 ca3e
00000040: bb86 03bf 8cdb 1abf 063b 96be 6059 a7be
00000050: 4299 ed3e 5f2a b33e 720d 023f 9972 b13e
00000060: 85a4 98be 8941 8fbe 353f a23e 74bc 023f
00000070: d27d cabe c1dd d73e f475 a03e 1ffc c63e
00000080: 6076 713e 9a53 813e 37d8 9bbe 53f6 ccbe
00000090: 3380 f43e c7f2 cfbe c55e b63e a416 57be
000000a0: f94a c8be feb2 b43e 2483 8b3e f389 e03e
000000b0: efd3 a73e 4ce0 0c3f f559 01bf 2773 eabe
000000c0: eca4 78be 4dac adbe 56fa aa3e 2122 003f
000000d0: 4707 db3e a51a debe 9c5c 8bbe 5af2 e53e
000000e0: add4 a8be b858 a63e 1bf3 c5be 3804 10bf
000000f0: 37b5 453e d108 993e 1226 023f 2f47 e13e
00000100: 61de 873e e752 91be f964 7bbe 5c42 913e
00000110: 672c c23e 948d d4be 2e63 f4be 6ba3 f73e
00000120: ad68 7bbe 298c f93e 6e40 9abe 1081 58be
00000130: 1471 9cbe e072 e93e 51aa cb3e 2ac6 8e3e
00000140: d3d1 053f 76f9 d9be 4fbc ea3e 66c3 6e3e
00000150: 459c 463e 957a 843e 740b e23e 927b 8f3e
00000160: 0a07 58be 3bd9 09bf b663 75be 8549 b0be
00000170: a6d9 2abf b99b adbe a937 213e 022c c93e
00000180: d984 aabe fb8f 0c3f 9c43 d5be b5e6 473e
00000190: 5d85 d6be ae4f 9bbe c440 d3be 68dc 903c
000001a0: 253e c53e b694 813e c8ea a8be 9e2e d7be
000001b0: e4a8 a0be a8b8 bb3e ac04 89be 13df 993e
000001c0: 8a84 17bf 5be2 91be 4e06 cb3c 7908 38bf
000001d0: e32a fa3e bbf5 89be 0280 c53e ac59 83be
000001e0: 6667 2c3f 5e5f c3be 883b a0be 1f59 58be
000001f0: f7fa 82be d73b 0a3f 85bf e43e 69ae ec3e
00000200: 7c74 06bd 45ee 9fbc 66a3 a23c 5726 283e
00000210: 9f26 e73d 1f6d 0b3f 0009 293e 4774 b2bd
00000220: 4c66 c93d 1f81 2bbe 1fe1 c13e e4ed a63d
00000230: 339f 223e bde7 a63e ae0c ae3e c36d 7b3c
00000240: 25eb d53e 164a 3cbe 81ec 8b3e bf29 123e
00000250: 001d 4139 d1e6 babd f9df 563d 1ef5 383d
00000260: 29cd 6ebe 9de2 e93e 5785 853d 5304 01be
00000270: e555 d03e 4750 1a3d 2f75 823d 8ae8 ce3d
00000280: 4da0 cb3d a390 b43d ca6f ac3e c3ad 033e
00000290: 2d41 863d c458 80bd 3299 8f3c ad2e f53d
000002a0: 92c6 453e 12df ae3d b31c 91bc 4841 563d
000002b0: 9b3a 2abe e131 4e3e ce63 f73d 91a0 863e
000002c0: a0dc 2bbe e910 e43b 94de cfbd 3775 ce3c
000002d0: 90cc d8be ac31 d13d c64b 923e 537d 33bd
000002e0: 8986 cc3e ad2c 31bc 6406 8f3e bae6 87be
000002f0: 5026 60be 932b 203e 16f2 d1bc 8ccf cfbd
00000300: bb8c 1ebe 34d0 ab3e 2666 ce3e 84b9 cbbd
00000310: 6891 80bd 8fca 2abd 5f4f c93e 50dc 78bd
00000320: 3833 4e3d 9591 243d 02a1 d5bc 4308 c0bd
00000330: dede 20be 299f f9b9 0ef9 453e a28b d8bd
00000340: d469 633e f807 91be f87c 2e3e 5d9e 52be
00000350: c0db 2abe 635d 7bbc 1364 c5bd 45ac 763d
00000360: 0265 f53d 7cbe 2a3f 2638 703d 2815 ad3e
00000370: fb0c e93e b858 9b3e 4e9b d13d 344d 403b
00000380: cdd9 65bd 4778 c4bd d438 11be 93cb 61be
00000390: 311b d6bd b1e5 973e cf98 dabd 411a 95be
000003a0: 619d 19be 5236 5cbe f47d d73e 49a2 e9bd
000003b0: 1141 623d 26e7 293e cc76 163e eba0 833b
000003c0: a49e c6bd 71af 8b3d 90cf 7cbe 60c2 bfbd
000003d0: 4bc5 e2bd 46c1 c03e 533b f5bd b42a 8e3e
000003e0: 1946 cb3c 1892 c73e 8008 e13e 57e3 07be
000003f0: eef3 90bd fe0b ee3d b209 0b3e 8f92 9bbe
0.33569172 0.35409313 -0.09822696 -0.27164894 0.63541424 -0.28431228 0.25877982 0.60330635
0.48418555 0.4135638 -0.38106766 -0.20294543 0.34152186 0.4363151 -0.33583713 0.39592046
-0.5137746 -0.6049125 -0.29341906 -0.32685375 0.4640599 0.34993264 0.50801766 0.34657744
-0.29813018 -0.27979687 0.31688848 0.51068807 -0.39549118 0.42161372 0.3133999 0.38864228
0.23580313 0.25259095 -0.30438396 -0.4003168 0.47754058 -0.40614912 0.35619178 -0.2100473
-0.391197 0.3529281 0.2724849 0.43855247 0.3277888 0.5502975 -0.5052789 -0.4579098
-0.24281663 -0.33920518 0.33394116 0.50052077 0.4277899 -0.43379703 -0.27219093 0.44911462
-0.3297476 0.32489562 -0.38662037 -0.5625644 0.19307409 0.2988954 0.5083934 0.4399962
0.2653685 -0.28383562 -0.24550237 0.2837094 0.379245 -0.41514266 -0.47731918 0.48366866
-0.2455165 0.48739746 -0.3012728 -0.21142983 -0.30555022 0.45595455 0.3977838 0.27885562
0.5227329 -0.42573136 0.45846793 0.23316726 0.1939555 0.25874773 0.44149363 0.28023964
-0.21096435 -0.5384709 -0.23963818 -0.3443109 -0.66738355 -0.3390787 0.15743889 0.39291388
-0.3330448 0.54907197 -0.41653144 0.19521601 -0.41898623 -0.30334228 -0.4126035 0.017683223
0.38523975 0.2530877 -0.32991624 -0.42027754 -0.31378853 0.3666432 -0.26761377 0.30053005
-0.59186614 -0.28493008 0.02478328 -0.7188793 0.48860845 -0.2694529 0.38574225 -0.25654352
0.67345273 -0.38158697 -0.3129542 -0.21127747 -0.25582096 0.5399756 0.44677368 0.46226814
-0.032825932 -0.019522795 0.019853305 0.16420875 0.11286663 0.5446338 0.1650734 -0.087135844
0.09833965 -0.16748475 0.37867066 0.08150843 0.15881042 0.32598677 0.3399405 0.015345993
0.41780964 -0.18387637 0.27328876 0.14273737 0.00018416718 -0.09126056 0.05245969 0.045155637
-0.2332045 0.45680705 0.06519573 -0.12599306 0.40690532 0.037674215 0.06370007 0.10102947
0.09942684 0.0881665 0.33679038 0.12859254 0.065554 -0.06266931 0.017529104 0.11971793
0.1931403 0.08538641 -0.01771388 0.05230835 -0.16623919 0.20136215 0.12079583 0.26294377
-0.1678338 0.0069600237 -0.10149875 0.025202377 -0.4234357 0.10214552 0.28573436 -0.04382069
0.39946392 -0.010813874 0.27934563 -0.26543218 -0.21889615 0.15641622 -0.02562813 -0.10147008
-0.15483372 0.33557284 0.40312308 -0.09947494 -0.06277734 -0.04169708 0.39318368 -0.06075698
0.050341815 0.0401779 -0.026077751 -0.09376576 -0.15710017 -0.00047611565 0.19333288 -0.10573508
0.22208339 -0.28326392 0.1703986 -0.20568223 -0.1668539 -0.015342089 -0.09638228 0.060222883
0.11982156 0.66696906 0.058647297 0.33805203 0.45517716 0.30341125 0.102347 0.0029342892
-0.056115914 -0.095932536 -0.14181834 -0.22050314 -0.10454405 0.29667428 -0.10673677 -0.29121593
-0.15001442 -0.21505097 0.42088282 -0.114079066 0.055237833 0.16592082 0.14693755 0.0040169857
-0.09698227 0.06820572 -0.24688554 -0.09363246 -0.11072787 0.37647456 -0.11974206 0.27766955
0.024813699 0.38978648 0.43951797 -0.13270317 -0.07077776 0.11623381 0.13577917 -0.30385253

fc.1.bias f4 [128]
00000000: f66e a23e f693 a53d 9228 583d a390 a23e
00000010: 97ee ab3e 25dc 8d3e 587c 903e d35f b5bc
00000020: 5d2a 823e ecb0 cc3d 4563 a73e 3aa3 9f3e
00000030: 16c4 aabe c2e0 873e bf8b 613e 8a12 993e
00000040: cf93 a03d 6a35 9e3d 2db4 b03e 9b5b 623e
00000050: a4db 8ebe 3930 bf3d 2775 ad3d e9fd a33e
00000060: c928 6f3e 0838 b73d 5976 af3e 6eef a93e
00000070: a663 893e 7a99 b0be 0adc 973e e50f 8f3d
00000080: a064 a43e 7951 393d 40b5 9bbe 9f4a 933e
00000090: 9598 b23e 281b 9bbe ecc6 943d 62a3 9bbe
000000a0: 1f51 a53b 1573 a83e 86a0 e73d 7d21 963d
000000b0: 95aa 9c3e f12f 413e e3d6 663e 157a 593d
000000c0: 005e ac3e 2764 9d3e adab bb3d 787d a83e
000000d0: 8c28 a23e acc5 573e bad2 d63d 1c33 9f3e
000000e0: 3a1f 653e 1f00 a4be 1b8d 863d 0a5e 4c3d
000000f0: cb91 b1be 45d9 a13e 64ca 6c3d 6517 773e
00000100: 9532 a23e ac3f a93e 06f8 a13e d572 b0be
00000110: 7dc0 b23e e26e a43e 4877 9f3e 9f82 943d
00000120: 97de a83e fa53 953e 0f75 eabc abbf b13e
00000130: b6c8 953e 490e 5f3d 2b74 a23e d806 293d
00000140: 3cdd a13e 0d92 923e 0dc8 913e 2f3d c43d
00000150: e44a 633d 39ba 98be b512 b43e 0155 ba3d
00000160: 696c 9e3e 4b44 983e ed0c a6be 6520 933e
00000170: 1ead a93e 4617 9cbe 8573 943d acf2 7b3d
00000180: cb33 b73e a08f b03e 0e7f 463e 21be 78be
00000190: 4d04 f13d 6b45 d13d f9f0 ad3e 7aab 7b3d
000001a0: b157 953e 1d1c 923d c686 8b3e 0b4a c43d
000001b0: 644d 883d 8217 a8be 51e3 ab3e 211a 7f3d
000001c0: a01a 993e a96e 8b3e dad1 dc3d acad 9d3e
000001d0: e253 a83d 3dcf 993e 3b78 883e d9e9 ac3e
000001e0: e956 16bd 3f9b 96be 21fd fcbd c2b0 a53e
000001f0: 5587 8c3e a355 d03d 81c1 883e ee07 a33e
0.3172528 0.08084862 0.052773066 0.31750974 0.33580467 0.2770702 0.28219867 -0.02214042
0.25422946 0.09994683 0.32692924 0.3117922 -0.33352727 0.26538664 0.22025965 0.29896957
0.07840692 0.07725032 0.34512463 0.22105257 -0.27901947 0.093353696 0.08469611 0.32029656
0.23355402 0.08946234 0.3426998 0.33190483 0.26833838 -0.34492093 0.29660064 0.069854535
0.3210802 0.045243714 -0.3041172 0.2876787 0.34882036 -0.30294156 0.07264504 -0.3039809
0.005045071 0.329003 0.11309914 0.07330606 0.30598894 0.18865944 0.2254291 0.053094942
0.33665466 0.30740473 0.09163604 0.32908225 0.3167156 0.210715 0.10489412 0.3109368
0.22375193 -0.32031342 0.065698825 0.04989437 -0.34681544 0.31611076 0.057810202 0.24130018
0.31679216 0.3305639 0.3163454 -0.3446261 0.34912482 0.32115847 0.31145692 0.072514765
0.32982323 0.29165632 -0.028620271 0.34716544 0.29254693 0.054456983 0.31729254 0.041266292
0.316141 0.28627053 0.2847294 0.09581982 0.055491343 -0.29829577 0.35170522 0.090982445
0.30942085 0.29739603 -0.32431737 0.28735653 0.3313989 -0.30486506 0.07248596 0.061510727
0.35781702 0.34484577 0.19384405 -0.24291278 0.117683984 0.102183186 0.3397291 0.06144283
0.29168466 0.071342684 0.2725126 0.09584435 0.06655386 -0.32830435 0.33571866 0.062280778
0.29903126 0.27232864 0.107822135 0.30796564 0.082191244 0.30040923 0.2665423 0.33772162
-0.036703978 -0.29415318 -0.12352968 0.32361418 0.27447 0.10172584 0.26710132 0.31841987

fc.2.weight f4 [1, 128]
00000000: b9b2 043f fa1b 0abf babb d2be 2214 f83e
00000010: 1d26 e23e cf79 ce3e 3a4a 253f 39e4 2dbe
00000020: aad7 ed3e d298 bbbe 77c8 f43e 8448 0a3f
00000030: fcbb fabe eac3 1d3f 1bd6 133f 7959 e83e
00000040: 77c7 e9be 080a cebe 861d e93e bddb 353f
00000050: 2488 d2be a664 dcbe a5e9 13bf 2bf6 033f
00000060: 5bca 153f 508f d0be 6933 d53e fc52 fb3e
00000070: 3fd9 fb3e 0f4a edbe 591d 2d3f 10ed 2cbf
00000080: 1300 033f fcf1 25bf 7895 20bf 0bfe 213f
00000090: 79ee e13e b2d7 23bf ec67 d8be 6027 1fbf
000000a0: 2ee1 84be 7842 fc3e df07 ddbe 7d3d dcbe
000000b0: 4f6c 1a3f cdaa 993e 77fd f83e 6b84 febe
000000c0: ac05 f03e 8f23 c23e 803c f8be cffa fe3e
000000d0: d192 0c3f 7ae7 203f 496e 0dbf de95 163f
000000e0: aa14 c63e b97f 04bf edf6 0fbf e655 e6be
000000f0: 443f e9be 1bb6 033f c459 cabe 090e 443f
00000100: a680 ce3e ff75 fa3e d812 0a3f 319d e9be
00000110: ae3a e53e f98b f83e 7c00 d73e 4b1d 23bf
00000120: aee2 fe3e 2028 233f 5f74 4bbe cbf5 e83e
00000130: 22ae 3a3f b5cf 1dbf 024e 073f 39d4 11bf
00000140: 3160 0b3f 355d 0a3f e418 063f c6de b0be
00000150: 82dd bdbe 5a4e 2bbf 87af e63e 25a9 d3be
00000160: 9703 0b3f 8c95 043f 8c84 03bf 89f6 163f
00000170: f1d7 fe3e e53a 1fbf 08dc 0fbf bce7 21bf
00000180: c9b8 e03e bd17 ed3e 1e48 da3e fbcf 12bf
00000190: 5060 e5be ec50 e7be 482a f53e 4656 02bf
000001a0: 4442 393f 2eba ddbe 24e2 4e3f e17f f6be
000001b0: 08f6 d8be 747e 00bf 7b1a f63e f49b 20bf
000001c0: 1e38 223f e0db bd3e 89ab ffbe ac9c 073f
000001d0: abc6 c3be b8fd 263f f5ef e23e b7ea d13e
000001e0: 99f3 f7bd 3e8f 36bf f90e 06bf 9376 083f
000001f0: c265 d93e 66bc d7be babe 093f daf7 ff3e
0.5183521 -0.5394894 -0.4115885 0.4845286 0.44169703 0.40327308 0.64566386 -0.16981591
0.464536 -0.3664003 0.47809193 0.540169 -0.48971546 0.61627066 0.57748574 0.45380762
-0.45659992 -0.40242028 0.45530337 0.7103842 -0.41119492 -0.4304554 -0.5777839 0.515475
0.58511895 -0.4073434 0.41640785 0.4908675 0.49189183 -0.46345565 0.67622906 -0.6754923
0.5117199 -0.64822364 -0.6272807 0.63278264 0.44127253 -0.64001 -0.42266786 -0.62169456
-0.25953048 0.49269462 -0.43170068 -0.43015662 0.60321516 0.30013123 0.48630878 -0.49710402
0.46879327 0.37917754 -0.48483658 0.49800727 0.54911524 0.62853205 -0.55246407 0.5882243
0.3868764 -0.5175739 -0.56236154 -0.4498741 -0.4555608 0.51449746 -0.3952161 0.76583916
0.40332526 0.4891815 0.53935003 -0.4562774 0.44771332 0.4854429 0.41992557 -0.6371657
0.49782318 0.637331 -0.19868611 0.45500025 0.72921956 -0.6164506 0.52853405 -0.5696445
0.5444365 0.5404847 0.5238173 -0.34544963 -0.3708306 -0.6691643 0.45055792 -0.41339985
0.5430235 0.5179069 -0.51374125 0.5896993 0.49774125 -0.6219924 -0.56195116 -0.63244224
0.4389098 0.46307173 0.42633146 -0.57348603 -0.44800043 -0.45178926 0.4788382 -0.5091289
0.7236674 -0.43306106 0.80813813 -0.4814444 -0.42375207 -0.5019295 0.48067078 -0.62737966
0.6336688 0.37081814 -0.49935558 0.5297344 -0.3823751 0.65230894 0.44323698 0.40999386
-0.121070094 -0.7131232 -0.52366596 0.5330593 0.42460448 -0.42135924 0.5380665 0.49993783
