data/pour_red_pose_c_le.pt (torch_old, 85011 bytes, 5 tensors)

fc.0.weight f4 [128, 9]
00000000: ed91 29be f42c 2d3e a5c9 05bd c3fe 8dbd
00000010: d67b 5e3e f155 903d 2c60 633e 8ba9 94bd
00000020: da6f c2bd 2105 5e3e a292 1cbd fc29 d43e
00000030: 7a90 15be 4463 7f3d 5705 f9bd 44aa 4ebe
00000040: 7746 803d 86bb 943e 5d36 fa3d fc16 9b3c
00000050: 04fa 8dbc 0b99 97bd 1a66 9c3d bc33 b5bd
00000060: 9755 34be 0ecd 2f3e e495 253d 548c cf3d
00000070: f205 1d3d ae75 05bc 3ce9 16bc 1e3e 80bd
00000080: ea84 ad3d 2c4b 66bd e0dd c33e 116d b0ba
00000090: a349 15be d0a7 483e 5355 90be eddd 4cbc
000000a0: a106 8d3e 5136 ecbd 410f d33d f63b 16be
000000b0: 50da 863c cefd d23e d039 05bd 30a0 dcbd
000000c0: 4f95 adbc 4268 0d3e 9f31 b1be 7dc6 fbbc
000000d0: af70 aebc 4a91 99bd 98a8 18be 791b 2f3e
000000e0: 7b19 ae3d 1d29 febc 464f 7abe 5993 09be
000000f0: ff6f 52be af53 1f3e f1a4 033d 16ed 40bd
00000100: 392d c23b 4137 7b3d 5fde d13d 06b1 063f
00000110: 836e 4cbd ed6a 863e 07f3 a2bd a6f0 c5bc
00000120: 0482 3c3e 54fc 3dbe 8ef2 96bd 97e1 ef3d
00000130: d303 8abe 88be 513d 0607 53be f6da 93bd
00000140: 2885 5ebd 0293 bebd baa4 613e 0f02 a03a
00000150: c768 cd3d c8b7 803d 7581 d73d 557c ffbc
00000160: a493 1f3e f20d c6be 6cc0 a4be 8a66 ed3d
00000170: 1840 56bc 2408 5bbd 74e5 9abe 5d56 91bd
00000180: f7cd ddbd c167 023e 25d6 633e 182e 103e
00000190: b1c2 f73e 09ee 4fbd a366 1ebe f70a 67be
000001a0: 1487 78be 5222 743e cbec 113e e91c 6b3b
000001b0: 9a42 923c b42b d4bd 9cf2 1a3d e6ac 8ebd
000001c0: 157f 25bd 9769 603c 9f32 533e 71d0 aebe
000001d0: e6e2 e93d d9f5 2fbd e0a9 ebbb 7c5f 82be
000001e0: 3049 52be c87f eabe e649 86be 4849 abbe
000001f0: 093b 293d 562e 99bd 54a8 aebe c558 543d
00000200: 4b84 9cbd 4f4b 193e a5ad d93e dc1d 1c3e
00000210: a1a6 fb3e 1d6d 12be 6283 c6be bd49 103d
00000220: 6248 e23e 35dd c0bd cce8 86bd 4144 5fbd
00000230: 23b7 bfbe 8bdd 53be e6eb fcbd 624a 883d
00000240: b36b 813e baed 25bd 2849 803e 9a2f 88be
00000250: a582 cdbd ec19 443e fa67 fbbd 866d 963e
00000260: ba51 a03a d088 9dbe b805 ea3d 19fb ae3e
00000270: d988 583d 2216 bbbe 8264 233e 4f16 f0bc
00000280: 9c37 6cbd fea6 f1bd 03c4 cdbd 1555 32be
00000290: 4341 2ebe 0341 a5bd 3bab 003f 088d 59bc
000002a0: 95f0 c23c fe1e eabd f8a9 a63d 3fc8 543e
000002b0: eacc 803e 936b 4f3e 9cda 57bd a844 33be
000002c0: 5dd0 bcbe ddc4 06be 12d9 82be e3c6 05bc
000002d0: f9fe 5dbe 2fcb 53be 6054 cdbe 871d d63d
000002e0: 1ed6 983e 9c4d d9bd c2dc 87bd eda7 f83d
000002f0: c758 aabb 7c47 40be 7ca0 0bbd dfee 51be
00000300: e04d 2d3e 193a 3e3e 5e7b 123e 53b2 173e
00000310: d219 153e c583 0bbe f7ca 15be ca1f e2be
00000320: 8aa0 94be 72db 993d 5e38 963e 6d49 f43d
00000330: f93d 81bd fd2a 4f3e cd41 81bd bc1c 903e
00000340: 5e60 473d bab0 063e 2b1b 083f c3ad 62be
00000350: a2f5 2ebe 8b78 13be b6c3 9b3e 9fa6 1e3d
00000360: 450b 583e 67cb c33d 275c 483d c55b 55be
00000370: caca ea3d a06f e73c 1fef b7be 3911 c93e
00000380: da13 7c3e 73ac f23e e3f5 21be 557d 98be
00000390: 574f d4bd aa83 823d cec7 fe3b dc80 ecbd
000003a0: 2100 103e 7190 403e ac84 48be 6638 13bc
000003b0: 4107 0ebd e1cf 7bbe 9c8c 433d c529 c93e
000003c0: 066b b9bd 814d 8dbc ed38 62be 3641 5d3e
000003d0: be0b fc3d af31 5c3e 4510 3e3e 5cbe 01be
000003e0: 615a 003e 1788 4fbe 0624 123e 4a03 143e
000003f0: 22c5 87be c24d 153e 14c4 e7bd 5358 44be
-0.16559573 0.1691168 -0.032663006 -0.069333576 0.21726927 0.07047642 0.22204655 -0.072589
-0.0949399 0.21681644 -0.038225777 0.41438282 -0.14605895 0.062350526 -0.121592216 -0.20182139
0.0626344 0.2904932 0.122174 0.018931858 -0.01733113 -0.074022375 0.07636662 -0.08847758
-0.17610775 0.17168066 0.04042615 0.10134187 0.038335748 -0.008145733 -0.009210881 -0.06261848
0.08472617 -0.056224033 0.38255215 -0.0013460239 -0.14578871 0.19595265 -0.28190097 -0.012504083
0.2754412 -0.115337975 0.10305644 -0.14671311 0.016461521 0.41209263 -0.032525837 -0.10772741
-0.02118936 0.13809302 -0.3460817 -0.030734295 -0.021293966 -0.07498415 -0.14908063 0.17100324
0.08500954 -0.031025464 -0.24444303 -0.13435115 -0.20550536 0.15559267 0.032139722 -0.047101103
0.005925801 0.06133199 0.10247492 0.52613866 -0.04991008 0.26253453 -0.0795651 -0.024162602
0.18408972 -0.18553287 -0.073704824 0.1171295 -0.26956043 0.051207095 -0.20608148 -0.07219498
-0.054326206 -0.09305383 0.22035494 0.0012207645 0.1002975 0.062850535 0.10522739 -0.031187216
0.15583664 -0.38682514 -0.32178056 0.115918234 -0.013076805 -0.05347456 -0.30253184 -0.070965506
-0.108303 0.12734891 0.22249658 0.14080083 0.48390725 -0.050764117 -0.1546884 -0.22562777
-0.24270278 0.23841217 0.14250486 0.0035875386 0.017854024 -0.10359898 0.037829027 -0.069665715
-0.040404398 0.01369705 0.20624779 -0.34143403 0.114202306 -0.042959068 -0.0071918815 -0.25463474
-0.20535731 -0.45800614 -0.26228255 -0.33454347 0.041316066 -0.07479541 -0.341128 0.05184247
-0.076424204 0.14970134 0.42515293 0.15245765 0.49150565 -0.14299436 -0.38772112 0.035226572
0.4419585 -0.09417192 -0.06587371 -0.05450845 -0.3744441 -0.2068998 -0.123496816 0.066548124
0.2527748 -0.040509917 0.25055814 -0.26598817 -0.10034684 0.19150513 -0.12275691 0.29380435
0.0012231388 -0.30768442 0.11426872 0.34175947 0.052864883 -0.36540323 0.1595631 -0.029307513
-0.05767022 -0.11799429 -0.10047152 -0.17415269 -0.17017083 -0.080690406 0.50261277 -0.013278253
0.02379636 -0.114316925 0.08137888 0.20779513 0.25156337 0.2025588 -0.052698717 -0.17506659
-0.3687772 -0.13161035 -0.25556237 -0.008165094 -0.21679296 -0.20682977 -0.40103436 0.10454851
0.29850858 -0.10610506 -0.06633903 0.12141404 -0.0051985714 -0.18777269 -0.034088597 -0.20501278
0.16924238 0.1857685 0.14304873 0.14814119 0.14560631 -0.13624485 -0.14628206 -0.44164878
-0.29028732 0.07512559 0.2933988 0.11928067 -0.063106485 0.20231242 -0.06311379 0.28146923
0.048675887 0.13153353 0.53166455 -0.22136597 -0.17085889 -0.14401452 0.30422753 0.03873312
0.21098049 0.0956028 0.04891601 -0.20835789 0.1146446 0.02825147 -0.35924622 0.39270952
0.24616948 0.47397193 -0.15816455 -0.2978312 -0.103666954 0.06372769 0.0077752834 -0.115480155
0.14062549 0.188051 -0.1958186 -0.008985614 -0.034674887 -0.24591018 0.047741517 0.3928968
-0.09053616 -0.01724887 -0.22092028 0.21606907 0.12306927 0.21503328 0.18560894 -0.12670273
0.12534477 -0.20266758 0.14271554 0.1445438 -0.26517588 0.14580444 -0.11316696 -0.19174318

fc.0.bias f4 [128]
00000000: 0a7a 113e 3318 d2bd b083 903b 423f a53c
00000010: f369 393c 57d1 113d 45d1 91bd 8e86 103e
00000020: da44 e63b 34a0 b13c 412e d3bc 9ac4 0a3d
00000030: d30d b8ba 2dd0 d33d a13d 3e3e c0a7 b9bc
00000040: 8114 883d 6d4a aebd 6459 283e 213d bcbd
00000050: 71c2 153e beec 593d 07c2 113e 533f 40bd
00000060: c529 833d e712 173d 3416 e43c 8b61 b8bd
00000070: c719 55bc 0ee9 563d 4375 3e3d cfc8 743d
00000080: 12fa 1b3c c2d4 e53c 5804 983c f96d c2bc
00000090: 0bbf d6bc f5dc 26be c2ad f6bc 6995 ef3c
000000a0: 3df0 643c e5ff 5dbd ffea ad3d 2321 553c
000000b0: f88d 9c3d 16d9 ff3c 8190 8c3c 1742 b23b
000000c0: ac3f ba3c bc93 b53c 3880 0f3e 84e2 a8bc
000000d0: 3460 4d3d 8649 85bc b7c7 1f3d bba9 553d
000000e0: 3ece 273d 5500 a43d 7ba7 323e fc00 0a3c
000000f0: 0e2c 74bb 9eb9 b33d 2aba 08bc 4a78 6e3d
00000100: fa07 143e 9ecf 8f3c 21c8 793d 4939 f7bc
00000110: 2e18 cd3c 1b13 a43d 7000 113e 4ad7 29bd
00000120: 8026 e4bc fc2d 1e3e 4382 cc3d 1069 51bd
00000130: 0a95 7bbc a0c9 5b3d 1b07 3d3d 42c2 e73d
00000140: 8bc5 5e3d 9882 8f3d d4bc f53d 6c36 0dbd
00000150: 07e4 733d e201 1e3d 0710 803d 9379 0e3e
00000160: 43b6 b6bc 9389 1abe 609b ad3c dc25 d83d
00000170: 4ef6 ffbc ea85 e7bc 4ec3 a03d 8c9e c43c
00000180: d4d9 b73d 831a 93bd 4ae9 c13b 3b14 1a3d
00000190: a3a9 943c 6da9 283d 090a 183d a462 073d
000001a0: 2271 303b 3f35 2c3c 6c48 a43b ea30 c6bd
000001b0: 7404 0abe 03c6 373b ea79 533c 1c95 82bc
000001c0: b7b1 9a3c 7668 6f3c e3fe 27ba a8ad 6539
000001d0: bde4 243c 517c fd3c 32f5 a63d c170 b7bc
000001e0: e7fe ea3c f08a c83d c433 3db9 67d8 fb3c
000001f0: 12ac af3d 5c10 ce3d aab2 96bc 2f85 87bc
0.1420671 -0.10258522 0.0044102296 0.020171765 0.011316764 0.035600033 -0.07119993 0.14113829
0.0070272507 0.021682836 -0.025778892 0.0338789 -0.0014042206 0.10342441 0.18578197 -0.022662997
0.06644536 -0.08510289 0.1644035 -0.09191347 0.14624955 0.05320429 0.14234172 -0.04693539
0.06404451 0.03688326 0.027842619 -0.0900298 -0.013006634 0.052468352 0.04649855 0.05976182
0.009520071 0.028055552 0.018556759 -0.02373408 -0.026214143 -0.16295226 -0.030112151 0.029246049
0.013973293 -0.05419912 0.084920876 0.013008389 0.07644266 0.031231444 0.017158749 0.0054400074
0.02273544 0.022165172 0.14013755 -0.020615824 0.050140575 -0.01627041 0.039008822 0.05216382
0.040968172 0.08007876 0.17446701 0.008423086 -0.0037257704 0.08775638 -0.008345166 0.058220185
0.14456168 0.017555054 0.060981873 -0.030178683 0.025035944 0.080114566 0.14160323 -0.04146508
-0.02785039 0.15447229 0.09985783 -0.051125586 -0.015355358 0.05365908 0.046149354 0.113163486
0.05438761 0.07007331 0.11998907 -0.03447573 0.059543636 0.038576014 0.06253057 0.13913564
-0.022303706 -0.15091543 0.021192253 0.10554096 -0.031245377 -0.028262097 0.078497514 0.024001382
0.08977094 -0.07182791 0.005917703 0.03761695 0.018147295 0.041177202 0.037118945 0.033053055
0.00269229 0.010510742 0.005013516 -0.09677298 -0.13478261 0.0028041608 0.012907485 -0.015940242
0.01888357 0.014612308 -0.00064085255 0.00021903834 0.010064301 0.030943068 0.08152236 -0.022392632
0.028686 0.09792125 -0.00018043729 0.030742837 0.08577742 0.10061714 -0.01839574 -0.016543

fc.1.weight f4 [128, 128]
00000000: 8aba 41bd 67d6 07be 1c81 5ebe ffc0 43bd
00000010: 1f39 5d3e 3c1c 37bc 41b3 e9ba 2c79 b63e
00000020: 8dcb a1bc ab82 ab3e b0a6 81bd 8e13 94bd
00000030: f4d1 cabd 4f29 c2bd 0584 b73d 99c1 aabd
00000040: 028d 8f3d 6603 1dbe b124 083e cb3e c3bd
00000050: 73a1 053e 7dab 893e 4a48 d63e 938d a3bd
00000060: 8193 2fbe 4d0c d9bd 994c a03e 8ab1 48bc
00000070: c15a 883e cab9 aebd b9e0 123e 4637 b23d
00000080: bc94 1ebe 1981 5f3e abd5 8dbc 77cc 4ebd
00000090: d3eb 1fbe df05 febd 0dd6 d4bd 6e30 673d
000000a0: 9d0a e3bd 0eea 2cbe 63fa 1b3e 5566 cabd
000000b0: a7bf 113e 8621 a2bd aaae c03d ec2e 393e
000000c0: c7c9 ca3d f699 2fbe 3ef7 973e 62d5 efbb
000000d0: 4276 59bd b433 653d e1f5 3ebe f58f 06bd
000000e0: 8221 7fbe 61cd 1a3e 1220 ccbc 85c6 0c3e
000000f0: 8abf 523e fac8 313d 28a8 f9bc cb13 b03d
00000100: 35cd 853e 6f6d 91bd 0152 7a3e d7cc 553d
00000110: 2fe9 d5bd cc79 ed3d bef5 3c3e fdb7 903c
00000120: 6d06 8e3d 46fa 753e 1d1d 303c a1d5 20be
00000130: a114 083d 9b24 953e 3a78 6bbe b47f 9b3e
00000140: fdb2 ed3c 871f 2cbd 24cd 263d 1b44 d83c
00000150: 8cde b2bd f4cf 3e3e 7f83 9ebe f21e 143e
00000160: c9c4 b53d 4068 21bd cee5 4d3b 3147 df3a
00000170: 6e8c 8bbd 2f8c e53d 82ba a4bd 84b6 81bd
00000180: b535 193d 7408 45be 86d7 1c3d 917d 733e
00000190: 342d 6cbd 9a37 c93d 530c 8b3d ab85 5bbd
000001a0: d233 213d f37a df3e 9ff8 81be 9643 84be
000001b0: b0f4 5cbe 8f04 0fbe 28d3 35be e3a6 cebd
000001c0: 8467 013e ebb1 31be ed7a 80bc d2e2 373e
000001d0: 1b9f 783d 0e37 ebbd f00f 98bd 4fd9 52bd
000001e0: 31fc f33d 66fb d13d 32e1 893d 6c7a 133d
000001f0: 0d63 bd3e 65b8 ab3e e9e3 c93d 41a5 343e
00000200: d7c0 1c3d 1ad5 38be 267f b139 22ca c63b
00000210: 6cfa 513e a865 18bc c292 b4bd 080e 5b3d
00000220: aaab 243c b9e7 f4bc 6868 6fbd 2844 ae3d
00000230: d03a 23be daaa 2a3e 4dda 1d3e 7901 82bd
00000240: 7a8c 20bd 4e7b 7cbe 2a81 a23d 733c f0bd
00000250: 1cb3 8abe 9243 77bc 4ea6 0e3e cc67 aabd
00000260: 79c2 163e df17 9fbc e48e 46be 8206 8ebe
00000270: 21de 173d a52d 423e 43f4 a83d f0af 973d
00000280: 4d44 033e 0145 81bd 22f8 58bb 64f2 aa3c
00000290: 3b94 f23c 4ffa afbd f8c9 76bd a855 283e
000002a0: c6dc 7ebe 9e40 a13d 00ea acbd c20a d03d
000002b0: d8ba b6bd abb8 fa3d bfef 50be 33ae 15be
000002c0: 5f19 4a3e 0353 f63c f1da 45be f9d6 cf3c
000002d0: 65f2 1c3c 2fa5 243e 467c 2b3e ccc2 4c3d
000002e0: c05d 84bd 8471 cfbd afd0 5d3e cd6c a8be
000002f0: c446 75be 5427 043e 5fe3 553d 37bf 12bc
00000300: 9ddb 35bd 59d0 9ebe 8cf4 fbbd 104f 80bd
00000310: a13e 8abc b314 0ebe 0861 8fbd 15f7 4cbd
00000320: a1fb f83d f203 3e3e c50b e5bc 176d 18be
00000330: a3dd 453e efa4 71be 9f4a 5fbd 2bd2 103e
00000340: e43c 113e 0b88 413d f447 debd 4349 36bd
00000350: d1cd e6bd 6051 19bd 7838 1c3e 78ca a23d
00000360: 7219 953d f220 6fbe 54cf 2b3d f603 553c
00000370: 810f 19be 2e3f 253e 2a51 623d aa29 4b3d
00000380: e16e d1bd 7f3f 27bd 0862 d73d 4b31 983c
00000390: d5db aebd fcfb 19bc 6fc3 08be e257 553d
000003a0: c93c 39be 1cf0 83be 1cf8 2a3e 37e5 15be
000003b0: 5582 94be 0cb2 32bd e8db 373e 205d aa3d
000003c0: 39c7 71be e2d9 163e 6d95 b03d 5554 9dbd
000003d0: 593f 193e 7d94 d13d 5177 b0bc 6a7e ff3d
000003e0: 1cb6 2d3e 3314 8bbd b8ff 97bb 2c82 34be
000003f0: c31c 80bd 1bac eabc 9ade 473e 2172 103d
-0.04729704 -0.13265382 -0.21728939 -0.047791477 0.21603821 -0.011176165 -0.0017829911 0.35639322
-0.01975038 0.3349813 -0.06330621 -0.07230292 -0.09903327 -0.09480535 0.089607276 -0.08337707
0.07009317 -0.15333328 0.13295247 -0.09533461 0.13049869 0.26888648 0.41852027 -0.079859875
-0.17146112 -0.10598049 0.3130844 -0.01224936 0.2663174 -0.0853153 0.14343537 0.08701949
-0.15486425 0.2182659 -0.017313799 -0.05048796 -0.15617304 -0.124034636 -0.103923894 0.05644267
-0.11086009 -0.1688616 0.15232234 -0.098827995 0.14233266 -0.0791655 0.094083145 0.18084306
0.09901767 -0.17148575 0.29680818 -0.0073191384 -0.053091295 0.05595751 -0.18648483 -0.032852132
-0.24915126 0.15117408 -0.024917636 0.13747604 0.20580879 0.043404557 -0.030475691 0.08597525
0.26133123 -0.07100951 0.24445345 0.052197304 -0.10444867 0.115954965 0.18453118 0.017665857
0.06934819 0.24021253 0.010749129 -0.15706493 0.0332228 0.2912949 -0.22995082 0.30370867
0.029016012 -0.042022254 0.04072298 0.026399663 -0.08733854 0.18634015 -0.309597 0.1446493
0.088754244 -0.03940606 0.0031417492 0.0017034766 -0.06813894 0.112083785 -0.08043386 -0.0633364
0.037404735 -0.19241506 0.038291477 0.23778369 -0.057660297 0.09825058 0.0678946 -0.053594273
0.03935606 0.4364849 -0.25384995 -0.25832814 -0.21577716 -0.13966583 -0.17756331 -0.10090425
0.12637144 -0.17353027 -0.015683616 0.17957619 0.06069861 -0.1148511 -0.07424915 -0.051476773
0.11913336 0.102530286 0.06732406 0.036005422 0.36989632 0.3353912 0.098579235 0.17641164
0.038269844 -0.18050042 0.00033854804 0.0060665766 0.20505685 -0.0093015805 -0.08817054 0.053480178
0.0100506935 -0.02989565 -0.05844918 0.085090935 -0.15940404 0.16666737 0.15415306 -0.06347937
-0.03919647 -0.24656412 0.07934792 -0.1173028 -0.27089775 -0.015091794 0.13930628 -0.08320579
0.14722623 -0.019420562 -0.19390446 -0.2773934 0.037077073 0.18962725 0.08249714 0.07406604
0.12819023 -0.063119896 -0.0033106883 0.020867534 0.029611697 -0.085926645 -0.060251206 0.16438925
-0.24888906 0.07873653 -0.084430695 0.10158302 -0.08922356 0.12242254 -0.20403956 -0.14617233
0.19736241 0.03006888 -0.19321801 0.025371062 0.009579276 0.16078638 0.16746625 0.04999046
-0.06463194 -0.10129073 0.21661638 -0.32895508 -0.23952776 0.12905627 0.05221879 -0.008956722
-0.044398893 -0.31018332 -0.12302503 -0.0626508 -0.016875567 -0.13875084 -0.07000929 -0.050040323
0.121573694 0.18556193 -0.027959714 -0.14885364 0.19322829 -0.23598073 -0.054514524 0.14142673
0.14183384 0.04724888 -0.10853568 -0.04450346 -0.11269725 -0.03743112 0.15255916 0.07948774
0.07280244 -0.23352411 0.04194577 0.013001433 -0.1494732 0.16137382 0.055253185 0.04960028
-0.102262266 -0.04083204 0.10516745 0.018578192 -0.085380234 -0.009398457 -0.13355802 0.052085765
-0.18089594 -0.25769126 0.16696209 -0.1463822 -0.29005685 -0.04362683 0.17954981 0.083185434
-0.23611154 0.14731553 0.08622251 -0.07682101 0.14965571 0.102334 -0.02154127 0.124752834
0.16964 -0.06790962 -0.0046386383 -0.17627782 -0.06255486 -0.02864652 0.1951851 0.03526509

fc.1.bias f4 [128]
00000000: 2c3f 213e 94dd b43c 8b6d 193d 22f6 3d3d
00000010: 3123 1e3e 826e bebb 885c f93d 8bee 29bc
00000020: 4cad 243d 8787 0fbc 315d 063c c36c 1fbe
00000030: 8543 bf3c 932d e43b 9dc8 11bc 1299 233e
00000040: a215 1c3e 344a c93b bc09 afbb d10f 25be
00000050: b0d1 313d 1de6 213e eb70 3839 8659 403d
00000060: 02ce 393e 8727 e0bd 02f6 203e 90c7 9dbc
00000070: aef7 1cbe 5bcb 213e 3fdb 373c d7cd 6dbc
00000080: ba9c d7bc 8236 173e 1b93 323e a7ff 1f3e
00000090: ccc7 2d3c f902 76bd 07e1 e83c 553e 07bb
000000a0: 241d 8bbb 215a 503c 0dd6 043c c471 123e
000000b0: 9088 1dbe 0d0d f1bb 56c2 3f3c 31da 75bc
000000c0: df3b 353d ca7c 29bc 5726 123d 8364 1cbe
000000d0: 054b 9d3b d0f1 0f3e 950b 213e c3dc ae3d
000000e0: 1cba 223e 2bb1 eb3c d338 253e 26a2 1f3e
000000f0: c209 27bd 0100 323e d1c6 e93c 86c8 2ebe
00000100: 5f95 563a c28b b0bb ef2c ca3c 7a63 01bc
00000110: b88e c1bb aa9e e6bb 19fe 1d3d cacb 103e
00000120: b536 20be 179a d7bd cb14 1dbe 0315 0b3e
00000130: f8cc 843c 2714 913c a0b5 a0bc fb8b 233e
00000140: 592f b6bc d00d 203e 13a3 1c3e 2357 983c
00000150: 6d86 ac3c b57d 78ba 2013 283e b78f bfbc
00000160: d737 143e d556 abbc 5df6 f9bc 2a74 283e
00000170: 9087 173e f2ea ea3d 53b6 21be 6af5 a739
00000180: 0dd2 39bb a89d 78bd df77 1e3e f078 433d
00000190: d84d 23be f6e4 a2b8 f8a7 803c f610 ff3c
000001a0: 6f28 213e f536 093e 1bab 453c 7f56 17be
000001b0: 1689 ddba fde4 0d3e f652 cd3d 8ffb 2c3b
000001c0: ed3c f0bc 8bdc 7f3d ab0e afbc 90bd ec3c
000001d0: 56cf b2bb e906 1ebe c186 323e 4aec 72bc
000001e0: 48c2 2e3e b76d 0ebb 6886 c33c c604 c7bc
000001f0: a020 e63a 7650 1fbe 0785 303e 3517 ea3c
0.15746754 0.022078313 0.037457984 0.04637731 0.15443112 -0.0058115134 0.12175852 -0.0103718145
0.04020433 -0.00876034 0.0082009295 -0.15568833 0.023347626 0.0069634407 -0.008897928 0.1597636
0.15242627 0.006142879 -0.0053417366 -0.16119315 0.043412864 0.15810438 0.00017589673 0.046960376
0.18144992 -0.10945039 0.15718845 -0.019260198 -0.15328857 0.1580023 0.011221706 -0.014514408
-0.02631985 0.14766887 0.17438929 0.15624867 0.010606717 -0.06006143 0.028427614 -0.0020636518
-0.004245417 0.012716801 0.008107674 0.1430121 -0.15384126 -0.007356292 0.011704048 -0.015005634
0.04424655 -0.010344693 0.035681095 -0.15272717 0.004800203 0.14057088 0.15727074 0.08538201
0.15891308 0.028771004 0.16134958 0.15589198 -0.04078079 0.17382814 0.028537186 -0.17068681
0.000818571 -0.005387754 0.02467963 -0.007897252 -0.005906906 -0.007037957 0.038572405 0.1414024
-0.15645869 -0.10527437 -0.15339963 0.13582234 0.016211018 0.017709805 -0.019617856 0.15971367
-0.022239374 0.15630269 0.15296583 0.018596238 0.021060193 -0.0009479181 0.16413546 -0.023383958
0.14474426 -0.020915428 -0.030512983 0.16450563 0.14797807 0.114705935 -0.15792207 0.0003203557
-0.002835396 -0.060697228 0.15475415 0.047722757 -0.15947664 -7.767409e-05 0.015705094 0.031136017
0.1573808 0.1339987 0.0120647205 -0.1477909 -0.0016901817 0.13856883 0.10025589 0.0026395058
-0.029325927 0.062466186 -0.021369299 0.028898984 -0.0054568453 -0.15432324 0.17434217 -0.0148268435
0.170663 -0.0021732876 0.0238678 -0.024294268 0.001755733 -0.15558037 0.17238246 0.02857552

fc.2.weight f4 [1, 128]
00000000: 3465 b13e 9f65 99be 823c 953e adcd c0bd
00000010: f75c 9d3e 2a54 72bc 2c8d 593e cc48 74bb
00000020: a61e 1abe b2ef 31be b07f 2ebf c1b9 aabe
00000030: 3be3 8a3e 390e c43e 03f8 5b3e 7ea7 8b3e
00000040: 0af0 713e feb0 333e ff95 9abd ca76 5fbe
00000050: 7ef6 e03e 4865 953e 497b 3abe 920d 21be
00000060: 443f 273e f409 9cbe 4af6 a43e 9e27 41be
00000070: 7a59 c9be ff19 943e f0cd aa3e 86f9 433e
00000080: 5e2c 6dbd 732a ad3e 2d4b 4b3e 8ac4 9b3e
00000090: b417 3fbe cd63 88be a633 ac3e 6552 9ebe
000000a0: 688b 6ebe c360 7ebe 8361 2dbe 4f6f 883e
000000b0: 6326 acbe b123 47be c235 e3bd a545 73be
000000c0: 7a86 2a3f d96f f4be b0c6 76be 9747 b8be
000000d0: 2775 66be ec9a 8f3e af63 a13e 15ac 043f
000000e0: 4921 863e 7bda ff3e 59b5 893e 7201 a13e
000000f0: 38d4 21bd 3168 783e 9e41 8c3e ad75 59be
00000100: f5b1 b0be a113 643e dce1 a5be 36a0 3f3e
00000110: 274e 2dbe 899e abbe f148 753e 06b0 913e
00000120: b202 8dbe 361a 3dbe 47e2 b0be ee38 c93e
00000130: 1750 b43e 33c2 cbbe 3ee2 95be 2ee5 883e
00000140: b2cb acbe 9e90 633e 7ba8 993e 0588 cdbe
00000150: a23e 36be 1b28 42be a362 863e cab3 10be
00000160: f607 e43e ded2 dcbd 4b13 55be 3a09 5c3e
00000170: 6b54 b33e 42ad 193e b9fb 65be 964a 90be
00000180: c13b b3bd a4f9 42be 0f00 7e3e 6bff 673e
00000190: 9936 48be 4334 7abe 4934 0b3f 65f2 a5be
000001a0: 2a6f 9a3e b379 d83e 5cf9 68be bbb3 c6be
000001b0: 420c 73be e4eb 693e 753b 583e 053d 503e
000001c0: 61da cebd b1c0 ac3e 5271 80be ba64 b83e
000001d0: 578e bebd 69bb 76be 5df6 543e 88c1 64be
000001e0: 59f7 313e 77c3 4cbe 247e a3be e49e 9abe
000001f0: a947 71be fa26 8ebe 3614 723e f12b 9abe
0.34647524 -0.29960343 0.29147726 -0.094142295 0.3073499 -0.014790574 0.21245259 -0.0037274836
-0.15050754 -0.17376593 -0.68163586 -0.33344844 0.27126488 0.382921 0.21481328 0.27276224
0.23626724 0.17547986 -0.07548141 -0.21822658 0.4393806 0.29178834 -0.18211092 -0.15727833
0.16332728 -0.30476344 0.32219154 -0.18862769 -0.39326078 0.28926083 0.33360243 0.19138154
-0.05790364 0.3382145 0.19852896 0.30423385 -0.18661386 -0.26638642 0.33633155 -0.30922237
-0.23295367 -0.24841599 -0.16931729 0.26647422 -0.33623037 -0.19447209 -0.11094238 -0.23757036
0.66611445 -0.47741583 -0.24099231 -0.3599212 -0.22505628 0.28047884 0.31521365 0.51825076
0.2619727 0.49971375 0.2689617 0.31446415 -0.03950903 0.24258496 0.27393812 -0.21236296
-0.3451077 0.22273113 -0.3239888 0.1871346 -0.16924344 -0.3351939 0.23953606 0.28454608
-0.2754112 -0.1846703 -0.34547636 0.39301246 0.35217354 -0.397966 -0.29274172 0.2673735
-0.33749157 0.22223136 0.30011353 -0.40142837 -0.1779733 -0.18960612 0.2624713 -0.14131084
0.44537324 -0.10782407 -0.20808141 0.21487895 0.35025343 0.15007499 -0.22459306 -0.28181905
-0.087516315 -0.19040543 0.2480471 0.22656028 -0.19552077 -0.24433999 0.54376656 -0.32411495
0.30162936 0.4228035 -0.22751373 -0.38808998 -0.23735145 0.22843891 0.21116431 0.20335777
-0.10100246 0.33740762 -0.25086457 0.36014348 -0.09304493 -0.24094929 0.20797105 -0.22339451
0.17379512 -0.19996439 -0.31932175 -0.3019935 -0.23562492 -0.27764112 0.23640522 -0.3011165
