data/pour_red_meirl2.pt (torch_old, 85005 bytes, 5 tensors)

fc.0.weight f4 [128, 9]
0	0xbc5469a1	-0.012964637
1	0xbe9f7a56	-0.31148022
2	0xbe8aa707	-0.27080557
3	0x3e12aab3	0.14322929
4	0x3e56249c	0.20912403
5	0x3e43cfba	0.1912221
6	0xbdf0b8e2	-0.117540136
7	0xbe9f2d05	-0.31089035
8	0x3e8885c4	0.26664555
9	0x3e053793	0.13009481
10	0xbe6f8309	-0.2338983
11	0xbe3cdf50	-0.18444562
12	0xbd8a8cb1	-0.06765116
13	0x3ef384e3	0.47562322
14	0x3daeebf7	0.085411005
15	0x3d030cc7	0.031994607
16	0xbe092343	-0.13392358
17	0xbe2965fc	-0.1654281
18	0x3e2eb114	0.17059737
19	0x3d14e2e2	0.036349185
20	0xbdb31bcb	-0.087455355
21	0xbd8ea56e	-0.06965147
22	0xbcb33e68	-0.021880344
23	0xbeacd417	-0.33755562
24	0xbe0488be	-0.12942788
25	0x3c60765b	0.013700093
26	0x3e8a4888	0.27008462
27	0xbe1bc9e9	-0.15213741
28	0xbe693997	-0.22775875
29	0x3d25155d	0.040303577
30	0x3e1fe1dd	0.15613504
31	0x3dcfe232	0.10150565
32	0xbe7b97bf	-0.24569605
33	0x3e454f98	0.19268644
34	0xbe513d40	-0.20433521
35	0xbe4cf102	-0.20013812
36	0x3d472503	0.04861928
37	0x3ec3e460	0.38260174
38	0xbe5f22d7	-0.21790634
39	0x3e545d59	0.20738734
40	0x3c287b53	0.010283309
41	0x3dd516b6	0.104047224
42	0xbe1b99a7	-0.15195332
43	0x3e0806d6	0.13283858
44	0x3c76665b	0.015039052
45	0x3eae04f3	0.3398815
46	0x3e1e121a	0.15436593
47	0x3debc184	0.115115196
48	0x3e36e13f	0.17859362
49	0xbcad0e42	-0.021124963
50	0x3da22810	0.079177976
51	0xbea6dcdc	-0.32590377
52	0x3c78307c	0.015148278
53	0x3cd281ec	0.025696717
54	0xbd2ae4e7	-0.041722205
55	0x3e482a51	0.19547392
56	0xbe323567	-0.17403184
57	0x3e90dc89	0.28293255
58	0x3e20cfe2	0.15704301
59	0x3e39a2ec	0.18128556
60	0x3e6a7e5a	0.22899762
61	0xbe21f6e2	-0.15816835
62	0xbc8af1b3	-0.016960954
63	0x3ea6c78d	0.3257412
64	0xbe9cd3ee	-0.3063044
65	0xbe8949bd	-0.2681407
66	0x3e78fb90	0.24314713
67	0xbda9e518	-0.08295649
68	0xbec08632	-0.37602383
69	0xbc8bea61	-0.017079534
70	0xbd41719b	-0.047227483
71	0x3cf72c53	0.030172503
72	0xbdb2c3a3	-0.08728721
73	0x3c90fbda	0.017698217
74	0x3d3c3bb3	0.04595537
75	0xbe08891b	-0.13333552
76	0xbcfbc800	-0.030735016
77	0xbdf367c6	-0.118850276
78	0xbe8a0136	-0.2695405
79	0x3e672acb	0.22574918
80	0x3e0488cd	0.1294281
81	0x3e15d99c	0.14633793
82	0x3df39753	0.11894097
83	0xbea3d909	-0.32001522
84	0xbd48bc77	-0.04900786
85	0x3d68726f	0.056749757
86	0x3dadc783	0.084853195
87	0x3cf410c9	0.02979316
88	0xbe05b8eb	-0.13058822
89	0xbcee68a3	-0.029102629
90	0xbe5ca6fd	-0.21548076
91	0xbe04ce52	-0.1296933
92	0xbe455cee	-0.19273731
93	0x3eb403eb	0.3515924
94	0x3eeb8776	0.46001786
95	0xbdc3bb34	-0.095571905
96	0x3e042fd9	0.12908877
97	0x3d93b91b	0.072130404
98	0xbe245a31	-0.1605003
99	0x3e9121a0	0.28345966
100	0xbdd55eee	-0.10418497
101	0xbd07f4cc	-0.03319244
102	0xbdd86863	-0.10566785
103	0x3e4bf11a	0.19916192
104	0xbd75fce0	-0.060055614
105	0x3da58c56	0.080834076
106	0x3c41afec	0.011821728
107	0xbee264be	-0.44217485
108	0x3d8a5009	0.06753547
109	0x3e717875	0.23581107
110	0xbd3099a0	-0.04311526
111	0x3a576fc0	0.0008218251
112	0x3c71d89a	0.0147611145
113	0x3d0307aa	0.03198973
114	0xbe768728	-0.24074996
115	0xbd676f9c	-0.056502923
116	0x3cc41f5d	0.023940736
117	0xbd9c1ef1	-0.07623089
118	0xbde9d53e	-0.11417626
119	0xba1963ad	-0.00058513397
120	0xbe118895	-0.14212258
121	0xbe9e48d9	-0.30914953
122	0xbddd4d23	-0.10805728
123	0xbe1a25e4	-0.15053517
124	0x3e80a128	0.25122952
125	0x3c0adcc7	0.008475489
126	0x3e50621a	0.20349923
127	0xbc1a0530	-0.009400651
128	0x3d149aa9	0.036280308
129	0x3cd2e0cf	0.025741963
130	0x3e2d9242	0.16950324
131	0x3d11d403	0.03560258
132	0x3e187fcc	0.148925
133	0xbea6f73b	-0.32610497
134	0x3d54b4b7	0.051930156
135	0xbe6cb48c	-0.23115748
136	0xbe4cf375	-0.20014746
137	0xbdaa8962	-0.08326985
138	0x3d90a937	0.07063525
139	0xbda032cd	-0.078221895
140	0xbd291667	-0.04128113
141	0x3ea22b4f	0.31673667
142	0x3e61bf5a	0.22045651
143	0xbdf6198e	-0.12016593
144	0xbe0a2977	-0.1349238
145	0xbb19e4eb	-0.0023482393
146	0x3d552f4c	0.05204706
147	0x3ec99d3d	0.39377776
148	0x3e453709	0.19259275
149	0xbe6eae93	-0.23308782
150	0x3d1afcfd	0.037838925
151	0xbe94fd03	-0.29099283
152	0x3c60c6de	0.013719289
153	0x3e1dd760	0.1541419
154	0xbe9f4637	-0.31108257
155	0xbe21916c	-0.1577813
156	0x3e8ca4be	0.27469438
157	0xbe4575d1	-0.19283225
158	0xbe9c6fae	-0.30553955
159	0x3d2e6c28	0.042583615
160	0x3e0a64e6	0.13515052
161	0xbeb37f93	-0.3505827
162	0xbeb44ecd	-0.3521637
163	0x3ea2d9fc	0.31806934
164	0x3e27c0ea	0.16382185
165	0x3e9a5656	0.30143994
166	0xbebdfcab	-0.37106833
167	0xbc5a577b	-0.013326521
168	0x3d9ebd63	0.077509664
169	0x3e4fd59f	0.20296334
170	0x3e95df4b	0.29271922
171	0x3c8be39c	0.017076306
172	0xbd728270	-0.059206426
173	0x3d301513	0.042988848
174	0xbdca4137	-0.0987572
175	0x3db87900	0.09007454
176	0x3e2d38b5	0.16916163
177	0x3e9414cd	0.2892212
178	0xbdefbe5f	-0.11706232
179	0xbe6b43ea	-0.22975126
180	0x3d7b31b9	0.061326716
181	0xbe632475	-0.22181876
182	0x3e6611e0	0.22467756
183	0x3d9e8359	0.07739896
184	0xbec20fc2	-0.37902647
185	0xbdf0c14d	-0.11755619
186	0x3c2798ba	0.010229284
187	0xbdfb1fd4	-0.1226193
188	0x3e80a877	0.25128528
189	0x3e3f9783	0.18710141
190	0x3e30a6dd	0.17251153
191	0x3e4ffdbd	0.20311637
192	0x3d993354	0.07480493
193	0x3d46a1c5	0.04849412
194	0xbd93b323	-0.07211902
195	0xbc3937dd	-0.011304823
196	0xbe822dd6	-0.25425595
197	0x3c006e1c	0.007838752
198	0x3b88ca07	0.004174474
199	0xbc26c1e3	-0.010178062
200	0x3cb8d78f	0.022563724
201	0xbe93775b	-0.28801998
202	0xbe855a30	-0.2604537
203	0xbe70c95b	-0.23514311
204	0xbe87cd4e	-0.26523823
205	0x3e7626f5	0.24038298
206	0xbe779d1e	-0.24181029
207	0x3eb3d29a	0.35121614
208	0x3d7a27e3	0.061073195
209	0xbda5ee47	-0.081020884
210	0xbdc535b3	-0.09629383
211	0x3d4ffc9a	0.05077801
212	0x3e894472	0.26810032
213	0x3c6bff79	0.014404171
214	0x3e505fb1	0.20349003
215	0x3e713dd6	0.23558745
216	0xbe6c2ffd	-0.23065181
217	0xbcddd0b6	-0.02707706
218	0xbcc296f4	-0.02375362
219	0xbe09ddc9	-0.1346351
220	0xbe04ec62	-0.12980798
221	0x3ea8f46f	0.32998988
222	0x3d1b8ce4	0.03797616
223	0x3bfeeb00	0.007779479
224	0xbec21f14	-0.37914336
225	0x3e3e7da9	0.18602623
226	0xbdc7b3db	-0.097511016
227	0xbe2d24f2	-0.16908625
228	0x3f1a0fef	0.6018056
229	0x3e1c6373	0.15272312
230	0xbf0858f7	-0.5326075
231	0x3e1f08ad	0.15530653
232	0x3d9fa31f	0.07794785
233	0x3ea3d9cb	0.320021
234	0xbc703f8d	-0.014663589
235	0x3e121457	0.14265572
236	0xbe1e28b0	-0.15445209
237	0x3e0d739a	0.1381363
238	0x3c88ae6c	0.016684733
239	0x3c53d511	0.012929217
240	0x3e25a0a2	0.16174558
241	0xbea2e722	-0.31816965
242	0x3cc303e8	0.023805574
243	0x3e15766b	0.14595954
244	0x3c2ed826	0.010671651
245	0xbec923aa	-0.39285022
246	0x3cdb58e3	0.026775783
247	0x3e1d7675	0.15377219
248	0x3e58bb57	0.21165214
249	0x3d8c7148	0.06857544
250	0xbe3fdd17	-0.18736683
251	0xbe9845bb	-0.297407
252	0xbe658122	-0.22412542
253	0x3eb48e60	0.35264874
254	0x3e7124b4	0.23549157
255	0x3ce9eaf8	0.028554425

fc.0.bias f4 [128]
0	0xbd331057	-0.043716755
1	0x3d6ce6de	0.05783736
2	0x3d3a40ef	0.04547208
3	0x3d14cf3e	0.036330454
4	0xbc511298	-0.012760781
5	0xbd67d83a	-0.056602694
6	0xbc193d88	-0.009353049
7	0x3d268f80	0.040664196
8	0x3d332dd2	0.04374487
9	0x3bc552b8	0.0060218237
10	0x3c39546a	0.01131163
11	0x3d2571ff	0.04039192
12	0xbd376b4f	-0.04478007
13	0x3c506f6c	0.012721878
14	0xb9a96e3a	-0.00032316317
15	0x3d75e7c7	0.060035493
16	0x3cf5cd82	0.03000522
17	0xb84ab940	-4.833308e-05
18	0xbda0cc9f	-0.078515284
19	0x3d77872a	0.060431637
20	0xbd0accec	-0.033886835
21	0xbd42d01f	-0.04756176
22	0xbb06d33a	-0.0020572678
23	0x3d0142d4	0.031557873
24	0x3cb762cf	0.022385983
25	0x3c9183ac	0.017762981
26	0x3c8c4d35	0.017126659
27	0x3d0cab98	0.034343332
28	0x3d669462	0.056293853
29	0x3d8180b9	0.0632338
30	0x3cfef5d0	0.031123072
31	0x3bc13826	0.005896586
32	0x3cd704c0	0.026247382
33	0x3d17160b	0.036886256
34	0x3ca666ce	0.020312693
35	0xbbd1a999	-0.0063983914
36	0xbc7d81cc	-0.0154728405
37	0xbad425eb	-0.0016185617
38	0xbc22f075	-0.009945025
39	0x3d3e902d	0.046524215
40	0x3c795c9b	0.015219833
41	0xbc0e35b7	-0.008679799
42	0xbd2ba4de	-0.041905276
43	0x3c2ab642	0.01041943
44	0xbcb7f081	-0.022453548
45	0xbc74daea	-0.014944771
46	0x3d01584d	0.03157835
47	0x3d8ed37e	0.06973933
48	0xbc50537e	-0.012715219
49	0xbd4cf4f4	-0.050038293
50	0x3d11c7cc	0.03559093
51	0x3d6c8e2c	0.057752773
52	0x3d3f0c9a	0.046642877
53	0x3d3a104b	0.045425694
54	0x3d31d9d9	0.043420646
55	0x3d9067fa	0.07051082
56	0xbcb251da	-0.021767545
57	0xbc891389	-0.016732948
58	0xbc2e89a0	-0.01065293
59	0x3cc5f834	0.024166204
60	0x3d00a791	0.031409804
61	0xbd0d0189	-0.034425292
62	0x3c1d86b0	0.0096146315
63	0x3d318000	0.04333496
64	0x3cca60b7	0.02470432
65	0xbd04d7af	-0.032432254
66	0xbc33f3a9	-0.010983386
67	0x3d578521	0.052617196
68	0x3d8c2496	0.06842916
69	0xbd3c0efc	-0.045912728
70	0xbd4ad477	-0.04951903
71	0x3d42904b	0.04750089
72	0x3d7e0df6	0.062025033
73	0xbbff8361	-0.007797644
74	0xbcacdc49	-0.021101134
75	0x3cc57b07	0.024106516
76	0x3d06e743	0.032935392
77	0x3d264c4f	0.040600117
78	0x3b4f98ce	0.0031676772
79	0x3bfe51f0	0.0077612326
80	0x3b43e9b4	0.0029893937
81	0x3da1fa2e	0.07909046
82	0x3cc324aa	0.023821194
83	0x3cc9699c	0.024586491
84	0x3d320f45	0.043471593
85	0x3ce4f47c	0.02794861
86	0x3d740943	0.059579145
87	0x3ca8c76f	0.02060291
88	0xbc581fe5	-0.013191198
89	0xbc7c6213	-0.015404242
90	0x3b325590	0.0027211644
91	0xbc7517f0	-0.01495932
92	0x3d8de928	0.06929237
93	0xbda0dd35	-0.07854692
94	0x3cc71eb5	0.024306634
95	0x3b0f7cab	0.0021894376
96	0x3c9a3dd6	0.018828314
97	0xbcbf1fdb	-0.02333062
98	0x3a8cad9a	0.001073289
99	0x3d14da92	0.036341257
100	0x3cca28d2	0.024677668
101	0xbd6ccfaf	-0.05781525
102	0xbbd316e6	-0.0064419387
103	0xbbe35b2f	-0.00693836
104	0x3d0374b0	0.032093704
105	0x3d037cf1	0.032101575
106	0xbcadddfd	-0.021224016
107	0x3cedb019	0.029014634
108	0x3a752c92	0.000935265
109	0x3c9beb6b	0.019033154
110	0x3d85c13a	0.06530996
111	0xbcd1a40d	-0.02559092
112	0x3c81e5b4	0.015856601
113	0xbd32ff8b	-0.043700736
114	0xbc3f0502	-0.011658909
115	0x3b947d3f	0.004531532
116	0x3b3c121c	0.0028697317
117	0x3d128539	0.035771582
118	0xbd8655d2	-0.06559338
119	0x3d459b5d	0.04824387
120	0x3cb90c9c	0.02258902
121	0xbcf6944c	-0.03010001
122	0x3c83e773	0.016101575
123	0x3a0e8892	0.00054372207
124	0x3d4499f1	0.047998372
125	0x3d8bb7ca	0.06822164
126	0xbca612b4	-0.02027259
127	0x3ccf517d	0.025307411

fc.1.weight f4 [128, 128]
0	0x3c658689	0.014009126
1	0xbd99e848	-0.07515007
2	0xbdad5d08	-0.0846501
3	0x3d810eaa	0.06301625
4	0x3bd76b41	0.006574065
5	0xbdb36932	-0.08760299
6	0x3da605e4	0.08106592
7	0xbe4804ac	-0.19533032
8	0x3d7feef7	0.062483754
9	0x3cf9abe1	0.030477466
10	0x3dd5492f	0.10414349
11	0x3dc2f4e9	0.09519369
12	0x3cc5df38	0.02415429
13	0xbd1a2f43	-0.03764273
14	0x3bafe5d3	0.0053679734
15	0x3dcf02e5	0.10107974
16	0x3de66826	0.112503335
17	0x3df317e6	0.11869793
18	0x3e162d9d	0.14665838
19	0xbda4c784	-0.08045867
20	0x3d94a0da	0.072572425
21	0xbd86876d	-0.06568799
22	0xbdf1e519	-0.11811275
23	0x3d5484d9	0.051884506
24	0x38bdf178	9.057199e-05
25	0x3e8724ec	0.26395357
26	0x3e038212	0.12842587
27	0xbb22564a	-0.002477067
28	0x3d2628a8	0.040566117
29	0x3d490fdb	0.049087387
30	0x3d56fb95	0.05248602
31	0xbe25b08a	-0.16180626
32	0x3dac37c1	0.08409072
33	0x3cae7fb3	0.021301126
34	0xbca1e486	-0.019762289
35	0x3e45d16c	0.1931817
36	0x3d90c9eb	0.07069763
37	0xbd83768a	-0.06419094
38	0xbda29443	-0.07938435
39	0x39df5462	0.00042596745
40	0xbe0edc69	-0.13951267
41	0x3c3fc855	0.011705478
42	0xbcdc6457	-0.026903315
43	0xbe522895	-0.20523293
44	0xbd57b177	-0.052659478
45	0x3d098b81	0.033580307
46	0xbdf6f9e0	-0.120593786
47	0x3ea728b5	0.32648245
48	0x3c41c0e3	0.011825773
49	0x3d3c12f1	0.0459165
50	0xbe6c5a79	-0.23081388
51	0xbca1e6a5	-0.0197633
52	0x3e6beebd	0.2304029
53	0xbe170fbe	-0.14752099
54	0xbd2bccde	-0.041943423
55	0x3da97528	0.08274299
56	0x3dfd56da	0.12370081
57	0xbe4c7f68	-0.19970477
58	0x3b29f165	0.0025931236
59	0xbe56306a	-0.20916906
60	0x3d866f3a	0.065641835
61	0x3a95232c	0.001137828
62	0x3caa56fa	0.020793427
63	0x3d272b94	0.040813044
64	0xbcbba760	-0.022906959
65	0x3de94123	0.11389377
66	0x3c619926	0.013769424
67	0xbe2a0683	-0.16604047
68	0x3e1f9996	0.15585932
69	0xbd003157	-0.031297054
70	0x3d601690	0.054709017
71	0x3ce3a1b0	0.02778706
72	0xbd2d7dda	-0.04235635
73	0x3e3f3240	0.18671513
74	0x3e1980ed	0.14990588
75	0x3dd6cda9	0.10488445
76	0x3c472d79	0.012156838
77	0x3e0213cf	0.12702869
78	0x3db3371f	0.08750748
79	0xbd502e7a	-0.050825574
80	0x3e0b9b2e	0.13633415
81	0xbe53c0dd	-0.2067904
82	0xbe0bb778	-0.13644207
83	0xbd8b2250	-0.06793654
84	0xbd599a70	-0.0531258
85	0x3e3cf9f3	0.18454723
86	0xbdb1004e	-0.08642636
87	0xbb0ef128	-0.002181122
88	0x3d74f98d	0.059808303
89	0x3d81e2e2	0.063421026
90	0xbd939522	-0.07206179
91	0x3d9b760a	0.075908735
92	0xbe178678	-0.1479739
93	0xbd634657	-0.055487003
94	0x3d79b76a	0.060965933
95	0x3d358508	0.04431632
96	0xbcfda969	-0.03096457
97	0x3e0b8ca3	0.13627867
98	0x3e4d74ee	0.20064136
99	0xbdf285d3	-0.11841931
100	0x3de7a264	0.113102704
101	0xbd8d53d4	-0.069007546
102	0x3e42f42d	0.19038458
103	0x3da7c0d9	0.0819108
104	0x3c901915	0.017590085
105	0x3d606b16	0.054789625
106	0x3e13f8b6	0.14450344
107	0xbdf2fa2d	-0.118641235
108	0xbe82a3a3	-0.2551547
109	0x3d651c1b	0.055935007
110	0x3e331976	0.17490181
111	0xbddcb899	-0.10777397
112	0xbe1e4d23	-0.15459113
113	0xbdd4742d	-0.10373721
114	0x3b34e9c7	0.0027605162
115	0xbdcc369c	-0.099713534
116	0x3e9d21af	0.3068976
117	0x3e7aa6a1	0.24477626
118	0xbd7c85bc	-0.061650977
119	0xbc8f7887	-0.017513527
120	0xbe60890d	-0.2192728
121	0x3e581ea1	0.21105434
122	0x3e3c52c5	0.18390949
123	0xbdc89c47	-0.097954325
124	0xbdd8c691	-0.105847485
125	0x3d1863db	0.037204605
126	0x3d306334	0.043063357
127	0x3d65ba15	0.056085665
128	0xbb1405c2	-0.002258644
129	0xbba754e7	-0.0051065567
130	0x3dccd495	0.10001484
131	0x3da70774	0.081557184
132	0xbe66278b	-0.22476022
133	0xbd1af51d	-0.037831414
134	0x3d2e4b98	0.04255256
135	0xbe1639ff	-0.14670561
136	0xbe861220	-0.26185703
137	0xbcd69017	-0.026191754
138	0x3e057bff	0.13035582
139	0xbd80e7ef	-0.06294238
140	0x3da4d0df	0.080476515
141	0xbddaccd3	-0.10683598
142	0xbd6cc824	-0.057808056
143	0x3defc69c	0.117078036
144	0xbdf730ec	-0.12069878
145	0x3e030c96	0.1279777
146	0xbe037fe5	-0.12841757
147	0xbe205c1f	-0.15660141
148	0xbe1372f9	-0.14399327
149	0x3ac59b6a	0.0015076224
150	0x3d1fd8c4	0.039025083
151	0x3d805bc8	0.06267506
152	0x3d36652a	0.04453007
153	0x3c37e4be	0.01122397
154	0xbe5b5df4	-0.21422559
155	0x3ce3ad6d	0.027792657
156	0x3e17be03	0.14818577
157	0x3eb6c63a	0.3569811
158	0xbd7848fd	-0.060616482
159	0xbca9cb92	-0.020726953
160	0xbda16994	-0.078814656
161	0x3e6821ef	0.22669195
162	0x3e77c252	0.24195221
163	0xbe4ab1a4	-0.19794327
164	0xbba96649	-0.005169664
165	0xbe12ca2b	-0.14334933
166	0xbdac4a94	-0.08412662
167	0x3d8a0b04	0.06740382
168	0x3e611ac0	0.2198286
169	0xbe6a130d	-0.2285883
170	0xbe3de1ca	-0.18543163
171	0x3e15e429	0.14637817
172	0x3c284dc5	0.010272448
173	0xbd3270d6	-0.04356464
174	0xbe01c6d2	-0.126735
175	0x3e4a8800	0.19778442
176	0x3c5742e5	0.0131385075
177	0xbd8d326a	-0.06894381
178	0x3d0989ec	0.0335788
179	0xbd8853c4	-0.06656602
180	0xbb0d4771	-0.0021557475
181	0xbe12f817	-0.14352451
182	0x3cc1c73e	0.023654576
183	0x3e109a87	0.14121448
184	0xbdb44a71	-0.08803261
185	0xbda93af3	-0.08263197
186	0xbe5836c3	-0.2111464
187	0xbd17b083	-0.03703357
188	0x3e1301ae	0.1435611
189	0x3e0cccd0	0.13750005
190	0x3db007a9	0.08595211
191	0x3e868a84	0.26277554
192	0x3d3ea9e6	0.046548747
193	0x3d91c5d7	0.07117813
194	0x3d04f604	0.03246118
195	0x3e1aaba4	0.15104538
196	0x3cd363ce	0.025804427
197	0xbc9feaf1	-0.019521208
198	0x3d62a607	0.055334117
199	0xbe4a5afa	-0.19761267
200	0x3dea81dd	0.11450551
201	0xbdd0d81c	-0.101974696
202	0xbdcf681e	-0.10127281
203	0xbdbe710e	-0.09298907
204	0x3be41cbe	0.006961434
205	0x3e1172cb	0.14203946
206	0x3d5799bb	0.052636843
207	0xbdc8775d	-0.09788392
208	0x3da0d420	0.0785296
209	0xbb83f54b	-0.004027044
210	0x3baf9f6f	0.005359582
211	0xbd15ba57	-0.03655466
212	0x3d31b8ff	0.043389317
213	0xbd9fea25	-0.078083314
214	0x3e2f6b76	0.17130837
215	0x3c07ac87	0.00828088
216	0xbde3c631	-0.111217864
217	0x3dc28a9a	0.094990924
218	0x3e91fce1	0.28513244
219	0xbdf4ff0d	-0.119627096
220	0x3e372d3d	0.17888351
221	0xbdffa5c7	-0.124827914
222	0xbcac79aa	-0.021054108
223	0x3cf4eadb	0.029897144
224	0x3d4c1343	0.049823057
225	0xbda6e98c	-0.08150014
226	0xbc50110e	-0.012699379
227	0x3e5064e5	0.20350988
228	0xbebc2429	-0.36746338
229	0xbdfb3833	-0.122665785
230	0xbdae3410	-0.08506024
231	0x3cbe57a2	0.023235146
232	0xbe454152	-0.19263199
233	0x3d362748	0.044471055
234	0xbce2c704	-0.027682789
235	0x3db68332	0.08911742
236	0x3e1b70d1	0.15179755
237	0xbdd58b15	-0.104269184
238	0xbe3c2df2	-0.18376902
239	0xbd4fece4	-0.050763026
240	0x3e8eb664	0.27873528
241	0xbd795afa	-0.060877778
242	0xbe78d261	-0.24299003
243	0x3da5e639	0.08100552
244	0xbddb06cd	-0.106946565
245	0x3d901ef1	0.070371516
246	0x3e2befc0	0.16790676
247	0xbd1cfca0	-0.03832686
248	0x3df154ae	0.117837295
249	0x3c1f34f7	0.009717218
250	0xbe31fe88	-0.17382252
251	0xbdd79b58	-0.10527676
252	0x3d2dedd3	0.042463135
253	0xbea8f10c	-0.32996404
254	0xbd9e2ab5	-0.077229895
255	0x3d6cd526	0.05782046

fc.1.bias f4 [128]
0	0xbc347c02	-0.011015894
1	0x3d9fb862	0.0779884
2	0xbc087632	-0.008328961
3	0x3d94e010	0.07269299
4	0x3d758265	0.059938807
5	0x3d8df975	0.06932346
6	0x3bd9712f	0.006635807
7	0xbccf7757	-0.02532546
8	0xbdaa3f27	-0.083128266
9	0x3bf912da	0.0076011242
10	0xbc1b50ae	-0.009479685
11	0xbc9f581c	-0.019451194
12	0x3c998d64	0.018744178
13	0xbcdbb6f9	-0.026820647
14	0x3da997c7	0.08280902
15	0x3d944143	0.0723901
16	0xbc2bc4be	-0.010483919
17	0xbc1081a0	-0.0088199675
18	0x3ce397a7	0.027782274
19	0x3da974d4	0.08274236
20	0x3d31f792	0.043448992
21	0x3d4f39d1	0.050592247
22	0x3da57049	0.08078057
23	0x3d2fb494	0.042896822
24	0x3da73c07	0.08165746
25	0xbc663d7f	-0.014052748
26	0xbda780d1	-0.08178867
27	0xbcc5282c	-0.024067007
28	0xbd06f28c	-0.032946154
29	0xbda729f4	-0.08162299
30	0xbca1c77d	-0.019748444
31	0xbda93792	-0.08262552
32	0xbda5b104	-0.08090404
33	0x3cc84e27	0.024451328
34	0x3da6e5c4	0.08149293
35	0x3d018d77	0.031629052
36	0xbda4a028	-0.0803836
37	0xbda2faab	-0.07957967
38	0xbc815591	-0.015787872
39	0x3da0141f	0.07816338
40	0x3a9f133d	0.0012136471
41	0x3bad11ea	0.0052816765
42	0x3dbc4815	0.09193436
43	0xbc49f5a5	-0.012326633
44	0x3ca78871	0.020450803
45	0x3c88fb13	0.016721284
46	0x3d7496bc	0.059714064
47	0x3c43406a	0.011917213
48	0xbcb59dfc	-0.02217006
49	0x3cd575f3	0.02605722
50	0xbc882e82	-0.01662374
51	0x3d083fce	0.033263974
52	0xbc065ef3	-0.008201349
53	0xbbdd02d3	-0.0067447214
54	0x3d8ff969	0.07029993
55	0xbca408b9	-0.02002369
56	0xbc2cd792	-0.010549443
57	0xbda93828	-0.08262664
58	0x3d9998a0	0.07499814
59	0x3cb6b63a	0.02230369
60	0x3d6194c6	0.055073522
61	0xbb5dd466	-0.0033848523
62	0x3cb5231f	0.022111474
63	0x3cd4464c	0.025912426
64	0x3d5781e3	0.052614104
65	0x3d92588a	0.07145794
66	0x3da89855	0.0823218
67	0x3da9ed8f	0.08297264
68	0x3ca1c348	0.019746438
69	0xbce6e781	-0.028186562
70	0x3d8ac97a	0.0677671
71	0x3d378228	0.04480186
72	0xbb1d0a8e	-0.002396259
73	0x3ac17ca2	0.0014761875
74	0xbda47367	-0.08029824
75	0x3da3afd0	0.07992518
76	0x3ce43c28	0.027860716
77	0x3d65d333	0.05610962
78	0xbdaa1ce3	-0.08306291
79	0x3cdde282	0.027085546
80	0xbd168299	-0.03674564
81	0x3da9a3b4	0.08283177
82	0x3cd11cbe	0.0255264
83	0xbda62bc7	-0.081138186
84	0xbd1aa29f	-0.037752744
85	0xbd109f84	-0.035308376
86	0xbd043a4e	-0.032282166
87	0xbc5f8b5d	-0.013644067
88	0xbc8f6189	-0.017502563
89	0x3cd878fd	0.02642488
90	0x3d59d85e	0.05318486
91	0x3a3a7bdc	0.00071137934
92	0x3da7ea1d	0.081989504
93	0x3c202fc8	0.009777017
94	0xbb79d692	-0.0038122279
95	0x3d0a6dff	0.033796307
96	0xbda360d0	-0.0797745
97	0xbc2d2bb0	-0.010569498
98	0x3c1dc6a5	0.00962988
99	0x3bc1a2a8	0.0059092827
100	0x3d62c8a6	0.055367135
101	0xbc0800ea	-0.008300999
102	0x3d33dfe3	0.043914687
103	0x3b4df552	0.003142674
104	0xbb9b5e10	-0.0047414377
105	0xbda0f392	-0.07858957
106	0x3da95e30	0.08269918
107	0x394635b9	0.00018902765
108	0x3d12a99a	0.035806276
109	0x3b9af293	0.004728624
110	0x3d1a88d1	0.037728135
111	0x3dad2e38	0.08456081
112	0xbda99024	-0.08279446
113	0x3dac209b	0.084046565
114	0x3d291acb	0.041285317
115	0x3d8751ef	0.066074245
116	0xbc8b923f	-0.017037509
117	0x3da60e2e	0.08108173
118	0xbca0c362	-0.019624416
119	0xbbea4e73	-0.007150465
120	0xbc1fdb04	-0.009756807
121	0x3c36bc69	0.011153319
122	0x3cac0131	0.020996662
123	0x3cf131e2	0.029442731
124	0xbdb01136	-0.08597033
125	0x3dc6048d	0.09668837
126	0x3db7e879	0.089798875
127	0x3ceafc08	0.028684631

fc.2.weight f4 [1, 128]
0	0xbda3c01d	-0.07995627
1	0x3ea73e40	0.3266468
2	0x3cb74da6	0.022375893
3	0x3f41a80f	0.7564706
4	0x3ec034e4	0.37540352
5	0x3e6723ac	0.22572201
6	0x3e32eaae	0.17472336
7	0xbda13506	-0.078714415
8	0xbe1b8a40	-0.15189457
9	0x3e1814e0	0.14851713
10	0xbe9358b3	-0.2877861
11	0x3dd4aa2a	0.10384019
12	0x3ea32e64	0.3187133
13	0xbe1624ae	-0.1466243
14	0x3e97c348	0.29641175
15	0x3e38ea04	0.1805802
16	0xbe227125	-0.15863474
17	0xbdeeabc2	-0.11653854
18	0x3e23bb4b	0.15989415
19	0x3e499d5b	0.19688933
20	0x3e9ab0b5	0.30212942
21	0x3df85841	0.12126208
22	0x3ea74bc3	0.3267499
23	0xbe75f94f	-0.24020885
24	0x3ea623e3	0.32449254
25	0xbe4197a0	-0.18905497
26	0xbe5cbf53	-0.2155736
27	0xbccb8ad0	-0.024846464
28	0xbe25c31d	-0.16187711
29	0xbe1e9a8f	-0.15488647
30	0xbe370c5b	-0.17875807
31	0xbe20b36e	-0.15693447
32	0xbe693cc7	-0.22777091
33	0xbe905f43	-0.2819768
34	0x3ea1d7b3	0.31609878
35	0x3e27130e	0.16315863
36	0xbe9aa3a5	-0.30202976
37	0xbec5db29	-0.38643768
38	0xbe40b5ce	-0.18819353
39	0x3eb144ec	0.34622896
40	0xbe9b171f	-0.30291077
41	0x3e0d5dd7	0.13805328
42	0x3e105b08	0.14097226
43	0xbe0faf1d	-0.14031644
44	0xbdf71786	-0.120650336
45	0xbe91dea5	-0.28490177
46	0x3dac4598	0.084117115
47	0xbe844221	-0.25831702
48	0xbdc627ff	-0.096755974
49	0x3e2aab5b	0.1666693
50	0xbebca53c	-0.36844814
51	0xbe8724cd	-0.26395264
52	0xbe23a66d	-0.15981455
53	0x3e8f6eff	0.2801437
54	0x3e8731ff	0.26405331
55	0xbec9728d	-0.39345208
56	0x3e033600	0.12813568
57	0xbe4fce54	-0.20293552
58	0x3e758eaf	0.2398021
59	0xbe274c21	-0.16337635
60	0x3eac5dfa	0.33665448
61	0xbd3bc0d8	-0.045838207
62	0xbe0f9327	-0.14020978
63	0xbe2ae342	-0.16688254
64	0x3e7ab033	0.24481277
65	0x3e42be17	0.19017826
66	0x3eb62cf2	0.35581166
67	0x3e8e891c	0.2783898
68	0xbe984aff	-0.29744717
69	0xbdf1a61f	-0.11799263
70	0x3ea95783	0.3307458
71	0x3ec9e9e4	0.39436257
72	0xbe770e8a	-0.2412664
73	0xbdce4abb	-0.100728475
74	0xbe9cb98f	-0.3061032
75	0x3e954367	0.29152986
76	0xbeef5c62	-0.4675017
77	0x3eea0078	0.45703483
78	0xbe534b09	-0.20634092
79	0xbe313ea7	-0.17309056
80	0xbe074ca7	-0.13212834
81	0x3e9825bf	0.29716298
82	0x3e99d0f7	0.3004224
83	0xbe9a6bd0	-0.3016038
84	0xbc993cb4	-0.018705703
85	0xbe550cdb	-0.20805685
86	0xbe32bcd7	-0.17454849
87	0x3d8702c0	0.065923214
88	0xbeaf1380	-0.34194565
89	0x3e1789be	0.14798638
90	0x3e920b9e	0.28524488
91	0x3d493dec	0.04913132
92	0x3e6c71ff	0.23090361
93	0xbe366068	-0.17810214
94	0x3df89c7b	0.12139221
95	0xbe64fa2b	-0.22361057
96	0xbeb7dc95	-0.35910478
97	0x3c9a99b2	0.018872116
98	0xbeba4fe3	-0.36389074
99	0xbe6a5bf2	-0.22886637
100	0x3e11891a	0.14212456
101	0xbe3e9f18	-0.18615377
102	0xbe565ecf	-0.20934604
103	0xbe2d0f70	-0.1690042
104	0xbeae2310	-0.34011126
105	0xbe6e1c55	-0.23252995
106	0x3e55f304	0.20893484
107	0xbe425cac	-0.18980664
108	0x3e4b880b	0.19876115
109	0x3e38cc07	0.1804658
110	0xbf0514fa	-0.5198513
111	0x3e45791e	0.19284484
112	0xbe50e450	-0.20399594
113	0x3e60d132	0.21954802
114	0xbeb3fed1	-0.35155347
115	0x3e5dfe51	0.21679045
116	0xbe93d70c	-0.28875005
117	0x3eb2df1a	0.34935838
118	0x3e4aa2bf	0.19788645
119	0xbdb71620	-0.08939767
120	0xbdaad2a2	-0.08340956
121	0xbe31a2f8	-0.17347324
122	0xbea68e82	-0.325306
123	0x3e2ac8c5	0.1667815
124	0xbdf36b89	-0.11885745
125	0x3e8612a4	0.26186097
126	0x3e44c1e9	0.19214596
127	0x3e25408d	0.16137905
