data/pour_red_pose_c.pt (torch_old, 85015 bytes, 5 tensors)

fc.0.weight f4 [128, 9]
0.4962232 -0.35086772 -0.29850146 -0.0029439945 -0.18947579 0.30921638 -0.060879786 -0.027906423
-0.036467876 -0.111091144 0.16364084 -0.082918696 -0.14281173 0.32347733 0.49831295 0.17444162
-0.12395553 -0.17685263 -0.18039426 -0.17696898 0.10459963 0.14476751 0.09881092 -0.10707899
0.20769487 -0.26503685 0.18146771 0.04296848 0.12250655 -0.36511222 -0.15015431 0.012185703
-0.17317353 0.18770105 -0.13826165 0.05819217 -0.40774116 -0.07408365 -0.326011 0.15918317
0.49661282 0.2350101 0.1992744 -0.096368775 -0.30622846 -0.05721247 0.09241183 -0.076577686
-0.2561559 -0.015184546 -0.45191255 0.096784785 0.019713907 0.20263432 0.04715163 0.1027953
-0.20494787 -0.30691272 0.01570551 0.42330664 0.12503424 0.15377271 -0.15201513 -0.095054455
0.09615974 -0.4352583 0.09879455 0.06256535 0.04856929 -0.110299975 0.26593515 -0.6630222
0.44244695 -0.34102014 -0.088258885 -0.14363919 0.03391803 -0.31410605 0.02004222 -0.31806558
-0.17925918 -0.19516256 0.034508605 0.35345918 -0.06460859 0.22211331 -0.19578259 0.2792573
-0.08819187 -0.17553455 0.028525367 -0.31309015 0.14951816 0.12395236 0.12699868 0.03139032
0.116329424 -0.1836824 0.057666752 -0.3783089 -0.05098288 -0.18504132 0.114486344 0.23227154
0.5648892 -0.2244187 0.25366932 -0.19133674 -0.39846894 -0.4767301 0.016356416 0.14321947
0.011676242 -0.29811892 -0.049613226 -0.11034435 0.32578433 0.16222066 -0.052727424 0.078059226
0.17581488 -0.20353934 0.302941 -0.38144296 -0.08771778 0.19056106 -0.5233205 -0.09896755
-0.07020797 0.11095721 0.09857669 0.20653194 0.17157003 -0.023018274 -0.1405506 0.09546787
0.07359539 -0.35003787 0.08423903 -0.05809785 -0.059223555 -0.1827662 0.26789746 0.2561527
0.077884585 0.12145813 0.30162793 -0.20702967 -0.3068686 -0.22154288 -0.19656177 -0.087007225
-0.09515075 -0.26575252 -0.15439782 -0.3411363 0.203815 -0.047699556 -0.039096657 0.18686156
-0.059173226 -0.20673779 0.1400561 -0.21622221 -0.17134964 -0.44830972 0.13688852 -0.09101849
0.07039853 -0.06791834 0.06623735 -0.24860027 0.40729007 0.20590682 0.17707905 0.20598416
0.25982046 0.1187875 0.04904441 -0.44884714 -0.29626855 -0.11934703 0.3212502 -0.18948773
-0.08575567 -0.073607676 0.12247534 0.008563595 -0.0559207 -0.2053795 -0.11364373 0.24606569
0.15382212 -0.076842405 0.24457456 -0.1288976 -0.007824583 -0.110503875 -0.09122025 -0.08942312
-0.03390054 -0.09636669 -0.09784169 -0.42732713 0.038304422 -0.35601154 -0.011499842 0.04434481
-0.49586073 0.07230099 -0.014012846 -0.24071993 0.15673928 -0.15589845 -0.12904894 0.17794675
-0.11445261 -0.18374641 -0.216292 0.3577226 0.2617377 0.32865378 0.1834122 -0.13973498
-0.315473 0.03160151 0.023078304 0.0583534 -0.33518592 0.043760233 -0.23319884 -0.09865098
0.11793963 0.12053932 0.25713903 0.23673421 0.5277552 0.04721431 0.0356501 -0.08914619
-0.29231143 0.35197958 -0.015921565 -0.1921081 0.5316107 -0.2640457 0.072453074 0.2851455
0.40495038 -0.056385476 -0.08776281 -0.17616355 -0.19706905 -0.27078348 0.022209669 0.17549138
00000000: f810 fe3e efa4 b3be 2fd5 98be 08f0 40bb
00000010: f105 42be 9c51 9e3e 155d 79bd 039c e4bc
00000020: 575f 15bd c183 e3bd 7791 273e 47d1 a9bd
00000030: 3d3d 12be d29e a53e e022 ff3e d3a0 323e
00000040: 66dc fdbd db18 35be 46b9 38be 5b37 35be
00000050: 5538 d63d ef3d 143e 615d ca3d 3b4c dbbd
00000060: f7ad 543e e9b2 87be acd2 393e b8ff 2f3d
00000070: b7e4 fa3d fdef babe 0dc2 19be 8ba6 473c
00000080: 6754 31be b434 403e 7694 0dbe ea5a 6e3d
00000090: 73c3 d0be 2bb9 97bd eaea a6be ea00 233e
000000a0: 0944 fe3e 7da6 703e 970e 4c3e fe5c c5bd
000000b0: fac9 9cbe 9f57 6abd 6a42 bd3d c3d4 9cbd
000000c0: de26 83be 9ac8 78bc 1561 e7be 1a37 c63d
000000d0: 0f7f a13c 5f7f 4f3e 1122 413d 5886 d23d
000000e0: dbdd 51be aa23 9dbe d7a8 803c a6bb d83e
000000f0: fa08 003e 9876 1d3e dba9 1bbe e9ab c2bd
00000100: 66ef c43d 2dda debe cc54 ca3d 4322 803d
00000110: 98f0 463d f4e4 e1bd a728 883e d3bb 29bf
00000120: 6888 e23e 319a aebe 13c1 b4bd 2716 13be
00000130: a2ed 0a3d 82d2 a0be 952f a43c 7ed9 a2be
00000140: b88f 37be b2d8 47be e558 0d3d 9af8 b43e
00000150: 8251 84bd ac71 633e 3b7b 48be d0fa 8e3e
00000160: f09d b4bd 54bf 33be 08ae e93c 5a4d a0be
00000170: 4a1b 193e bcda fd3d f10b 023e 2393 003d
00000180: 1f3e ee3d 3d17 3cbe f933 6c3d b4b1 c1be
00000190: 6dd3 50bd 797b 3dbe d177 ea3d 97d8 6d3e
000001a0: 949c 103f 04ce 65be f2e0 813e c7ed 43be
000001b0: 1f04 ccbe f815 f4be e4fd 853c 20a8 123e
000001c0: b54d 3f3c 0ba3 98be 3d37 4bbd 38fc e1bd
000001d0: 34cd a63e 2c1d 263e b6f8 57bd 84dd 9f3d
000001e0: d108 343e 9e6c 50be 151b 9b3e 7e4c c3be
000001f0: 61a5 b3bd 7022 433e 55f8 05bf 80af cabd
00000200: 32c9 8fbd 893d e33d 93e2 c93d 1c7d 533e
00000210: 0eb0 2f3e d290 bcbc 7fec 0fbe a984 c33d
00000220: 2eb9 963d 2a38 b3be 8385 ac3d 03f8 6dbd
00000230: 6694 72bd 1027 3bbe db29 893e 7226 833e
00000240: f481 9f3d 0abf f83d fa6e 9a3e 96ff 53be
00000250: e21d 9dbe 23dc 62be 7d47 49be d830 b2bd
00000260: 65de c2bd b710 88be 761a 1ebe 6ba9 aebe
00000270: e1b4 503e 9c60 43bd d123 20bd a358 3f3e
00000280: a05f 72bd 12b3 53be de6a 0f3e 5b69 5dbe
00000290: 4876 2fbe da88 e5be 812c 0c3e e767 babd
000002a0: 1b2d 903d c518 8bbd 73a7 873d 1291 7ebe
000002b0: 5388 d03e 3dd9 523e 3654 353e 83ed 523e
000002c0: 3007 853e dc46 f33d cbe2 483d 4bcf e5be
000002d0: 83b0 97be 376c f4bd e87a a43e 1209 42be
000002e0: aba0 afbd 9fbf 96bd 5ad4 fa3d 524e 0c3c
000002f0: 1b0d 65bd 014f 52be 0bbe e8bd a5f8 7b3e
00000300: 8c83 1d3e 8d5f 9dbd c171 7a3e bcfd 03be
00000310: ae32 00bc db4f e2bd afd1 babd 7823 b7bd
00000320: 4bdb 0abd e65b c5bd 3961 c8bd 9fca dabe
00000330: 19e5 1c3d 2547 b6be d569 3cbc e7a2 353d
00000340: 75e1 fdbe 8b12 943d 2396 65bc 497f 76be
00000350: 4380 203e d8a3 1fbe 6825 04be ac37 363e
00000360: 2166 eabd 0528 3cbe a67b 5dbe 6b27 b73e
00000370: 7c02 863e 4f45 a83e 68d0 3b3e b016 0fbe
00000380: ad85 a1be 9670 013d b60e bd3c fa03 6f3d
00000390: 7d9d abbe ee3d 333d adcb 6ebe 8609 cabd
000003a0: 558a f13d 52dd f63d baa7 833e 746a 723e
000003b0: f71a 073f cb63 413d d705 123d 4792 b6bd
000003c0: d8a9 95be ab36 b43e f16d 82bc fcb7 44be
000003d0: a417 083f ff30 87be 4762 943d 97fe 913e
000003e0: a855 cf3e 75f4 66bd fdbc b3bd 3864 34be
000003f0: 78cc 49be 22a4 8abe 0df1 b53c 03b4 333e

fc.0.bias f4 [128]
0.030907463 0.07025245 -0.040732615 -0.0063402853 0.1492291 -0.00074521673 0.05066977 0.17166823
0.04261512 0.19020543 -0.002750349 0.04065069 -0.028364656 -0.14107996 0.1429648 -0.0042176745
-0.08263202 0.23347309 0.11537337 0.19274582 0.049406745 -0.072655216 -0.045083523 -0.19521351
0.16562267 -0.027679272 -0.1278908 0.12892498 0.15818875 0.25719556 0.11768474 0.072275616
0.07297013 0.016376844 0.11722491 -0.012665869 0.013182324 0.1768969 0.10481745 -0.0030867946
-0.012881072 0.11430941 0.08526487 -0.18015407 0.037699264 -0.02125444 -0.13435489 0.12491125
0.23974295 0.05065245 0.10754889 -0.11644162 0.18124492 0.18992093 0.15890509 -0.06265408
0.0263558 0.06621639 0.019627778 0.035247523 -0.02249232 -0.018696941 0.023350772 -0.1967955
-0.032122068 -0.040652238 -0.031404212 0.06168186 0.06570426 0.18019891 0.01062478 0.09454313
0.23951478 0.016080191 0.18044147 0.011747258 -0.043924287 -0.16828032 0.032461938 -0.076696284
-0.0059049935 0.082554005 0.089405045 0.22655946 -0.041390054 -0.041264713 0.10123834 -0.11256606
0.00092307356 -0.100396454 0.005176309 0.0073300707 0.08531577 -0.015548407 -0.028595299 0.0071478277
0.15490057 0.008761073 0.18688193 -0.115352236 0.24869217 0.14303796 0.005797672 0.001458847
0.06393698 -0.034354627 0.17269439 0.009911738 -0.009012947 -0.104682155 0.040045973 -0.0044283275
-0.20127656 0.03487659 0.04448344 0.13579997 0.011046315 0.09173497 -0.026881125 -0.013003701
-0.12583365 -0.09265861 -0.14727226 0.1060411 0.046358626 0.15744865 0.031052675 0.024782361
00000000: a631 fd3c 84e0 8f3d 3ed7 26bd 2bc2 cfbb
00000010: 83cf 183e a65a 43ba 1b8b 4f3d ccc9 2f3e
00000020: 318d 2e3d 36c5 423e 333f 34bb 5781 263d
00000030: ff5c e8bc 4477 10be 5d65 123e 6b34 8abb
00000040: fa3a a9bd 9213 6f3e e048 ec3d 295f 453e
00000050: ba5e 4a3d 42cc 94bd 80a9 38bd 0de6 47be
00000060: fd98 293e a4bf e2bc cef5 02be e904 043e
00000070: 3bfc 213e 23af 833e b204 f13d 3d05 943d
00000080: 5d71 953d bb28 863c 9d13 f03d 8184 4fbc
00000090: adfa 573c 7624 353e 88aa d63d d24b 4abb
000000a0: 220b 53bc 0d1b ea3d 599f ae3d 4f7a 38be
000000b0: 8b6a 1a3d cb1d aebc 5494 09be 78d1 ff3d
000000c0: 2d7f 753e f278 4f3d 9842 dc3d f278 eebd
000000d0: 4598 393e a27a 423e 04b8 223e c850 80bd
000000e0: 1ee8 d73c 759c 873d 6fca a03c b55f 103d
000000f0: d041 b8bc 542a 99bc 1e4a bf3c c284 49be
00000100: 6e92 03bd f682 26bd b4a1 00bd 1ea6 7c3d
00000110: f48f 863d 1086 383e 8f13 2e3c d49f c13d
00000120: 5d43 753e 9bba 833c a6c5 383e 9277 403c
00000130: f4e9 33bd ad51 2cbe cff6 043d f112 9dbd
00000140: ad7e c1bb 1312 a93d fe19 b73d 34ff 673e
00000150: 9e88 29bd 3005 29bd 0c56 cf3d 0989 e6bd
00000160: 6bfa 713a a89c cdbd 079e a93b 1731 f03b
00000170: 09ba ae3d bfbe 7ebc b040 eabc 5338 ea3b
00000180: 419e 1e3e 9b8a 0f3c fa5d 3f3e cb3d ecbd
00000190: 29a9 7e3e 8b78 123e 66fa bd3b c836 bf3a
000001a0: 64f1 823d 70b7 0cbd ccd6 303e d864 223c
000001b0: 0aab 13bc 9963 d6bd 3f07 243d 811b 91bb
000001c0: 711b 4ebe c1da 0e3d 4534 363d 260f 0b3e
000001d0: 9afb 343c 8bdf bb3d ce35 dcbc 7a0d 55bc
000001e0: 89da 00be ccc3 bdbd 8ace 16be 142c d93d
000001f0: 8be2 3d3d 383a 213e 2e62 fe3c 6104 cb3c

fc.1.weight f4 [128, 128]
0.014993459 -0.16942413 0.04130878 0.047696523 0.09167096 0.34320757 -0.121165365 -0.10212163
0.26688597 -0.15315585 -0.09147739 0.074096315 0.018832754 -0.159297 -0.06394674 0.015433473
0.0565841 -0.0137001015 -0.15050445 -0.13763699 -0.09219393 0.05519668 0.28265128 -0.29985556
0.14384964 0.18104666 0.021718854 0.051364705 0.06304708 0.058631036 0.20726846 0.20312369
0.20661184 0.018752778 -0.18571834 0.2193147 0.32074085 -0.030336997 0.08817223 0.1938407
0.16059293 -0.2505679 0.23404424 -0.007845078 -0.15107879 0.16359852 -0.048187897 0.0058248746
-0.029997403 0.23569421 -0.0848882 0.017586442 -0.11579463 0.13939872 0.10223952 -0.08869248
-0.09408061 0.055767097 -0.268209 0.026552247 0.22070512 -0.015061749 0.16870134 -0.18657504
0.00946607 -0.15606436 0.030404499 -0.10382749 -0.11574034 -0.001296164 -0.0025927247 -0.2878031
-0.025274511 -0.033066146 -0.0705783 0.13662443 -0.03897138 0.06708829 -0.057691973 -0.05605719
-0.0529936 0.12743358 -0.14570765 0.17036718 0.18699336 -0.16504568 0.17857912 0.059281915
0.2696098 0.24980941 -0.021143014 -0.03216057 -0.024518436 0.01026535 0.06762928 0.07164869
-0.1438102 0.1661613 0.030278577 0.22986405 -0.15285128 -0.26673886 0.20384176 -0.051052473
0.12479553 -0.004041642 0.13470405 0.066141285 0.038290743 0.044536266 0.15560462 -0.104725376
-0.07981265 -0.09770804 0.062786 0.23887219 -0.24017438 0.17196786 -0.08042893 -0.092571765
-0.12323155 0.02430799 0.012015177 -0.22917236 0.2041902 0.0859676 -0.0012235001 0.11752346
0.083399735 -0.18001585 -0.13641644 0.053547617 0.27890286 0.4013511 0.07633701 -0.019068073
0.0038314406 -0.19060011 -0.037142087 -0.10776284 -0.11965009 -0.0068419795 -0.20751071 0.16758296
0.037729274 0.050911065 -0.014802693 0.12722182 -0.00015701767 0.21553798 -0.07627175 -0.006063251
-0.3212529 0.15341063 -0.060352128 -0.010592908 -0.15206459 -0.035813976 0.050315864 -0.024504822
-0.06540654 0.084917285 0.029171789 -0.015407451 0.16641091 -0.0850314 -0.032573584 0.00702451
-0.39104116 -0.043060765 -0.09659401 -0.0005567841 -0.01941192 0.13300073 0.033789515 0.06892882
0.33088765 -0.07918774 -0.10317017 -0.09390595 0.017241953 -0.31758156 -0.030752424 -0.108067766
-0.056617968 0.26563466 0.17124414 -0.43115827 -0.19253664 0.34880006 0.05271341 0.1769107
0.04448117 0.2943551 0.05813176 -0.27551544 -0.21327268 -0.14650093 0.03673109 -0.05479036
-0.052055057 0.065317616 -0.23272818 -0.1043541 0.06851734 0.12648141 0.09241413 -0.05609765
0.006163312 -0.18718025 -0.035806637 0.18901859 0.08618052 0.052619386 0.052362397 0.118015476
-0.07430637 -0.061260846 -0.03288155 0.1397682 0.0011215876 0.021146076 0.070388466 0.18283492
0.046724927 0.09220498 -0.17891496 -0.018547291 -0.045490157 -0.2117828 -0.25833207 -0.060058508
0.069312654 -0.16333641 -0.038517807 0.2665675 0.19384205 -0.05772235 0.07311479 0.27760985
0.33004665 0.006039952 0.0277151 -0.11995252 0.047246307 -0.049827393 0.061577212 0.009083931
-0.025327729 0.17255059 0.014700065 -0.009486917 -0.09673638 -0.15782835 0.04275003 -0.15365578
00000000: 20a7 753c 857d 2dbe 6533 293d 6e5d 433d
00000010: fcbd bb3d e7b8 af3e 8c25 f8bd 2525 d1bd
00000020: 47a5 883e e3d4 1cbe 7f58 bbbd cfbf 973d
00000030: 2647 9a3c c11e 23be 82f6 82bd addc 7c3c
00000040: bbc4 673d 6476 60bc d71d 1abe b6f0 0cbe
00000050: 2cd0 bcbd ea15 623d abb7 903e ab86 99be
00000060: 524d 133e 4c64 393e bdeb b13c cc63 523d
00000070: d41e 813d 1927 703d 2f3e 543e a8ff 4f3e
00000080: 0e92 533e 6d9f 993c f32c 3ebe 0894 603e
00000090: 2538 a43e 4b85 f8bc a493 b43d 2d7e 463e
000000a0: 7972 243e 704a 80be 4ba9 6f3e a488 00bc
000000b0: 66b4 1abe 5f86 273e ac60 45bd 97de be3b
000000c0: 1dbd f5bc d359 713e ddd9 adbd 7111 903c
000000d0: bc25 edbd 8abe 0e3e f462 d13d 67a4 b5bd
000000e0: 56ad c0bd 0a6c 643d b152 89be 1984 d93c
000000f0: 8600 623e 8ec5 76bc 0bc0 2c3e 870d 3fbe
00000100: 9317 1b3c 56cf 1fbe db12 f93c 82a3 d4bd
00000110: 4509 edbd 0ce4 a9ba b4ea 29bb ee5a 93be
00000120: 7e0c cfbc 5e70 07bd 5b8b 90bd 46e7 0b3e
00000130: 74a0 1fbd 9665 893d 6b4e 6cbd 399c 65bd
00000140: d10f 59bd f37d 023e 6334 15be bc74 2e3e
00000150: 307b 3f3e bc01 29be 72dd 363e 98d1 723d
00000160: 4c0a 8a3e 0ace 7f3e 1d34 adbc cdba 03bd
00000170: e3da c8bc 0030 283c 3881 8a3d 8cbc 923d
00000180: fb42 13be 3026 2a3e c70a f83c 7b61 6b3e
00000190: 0c85 1cbe ff91 88be e5bb 503e 661c 51bd
000001a0: cd94 ff3d c06f 84bb dcef 093e 1575 873d
000001b0: c1d6 1c3d a96b 363d d156 1f3e 427a d6bd
000001c0: d174 a3bd 271b c8bd f295 803d e99a 743e
000001d0: 46f0 75be 5818 303e ecb7 a4bd 4496 bdbd
000001e0: d360 fcbd 8d21 c73c 4edb 443c 29ac 6abe
000001f0: 3c17 513e c80f b03d da5d a0ba 24b0 f03d
00000200: 7bcd aa3d 1356 38be c0b0 0bbe bf54 5b3d
00000210: 5bcc 8e3e e47d cd3e 9456 9c3d a634 9cbc
00000220: e818 7b3b ad2c 43be 4d22 18bd c4b2 dcbd
00000230: 1b0b f5bd af32 e0bb b07d 54be de9a 2b3e
00000240: 038a 1a3d 1f88 503d ff86 72bc 7046 023e
00000250: 1ca5 24b9 fdb5 5c3e 5d34 9cbd 3cae c6bb
00000260: 437b a4be ad17 1d3e cb33 77bd e08d 2dbc
00000270: d2b6 1bbe adb1 12bd 0218 4e3d 56be c8bc
00000280: ddf3 85bd 1de9 ad3d adf9 ee3c 896f 7cbc
00000290: 9f67 2a3e f124 aebd e16b 05bd dc2d e63b
000002a0: 8c36 c8be 7c60 30bd 15d3 c5bd 26f5 11ba
000002b0: bf05 9fbc 5831 083e e066 0a3d 8e2a 8d3d
000002c0: 1b6a a93e 2f2d a2bd e24a d3bd c351 c0bd
000002d0: ff3e 8d3c 0d9a a2be 82ec fbbc a252 ddbd
000002e0: 3ee8 67bd 4401 883e a05a 2f3e c7c0 dcbe
000002f0: 5328 45be ec95 b23e 04ea 573d 1428 353e
00000300: e331 363d b6b5 963e 921b 6e3d 5c10 8dbe
00000310: 2764 5abe 5704 16be 5773 163d db6b 60bd
00000320: af37 55bd 3ec5 853d 4c50 6ebe 9ab7 d5bd
00000330: d252 8c3d 5884 013e 9f43 bd3d a6c6 65bd
00000340: 9cf5 c93b 2eac 3fbe fba9 12bd 178e 413e
00000350: 6a7f b03d 6d87 573d f479 563d 19b2 f13d
00000360: f02d 98bd a7ec 7abd ceae 06bd 651f 0f3e
00000370: 3c02 933a 893a ad3c d427 903d 1439 3b3e
00000380: a362 3f3d f7d5 bc3d 7c35 37be 7df0 97bc
00000390: e353 3abd 97dd 58be 1a44 84be e9ff 75bd
000003a0: cbf3 8d3d a941 27be d9c4 1dbd 897b 883e
000003b0: 887e 463e 456e 6cbd 35bd 953d e122 8e3e
000003c0: e0fb a83e caea c53b c70a e33c aba9 f5bd
000003d0: 5885 413d cf17 4cbd 6338 7c3d c5d4 143c
000003e0: 197c cfbc 1ab1 303e 8bd8 703c 046f 1bbc
000003f0: b91d c6bd c19d 21be a81a 2f3d f157 1dbe

fc.1.bias f4 [128]
0.050744127 -0.1266973 -0.013896629 0.05351984 -0.016161855 0.18190289 0.22442025 -0.02344249
0.2524989 0.19528149 0.1800319 0.22522905 -0.02275539 0.124732986 -0.009693783 0.20945293
-0.043369703 -0.06216175 -0.038656976 -0.031735975 0.16850138 0.2413577 0.18402262 0.08020635
-0.09776472 0.006160716 -0.0039628553 0.05413274 -0.21431029 0.17349195 0.17056799 -0.007288491
0.21948782 -0.21480201 0.22330685 0.20495847 0.2449595 0.23466524 0.12945315 -0.24985674
-0.026474552 -0.012492356 0.2266698 -0.22077961 0.21979238 0.17042564 -0.006760647 0.22945936
-0.23645009 0.24480478 0.18938158 0.20780466 0.0051603005 -0.21634482 -0.17193063 0.039444223
0.18880138 0.07193832 0.13715585 0.01130769 -0.029594459 -0.015146432 0.0664872 0.10074938
0.22137783 -0.2456938 0.17940672 -0.037288114 0.23961015 0.04195894 -0.021925641 0.19254029
0.22800036 0.0026554975 0.19708747 0.03329393 -0.0071722986 0.15656658 0.22489516 -0.03897546
-0.05910099 0.25205055 0.15625143 0.16340317 0.23225476 0.0052734264 -0.14082876 0.21012749
0.2079168 -0.013755986 0.012896571 0.00710772 0.20335056 0.22216009 0.247062 -0.06479826
0.095546626 0.22716352 0.23472482 -0.06084219 0.06034945 0.06252637 -0.22986488 0.014102816
0.026591307 0.23643379 0.1934901 0.0047473926 -0.23824814 -0.2513819 -0.23650835 0.18221037
0.19031554 0.23609628 0.25463143 0.011345722 0.025901128 -0.039031338 -0.030874582 0.06722115
0.18842098 0.12344569 -0.22446604 0.096763834 0.0013411328 -0.010177196 0.18130815 -0.016526798
00000000: 13d9 4f3d f0bc 01be b0ae 63bc 9f37 5b3d
00000010: de65 84bc c044 3a3e 6cce 653e 770a c0bc
00000020: 8947 813e dff7 473e 485a 383e 72a2 663e
00000030: 8369 babc 0274 ff3d acd2 1ebc d47a 563e
00000040: 6ea4 31bd 529d 7ebd c756 1ebd 95fd 01bd
00000050: a08b 2c3e 7926 773e 6d70 3c3e 3a43 a43d
00000060: df38 c8bd d5df c93b d7da 81bb 4bba 5d3d
00000070: 2874 5bbe e0a7 313e 60a9 2e3e 4bd4 eebb
00000080: 6ac1 603e 0ff5 5bbe 8daa 643e a2e0 513e
00000090: aad6 7a3e 164c 703e 5e8f 043e 72da 7fbe
000000a0: 29e1 d8bc bdac 4cbc 211c 683e 0d14 62be
000000b0: 4111 613e 0f84 2e3e 6b88 ddbb 65f7 6a3e
000000c0: f91f 72be 1bae 7a3e 3fed 413e bfca 543e
000000d0: bd17 a93b 7f89 5dbe 950e 30be 4490 213d
000000e0: 2655 413e 6654 933d 9572 0c3e e443 393c
000000f0: 1470 f2bc be28 78bc 712a 883d b155 ce3d
00000100: dfb0 623e 2897 7bbe 65b6 373e 6cbb 18bd
00000110: 5d5c 753e 23dd 2b3d 679d b3bc 4829 453e
00000120: ed78 693e db07 2e3b 4cd1 493e 375f 083d
00000130: 9a05 ebbb fd52 203e eb4a 663e bba4 1fbd
00000140: e113 72bd c50c 813e 6000 203e 2953 273e
00000150: 31d4 6d3e b5cc ac3b 6a35 10be a92b 573e
00000160: 24e8 543e c960 61bc 244c 533c e0e7 e83b
00000170: 213b 503e ef7d 633e d2fd 7c3e f3b4 84bd
00000180: f3ad c33d 8e9d 683e b45b 703e a935 79bd
00000190: fc30 773d d30d 803d b361 6bbe 7f0f 673c
000001a0: 03d6 d93c b31b 723e 4522 463e 0490 9b3b
000001b0: 52f7 73be 21b5 80be 3f2f 72be 5b95 3a3e
000001c0: 14e2 423e 39c3 713e 0d5f 823e 68e3 393c
000001d0: 9a2e d43c 53df 1fbd b1ec fcbc 3eab 893d
000001e0: 6ef1 403e 18d1 fc3d 6dda 65be 1e2c c63d
000001f0: f3c8 af3a 41be 26bc d8a8 393e 3563 87bc

fc.2.weight f4 [1, 128]
0.23676243 -0.2025527 -0.36879525 0.17686467 -0.14570203 0.4541659 0.34015048 -0.05775453
0.26933414 0.39062265 0.58907735 0.25569946 -0.3481308 0.22841097 -0.2510534 0.42935014
-0.5690346 -0.10910106 -0.102209695 -0.1118592 0.21826708 0.2570216 0.4903777 0.3845009
-0.36702678 -0.43149456 -0.33376533 0.30645722 -0.7465433 0.31146243 0.28871498 -0.34467265
0.5349703 -0.5481185 0.25076255 0.4582387 0.28249437 0.34302413 0.32596675 -0.2821029
-0.2553864 -0.33817106 0.47918767 -0.6564075 0.5140978 0.4396502 -0.36236367 0.30668184
-0.35926402 0.28787312 0.34851232 0.5030939 -0.18543284 -0.6740245 -0.34244275 -0.13738987
0.35269567 0.36189914 0.36598077 -0.19356234 -0.06718405 -0.22583161 0.38502416 -0.21367379
0.3949576 -0.3042399 0.18527156 -0.1440283 0.34707698 0.35660338 -0.4060608 0.23367354
0.29278478 0.24271488 0.36211902 0.24086642 -0.4977127 0.69014734 0.40970293 -0.29980266
-0.13504495 0.25229287 0.40291423 0.23985417 0.3742568 -0.48243156 -0.39869657 0.31430912
0.28112814 -0.35456967 -0.12203754 -0.5640669 0.35468802 0.480213 0.26655474 -0.29123124
0.22177199 0.19551398 0.32378367 -0.00017309163 0.27405506 -0.34409118 -0.28085434 -0.3004439
-0.2723925 0.32574263 0.50766546 -0.13142417 -0.35682267 -0.2724238 -0.35718992 0.37020403
0.25304818 0.25868884 0.29190004 -0.34346193 -0.38283348 -0.12752743 -0.33045498 -0.23267233
0.5465019 0.36250874 -0.4241445 0.44789794 -0.05008477 -0.28639665 0.43642023 -0.14876072
00000000: da71 723e fa69 4fbe bbd2 bcbe 031c 353e
00000010: ea32 15be 6f88 e83e 3428 ae3e 0490 6cbd
00000020: 2ae6 893e b1ff c73e c6cd 163f 0aeb 823e
00000030: 333e b2be 91e4 693e 128a 80be c8d3 db3e
00000040: 40ac 11bf 6070 dfbd 5153 d1bd 7016 e5bd
00000050: 6881 5f3e 5698 833e c912 fb3e 4ddd c43e
00000060: efea bbbe dbec dcbe 4ae3 aabe f6e7 9c3e
00000070: 761d 3fbf 0178 9f3e 73d2 933e ef78 b0be
00000080: d0f3 083f 7e51 0cbf f363 803e 439e ea3e
00000090: 1aa3 903e dca0 af3e 1de5 a63e cb6f 90be
000000a0: 02c2 82be c224 adbe 1658 f53e 520a 28bf
000000b0: ea9b 033f d519 e13e bb87 b9be 6705 9d3e
000000c0: 74f1 b7be 1b64 933e 3570 b23e c3ca 003f
000000d0: 1be2 3dbe df8c 2cbf a854 afbe eeaf 0cbe
000000e0: 8794 b43e d84a b93e d561 bb3e 3535 46be
000000f0: cb97 89bd 6740 67be e321 c53e 4dcd 5abe
00000100: e237 ca3e 55c5 9bbe d4b7 3d3e 287c 13be
00000110: 13b4 b13e b894 b63e 34e7 cfbe 1e48 6f3e
00000120: e3e7 953e 408a 783e aa67 b93e b0a5 763e
00000130: 33d4 febe 7fad 303f 95c4 d13e bc7f 99be
00000140: 3949 0abe 882c 813e c64a ce3e 559c 753e
00000150: 969e bf3e 4501 f7be f521 ccbe 20ed a03e
00000160: 07f0 8f3e 288a b5be d1ee f9bd b066 10bf
00000170: ab99 b53e 7ade f53e dd79 883e 431c 95be
00000180: 3218 633e d134 483e f9c6 a53e ee7f 35b9
00000190: f250 8c3e b82c b0be 24cc 8fbe c8d3 99be
000001a0: 0877 8bbe bdc7 a63e 5df6 013f 0f94 06be
000001b0: 76b1 b6be 227b 8bbe 99e1 b6be 628b bd3e
000001c0: 888f 813e dd72 843e ec73 953e 3eda afbe
000001d0: c002 c4be 8d96 02be 6531 a9be a841 6ebe
000001e0: 8ce7 0b3f bf9a b93e 7829 d9be e152 e53e
000001f0: b025 4dbd 95a2 92be 7972 df3e bb54 18be
