data/task3_learned_goal.pt (torch_old, 80912 bytes, 6 tensors)

fc.0.weight f4 [128, 6]
00000000: 538a 55bd 8aa9 933d 5005 a5bd 93c6 1cbc
00000010: 49b0 193e 26a8 673e 9f77 363e cb1a 2bbf
00000020: 90e2 3abc 6b81 a5bc b53b c0bd 539e a83e
00000030: 40c6 b03e 0717 77bc e6a8 a23e 6bf5 4fbd
00000040: 0a33 693d 40fd 12be a1bc 2abe 20a0 6fbd
00000050: 799e 10bd 3555 c83d 0701 c63d 0a19 de3c
00000060: 067e 3cbe 1212 923e baa2 8a3e 0899 91bb
00000070: d3f8 433e fc4b b93d 9a09 b1be 207e 513e
00000080: c645 02bd f4cc 9fbe 94d3 47be 60b9 a43c
00000090: 329e 93be a6ec f73d e356 953c 7647 9b3d
000000a0: 532c e2bc 129b a53d 2f1c b03e 5e66 fb3d
000000b0: 2010 b83e d4dc ecbd 2879 3fbd cd81 30be
000000c0: 26fd c83d 3728 6bbe b47e 3dbe de12 25bd
000000d0: ad66 373d 5454 8c3e b66a 793e e988 c8be
000000e0: 5146 6a3d 1e20 b63d fe61 e93d c992 02be
000000f0: 4422 cc3e d4cc 9fbe cb00 6ebe 098c 6b3e
00000100: d8a0 023e 89b0 323d e049 b0be b913 5c3e
00000110: d2c0 3b3e 7177 17bd 4765 aebb 8bbd 23be
00000120: b8e4 133e eaa6 ba3c 2ab9 8a3c b849 1d3e
00000130: 816b afbe 4b0a d53e 8cd7 3d3e 8b85 2c3d
00000140: fb94 5fbc cd62 243d 1c27 853d ca26 e83b
00000150: 8330 943e 6f7b 9ebd 5110 b93d 6675 ff3d
00000160: 2403 98be fcfc 83be ac23 ce3e 2be0 c1be
00000170: 0a67 553e 6199 2abd 64b4 433e 7a5f c83d
00000180: 3d50 693d 8d89 9ebe ef67 bc3e bc13 84be
00000190: 145c cd3d 8d4a 75bd 2427 8abd 8b3b 87be
000001a0: a509 633e 32d9 063e 3732 86be c3ba 80bd
000001b0: 0b27 9f3e 3a0f 58be 3669 bf3e 8652 443d
000001c0: 473c 0f3e 646d 37be d165 71be b728 453e
000001d0: c759 3b3e ed3b b6bd 84e7 94be d826 b43d
000001e0: e7c3 c9be 2f70 2f3d 8bac 3e3d 91b3 c8be
000001f0: 82b4 fc3d 7d8a 97bd ab4a 5e3e 3837 c3be
00000200: dba5 76bd f06f 27be e04f f93d 2166 7d3d
00000210: 53b1 c93e 3afd c2bd 6b10 0f3e 644d 68bd
00000220: 01e6 4dbd 9638 eebd d33c 8f3e a86a 2cbe
00000230: 0173 2dbe 6365 75be ec58 1bbd 1893 de3c
00000240: 918f 843e 316d dabd f77a 593e cbee 0f3e
00000250: 5e6f 3b3d ebd5 33bd 6418 11be fa20 b73d
00000260: 4f6e 82bd 30ab a13d 405f 80bc d9ef 353a
00000270: 4ca0 bd3e 9d20 5ebe 00c9 6b3e fa63 7c3d
00000280: 0506 703c af44 54bd a086 373e 451d b03d
00000290: 2392 0f3d 3726 923e 9c69 853d be35 f4bb
000002a0: 7d93 07bf 12bb 213d f94f 443e a688 caba
000002b0: 278c 3cbe 00a7 593e 1ae3 df3e 9849 14be
000002c0: 103a d13e cf31 56be c652 7b3d 257c b4bd
000002d0: 450d 58be 1b9a c13d e5d6 3e3e f316 4fbe
000002e0: 8a17 b1be 655f f0bc 58ce 7b3e b4f3 8fbe
000002f0: 56cc 2c3e bba8 ccbc 5978 64be e37d 3ebc
00000300: afda b7be 7f08 e53d a6b5 8c3d 1722 103e
00000310: 0460 92be caae 963d fe6e d2be 9405 1c3d
00000320: 2e09 a5bd 196f b03d 5d40 27be d9ac 19bc
00000330: 61e9 713e 81a1 f5be a43c 163e 651b 08be
00000340: 1ff6 383d 6eec 4dbc 8fd2 5f3e f468 aebe
00000350: 9adc c03c 31fc ae3d 9cbb 0ebd 7f8d 97bd
00000360: a3d8 fc3e aaa9 6dbe b8a3 5e3d f241 383d
00000370: 7b8a 04be 738c 2bbe 757c b3bd 9d20 b8be
00000380: 285d e73d 8efa 643e 1992 483e 97ba 3bbe
00000390: 43a5 bf3e 356b 5dbe 9c24 0f3e 327c 0a3e
000003a0: 9bb6 a9bc 82a8 98be 6288 15be 96dc 963d
000003b0: d6de 26bd 960d 143e 9cca 90bd 8185 afb9
000003c0: 1d78 e0be a799 aebd 9f43 0dbd f393 e0bd
000003d0: 758a d6bd d60a 133e 652b 933e 7922 14be
000003e0: e7cf bebd 4cda 89be a892 143e b692 4cbe
000003f0: 12d4 963d 44cb 86be b8ff 733d 7960 9d3d
-0.05213387 0.072100714 -0.08057654 -0.009568828 0.15008654 0.22622737 0.1781907 -0.6683776
-0.011406556 -0.020203313 -0.09386388 0.32933292 0.34526253 -0.015081174 0.31769484 -0.05077116
0.05693344 -0.1435442 -0.16673519 -0.058502316 -0.03530738 0.09781877 0.09668165 0.027111549
-0.18407449 0.28529412 0.27077276 -0.0044432916 0.19137888 0.09047696 -0.34577638 0.20458269
-0.031804822 -0.31211054 -0.19514304 0.020107925 -0.2883163 0.12105684 0.018229907 0.075819895
-0.027609026 0.08086218 0.34396502 0.12275384 0.35949802 -0.11565557 -0.046746403 -0.17237015
0.09813909 -0.2296456 -0.18505365 -0.040301196 0.044775654 0.27408087 0.24357113 -0.39166954
0.057195965 0.088928446 0.11395644 -0.12751307 0.39869893 -0.3121096 -0.2324249 0.23002638
0.1275667 0.04362539 -0.34431362 0.21491899 0.18335274 -0.036979143 -0.005322132 -0.15990274
0.14442718 0.022784669 0.016933996 0.15360153 -0.34261706 0.41609415 0.18539256 0.042119544
-0.01364636 0.040133286 0.065016 0.007084702 0.28943262 -0.07738387 0.09036315 0.12473564
-0.29689896 -0.2577895 0.4026159 -0.3786634 0.20840088 -0.04165018 0.19111782 0.09783836
0.056961287 -0.30964318 0.36798045 -0.25796306 0.10027328 -0.05988555 -0.06745747 -0.26412615
0.22171648 0.13168791 -0.26210186 -0.06285622 0.31084475 -0.21099558 0.37384957 0.047930263
0.13987838 -0.17912823 -0.23573996 0.19253813 0.18295966 -0.08898149 -0.29082882 0.08796471
-0.39407274 0.042831596 0.04655127 -0.39199498 0.12339117 -0.073994614 0.21708171 -0.38128066
-0.060216766 -0.16351295 0.12173438 0.061864976 0.393931 -0.095209554 0.13971107 -0.05671443
-0.050268177 -0.11631887 0.27976093 -0.16837561 -0.16938402 -0.23964457 -0.0379266 0.02716975
0.25890782 -0.10665358 0.21238314 0.14055936 0.045760505 -0.04390518 -0.1416946 0.08941837
-0.06368696 0.078939795 -0.015670419 0.0006940342 0.3703636 -0.21692128 0.23025894 0.061618783
0.014649873 -0.051823314 0.17922449 0.08599333 0.035051476 0.2854478 0.06514284 -0.0074526956
-0.52959424 0.039485045 0.19171132 -0.0015452101 -0.18412839 0.21255112 0.43727952 -0.14481199
0.4086461 -0.20917438 0.061358236 -0.08812741 -0.21098812 0.094532214 0.18636663 -0.20223598
-0.3458827 -0.029342363 0.24590433 -0.28115618 0.16874823 -0.0249828 -0.22311534 -0.011626693
-0.3590903 0.11183261 0.06870584 0.14075504 -0.2858888 0.07357557 -0.41100305 0.038091257
-0.080583915 0.0861494 -0.16333146 -0.009379589 0.23624183 -0.4797478 0.1467157 -0.132917
0.045156594 -0.012568576 0.21857665 -0.34064448 0.023542691 0.085441954 -0.034846887 -0.07400035
0.4938403 -0.23209253 0.054355353 0.044984765 -0.12943451 -0.16752796 -0.08763973 -0.35962382
0.11297065 0.22361204 0.19586982 -0.18332897 0.37430772 -0.21622927 0.13978809 0.13523939
-0.020716956 -0.2981606 -0.14602807 0.07366292 -0.040739857 0.14458308 -0.07069895 -0.0003347807
-0.4384164 -0.085254006 -0.034488317 -0.10965719 -0.10475627 0.14359602 0.28744045 -0.14466275
-0.09316998 -0.2692436 0.1450907 -0.19977841 0.07364668 -0.26326954 0.059570044 0.07684416

fc.0.bias f4 [128]
00000000: 7641 7abc 902c 1c3c 5d0b 5cbc 1860 92bc
00000010: 2b80 553c 669a dc3b 282e 103d b140 c83b
00000020: 26bc 8d3b c1be 773d 7780 d2bc bbb7 f43c
00000030: 3e0f 9cbc 31fb 52bd 916d bbbb 256b ce3c
00000040: 3c86 4e3c 1bc6 1c3b ddb5 b0bc 8c0c e53a
00000050: 46c0 813c 4175 093d 5622 04bb cc5c 9b3d
00000060: 008c 263c e4b3 3ebc 6492 763c 4422 053c
00000070: be50 cb3b 33dc b7bc 181b a3bb cd55 513c
00000080: 728d 4b3d d3cf d93c 6e4e c1bc 3790 513d
00000090: ad21 973d a509 8b3d 6beb 213d 46ae b4bc
000000a0: b2f3 c33c cdb1 073d d02a 803c 4dbf 823c
000000b0: 9bfe 87bc 3048 8c3d bf3c 2cbd e796 a93c
000000c0: 9b9e ccbb 8a0c 15bc 8fdf 163d a546 86ba
000000d0: b01d 083d fb68 8a3c 7e04 353b ef30 afbb
000000e0: 9507 66bd 2d9c 553b 8369 ddbc fb0f 923b
000000f0: b649 80bc b3d8 1bbc 9760 dc3c d430 343d
00000100: 9c24 6e3d 938b 8f3c 4923 ccbc 53ce dbbb
00000110: 25ce 103b 194e a03b a333 cdbc 9cc1 6cba
00000120: 7b1a c73c 67b9 6bbc 9906 c33c 62b8 053c
00000130: 8912 a6bb 5441 8b3c 66e0 1bbc b9cc ec3c
00000140: f90d e93b 4cbf 1fbd 5767 ed3c 176b 133d
00000150: 79b9 96bb de51 5b3b cbb4 9abc 5656 f83c
00000160: 1f69 33bd 8e4f b93b d444 9b3c 1f21 eabc
00000170: 537c 6f3d 44ed 133d 9c7a b53b 99d0 513d
00000180: e128 e0bc f2ec f7bc 93b1 efbc cb8b 2abd
00000190: e15f 3e3d 117d 883b fe8b 9cbc 735f 73bd
000001a0: 7dec 1c3d 9ed7 e13c 5cd2 71bc 0a07 013d
000001b0: 234e 5cbc ed10 b13c aaaf eebb bcbe 143d
000001c0: 7ae0 78bc 0c22 d53c c44b 75bc 30fe 4a3d
000001d0: 8bdf d53c 00be 493c 0de8 4c3c 68a9 563d
000001e0: 0609 50bc d83e 3cbc a44c c0ba 7e87 fbbb
000001f0: b3a4 c43c be11 9cbc 0ef7 373b 354c 0b3d
-0.015274396 0.009532109 -0.013430444 -0.017868087 0.013031046 0.006732273 0.035200268 0.0061112274
0.0043254076 0.06048465 -0.025696022 0.029872766 -0.019050237 -0.051509086 -0.0057198484 0.025197575
0.012605246 0.002392179 -0.021571094 0.0017475053 0.015838753 0.033559088 -0.0020162067 0.07586059
0.010165215 -0.011639569 0.015049551 0.008125845 0.0062046936 -0.022443866 -0.004977595 0.012776804
0.04969544 0.026588356 -0.023596969 0.051162925 0.0737947 0.06788949 0.039531153 -0.022055756
0.023919914 0.03312855 0.015645415 0.01596036 -0.016600898 0.06849706 -0.04205012 0.020701839
-0.006244493 -0.009097228 0.036834296 -0.0010244442 0.033231437 0.016895762 0.0027621086 -0.0053464095
-0.056159575 0.0032594309 -0.027027851 0.0044574714 -0.015660148 -0.009512114 0.026901526 0.04399188
0.058140382 0.017522609 -0.024919169 -0.0067079454 0.0022095528 0.0048921225 -0.025049036 -0.00090315356
0.024304619 -0.014387465 0.023806857 0.008161636 -0.0050681275 0.016998924 -0.00951395 0.028906213
0.0071122614 -0.039000794 0.02897994 0.0359908 -0.004599747 0.0033465545 -0.018885037 0.030314606
-0.043801423 0.0056552356 0.018953718 -0.028580246 0.058468174 0.036114946 0.005538298 0.051224325
-0.027363243 -0.030264352 -0.029259479 -0.041637223 0.046478156 0.0041652997 -0.019109722 -0.0594172
0.03831147 0.027568635 -0.014759626 0.031500854 -0.013446364 0.021614516 -0.0072841244 0.03631471
-0.015190238 0.026017211 -0.014971677 0.04955882 0.02610757 0.012313366 0.012506497 0.052407652
-0.012697464 -0.0114895925 -0.0014671278 -0.007676064 0.024004316 -0.019051429 0.002807084 0.034008224

fc.1.weight f4 [128, 128]
00000000: 26aa ecbb b793 02be 526d 85bd 2ef5 b63c
00000010: 76f7 293e 0377 f0b9 ebd7 1d3e bb14 5ebd
00000020: 0208 b4bc 8fc8 0dbe 39ba 37bd 4ade 0b3e
00000030: 2047 59bc 1f56 9fbc b877 03be 221e 3e3d
00000040: 38fc 84bc f699 633c f1e8 dcbd d367 1f3e
00000050: cf9a e93d a7e2 0dbe 62e7 1fbe 93f7 a0bd
00000060: 86de 83be 4df8 1a3c 4d9e 9ebc 2774 afbc
00000070: 9918 9b3d b2d5 ffbd cf3c 883e 1a57 f7bd
00000080: 8eb9 273e d77b 3d3e 3879 b6bd 3343 d4bd
00000090: 668b 25be 7ef8 2d3d 7a22 2abe c53b bd3c
000000a0: e68f 48bd 9625 0fbe 675b cfbc d0ec 0a3e
000000b0: a52d 27be dbaa 19bc 7c1c 6abc 9e25 e6bc
000000c0: 6587 2bbd d38d 93bc d00b bfbc 6344 40bd
000000d0: 2844 95bc 0876 65ba 7112 d93d 7baf e5bc
000000e0: b209 02bd aa2c fdbd d2dd b2bc 7a04 92bb
000000f0: 7ccb 09bd 1db6 363d 97bb 633e e39e 923d
00000100: 1d56 163d d75e 0e3d 353d 533c 72e2 40bc
00000110: 2035 873c 65b8 85bc 367c e53c d058 a93d
00000120: e771 413e faa9 c73d 581a b13c cf18 8abc
00000130: b130 9cbb 2906 263e 3456 943b e3d2 7b3c
00000140: e187 c9bd 0105 253c 4348 5abe 3b32 8a3d
00000150: adac 8cbc 136b 22be ad1d 2fbd d3c1 123d
00000160: faf3 a43c a482 a13d 9671 04bc 342e 3f3e
00000170: 3456 b43d 4f29 343e 3b06 17bd 2b15 2b3e
00000180: 7ad0 b63d dece 2a3e ee06 00bd 514b bf3b
00000190: 6b8e 7ebd f8cc e4bd 56b6 013e fde5 f538
000001a0: a6b3 bc3b f1b8 223e fc60 0b3b bcda f8bd
000001b0: bc8e a7bb 018e e43d 8b0a cebd eb85 453e
000001c0: 4766 87bc 5655 393a e425 97bc 1f26 903b
000001d0: 20b7 6dbe 63c6 493e 09c0 11be 003e 053d
000001e0: 66ab 223c f62d cabc 796b bb3d f073 7d3d
000001f0: c28f 313e fdb6 133b fa12 f83d dbd6 143c
00000200: 0089 4fbc 37a6 94be 2f56 22be ad4f 36bc
00000210: 2686 293e ef03 73bb 268e 523e a6a4 32be
00000220: 8e6b 32bd fc49 013b 6768 30be 7ab8 2c3d
00000230: 1b73 1bbe b6ca 89bd e1fa 88bd 978e 25be
00000240: 4677 9abd 57b6 dabb c5bd 08be 5a7b 583e
00000250: 4326 553d 6fe2 0fbd a9b6 753d bfda 82be
00000260: 2615 f9bd 3715 b93c d86f 83bd 0bf4 a3bd
00000270: 923c 993d eba8 60bd 7a09 f7bd 5bba fb3c
00000280: 8f5d c03e f50e 353d 927c 08bd 66e0 40be
00000290: b098 3abd d144 f3bd f29a 59be 2caa 83bd
000002a0: 2ae3 11be 7fe7 3abe 10b6 ecbc b4a0 7fbc
000002b0: fc40 25bc e9dd 9bbd c3f1 debd 9482 2dbd
000002c0: bd32 10be 0b1e 6abe aba0 5dbc fa78 f5bd
000002d0: f26b 123e 9d23 6b3c ec05 51be a634 51bd
000002e0: a728 873d 826d 163d 8ffe 5fbd 5bb5 0ebe
000002f0: 92d7 80bd b395 913e bfcc 65bd a9f8 833e
00000300: 9e5f 173e bba8 443d 9f10 32be 422a 74bd
00000310: 6125 8e3c 4497 df3d 88c6 81be 3ecd 2a3d
00000320: b660 6e3e 2774 033e 177b 9b3d be67 5cbb
00000330: 4562 0dbd f0f0 f13c 5fd3 023d 49de ed3d
00000340: e8e5 84bd 6a4b 2c3d 6bdb 40be 005f 0f3d
00000350: 9a8f 45bd 0b77 66be b870 043e 92a4 df3d
00000360: fd93 643c 7c4c 6e3e 4999 053d c170 833d
00000370: 9927 b83e 0beb cd3d 1cbd 63bd 1dee 6e3e
00000380: 69e0 8d3d c646 7e3e 0a1c afbd 4da1 45be
00000390: 0c6b b2be 9c1f ddbd 9ca2 4e3e f5bc b6bc
000003a0: feba 173e 848f 3e3e 76a2 01bd c80e f23d
000003b0: 7fa3 913c e00e 1a3e ca7d a03d 3c1b fa3d
000003c0: db86 a6bd ca95 15bc 3e72 013d 8ad1 fbbc
000003d0: dfd1 a13c a73f 383e 2ac1 a9be 1a3c 92bd
000003e0: 5cb6 943e 4ea0 8abd ce38 5cbd ff1e 59bd
000003f0: 7562 d53d 127e 94bc 307b 7c3c b1f8 813d
-0.0072224317 -0.12751661 -0.06514992 0.022333708 0.16598305 -0.00045865038 0.15414397 -0.05421899
-0.021976475 -0.13846038 -0.04485533 0.13659015 -0.013261586 -0.019450245 -0.12838638 0.046415456
-0.016233549 0.013891688 -0.107866175 0.1556695 0.114064805 -0.13855992 -0.1561561 -0.07859721
-0.2575571 0.009458614 -0.019362593 -0.02141769 0.07573051 -0.12491931 0.26608893 -0.1207716
0.16379377 0.18504272 -0.089098394 -0.1036438 -0.16166458 0.04247331 -0.16614714 0.02309979
-0.048965357 -0.13979182 -0.025312139 0.135669 -0.16326006 -0.009379114 -0.014289018 -0.02809411
-0.04187717 -0.018011963 -0.023321062 -0.04694022 -0.018220976 -0.0008753245 0.105992205 -0.028037777
-0.031747527 -0.123620346 -0.021834288 -0.0044561 -0.033641323 0.04460727 0.22239529 0.071592115
0.036703218 0.034758415 0.012893011 -0.011772739 0.016504824 -0.016323278 0.02801333 0.08268893
0.18891107 0.09749217 0.021619007 -0.016857533 -0.0047665467 0.16213287 0.004526878 0.0153701035
-0.0984037 0.010071994 -0.21316628 0.06747862 -0.017172182 -0.15861158 -0.04275291 0.035829376
0.020135868 0.07886246 -0.008083722 0.18669969 0.088055044 0.17593883 -0.036871176 0.16707294
0.089264825 0.16680476 -0.03125661 0.005837836 -0.06214754 -0.11171907 0.12667212 0.00011725349
0.0057587205 0.15890862 0.0021267524 -0.12151095 -0.005113451 0.111598976 -0.10060605 0.19289367
-0.016528262 0.0007069906 -0.018450685 0.0043990756 -0.23214388 0.19704585 -0.14233412 0.03252983
0.00992856 -0.024680119 0.09151358 0.061878145 0.17339996 0.002253949 0.121129945 0.009084429
-0.012666941 -0.29033062 -0.15853189 -0.011127395 0.1655508 -0.0037081202 0.20562038 -0.17445621
-0.043559603 0.0019727936 -0.17227326 0.042168118 -0.15180628 -0.06728117 -0.06688476 -0.16167675
-0.07542281 -0.0066745686 -0.13353641 0.21140805 0.052038442 -0.035128053 0.05998865 -0.25557515
-0.12162237 0.022593124 -0.06417817 -0.08005532 0.07482256 -0.054848593 -0.120623544 0.03072851
0.3757138 0.044203717 -0.033321925 -0.18835601 -0.04555577 -0.1187836 -0.21250513 -0.06428942
-0.14246812 -0.18252371 -0.028895408 -0.015602279 -0.010086294 -0.076106854 -0.10885956 -0.042360857
-0.14081855 -0.22863023 -0.013527076 -0.11985965 0.1429899 0.014351753 -0.20412415 -0.0510756
0.06599551 0.03672553 -0.054686125 -0.13936369 -0.06291117 0.28434524 -0.056103464 0.2577565
0.14782569 0.048012476 -0.17389153 -0.059610613 0.017351808 0.109175235 -0.2534678 0.04169964
0.2327908 0.12837277 0.07591837 -0.003363117 -0.034517545 0.029533833 0.03193986 0.11614663
-0.06489164 0.042064108 -0.18833701 0.03500271 -0.048232652 -0.22506349 0.12933624 0.10920061
0.013951299 0.23271364 0.032616887 0.064179905 0.3596771 0.100545965 -0.05560027 0.2333302
0.069275685 0.24831685 -0.0855027 -0.19299813 -0.34847295 -0.10797045 0.20179218 -0.022306899
0.14817426 0.18609434 -0.031649075 0.118192255 0.017778156 0.15044737 0.07836492 0.12212226
-0.081311904 -0.009129951 0.03160309 -0.030739564 0.019753395 0.17993031 -0.33155185 -0.0714037
0.2904538 -0.06768857 -0.05376511 -0.053008076 0.1041917 -0.018126521 0.01541023 0.06346262

fc.1.bias f4 [128]
00000000: 85ec 403d 29fd 013d 33da 31bc c359 9cbb
00000010: 425c 163d 65ea ce3c 07d8 96bb f57a 593d
00000020: 2515 133c 3f33 043a b6b8 9cbb a399 2f3d
00000030: ef54 813c 3a62 953c 205e c33c fb29 003b
00000040: 2f7e 06bc 23da 24bc bd19 5a3c bfbd 2d3c
00000050: 0acb 273d 9f3a b3bb 61bb 4d3c e0f7 8e3b
00000060: 5c9d 3fbc b972 ec3c 2364 073d 2936 d33c
00000070: 4f5c 4e3c dac1 063d bc40 af3c 3c61 113d
00000080: 8338 883b 4773 0e3d 8d84 563b e700 aebb
00000090: 3746 423d 11f2 16bb 49a4 183c b196 8abb
000000a0: b825 b73c 0640 f23c fc87 a13c 0dbf 98bb
000000b0: 8ecc a6bb 6ba6 223d c529 203b ec68 123c
000000c0: 1bd8 823c ba9c 3e3d a6d4 7e3c 84b9 223b
000000d0: 9917 173d 814d bdbb 4079 d73c fe45 d63c
000000e0: 34e3 9f3c ff9a cc3c cc66 313d 76fe e63c
000000f0: fe91 8dbb 2ac4 8a3c e5a8 203d 57fe 193d
00000100: 986b a33c 87b3 023d d89d 603d 656c 8fbc
00000110: f7fa 223d 0cdf 05bc c760 4f3d 3aec 093d
00000120: 1f5c 1cbc debb 8a3b 66d0 ca3c 98b3 a43c
00000130: cb3a 653d 63e3 153d 18b9 9a3c 4e26 0d3d
00000140: d3f7 9f3c 7fd8 893b a9f7 97bb d595 5fbb
00000150: b723 413d d1e1 05bb a3e2 283d df38 a93c
00000160: f266 3f3b ff92 ae3b 01ba fd3c 27d1 433d
00000170: 2cbb eb3c 124b d13c e752 80bc 2ca9 683c
00000180: e1b7 fdb9 661a bcbb cd7d b83c 5e0e 273b
00000190: 47ce 3b3b 603e be3c 4d82 3f3c ca27 d13c
000001a0: 7295 143d 5c19 5a3c 2ea4 dab8 3eb6 203d
000001b0: 909f a0bb ed58 b33c 3fdf 3ab9 97f4 7bbb
000001c0: bb1a a8bb 5cff ee38 13b8 4d3c da7f e03b
000001d0: e175 0c3d 2471 8b3c b118 ce3c f306 363d
000001e0: 501e 713d 6b3a 6f3b 6a70 6abb 51ab 4e3c
000001f0: 2cde 9bbb 0ca7 c8bb e822 5c3c cdb0 173d
0.047100563 0.031735573 -0.010855245 -0.0047714426 0.036709078 0.025258252 -0.004603389 0.053095777
0.008977209 0.00050430367 -0.0047827614 0.04287113 0.01578757 0.018235315 0.023848593 0.0019556272
-0.008208795 -0.0100617735 0.013311801 0.010604321 0.040965118 -0.0054696347 0.012556882 0.004363045
-0.011695232 0.028863298 0.033054482 0.025782662 0.01259525 0.032899715 0.021393172 0.03549312
0.0041571273 0.034777906 0.0032732815 -0.005310166 0.047430243 -0.0023032466 0.009316512 -0.0042293896
0.022356853 0.029571544 0.019718163 -0.004661447 -0.005090303 0.03970949 0.002443896 0.008936148
0.015972188 0.046536185 0.015553629 0.0024829814 0.03688774 -0.0057770615 0.026302934 0.026156422
0.019517519 0.024976252 0.043310925 0.028197508 -0.004320382 0.016939241 0.03922357 0.037596073
0.019948766 0.031909492 0.05483803 -0.017507741 0.03979012 -0.008170854 0.050629403 0.03367255
-0.009543448 0.0042338213 0.024757575 0.020105168 0.055964272 0.036593806 0.018887088 0.03446036
0.019527351 0.0042067165 -0.0046376777 -0.0034116406 0.0471532 -0.0020428787 0.041231763 0.020657001
0.0029205647 0.005327582 0.030972483 0.047806885 0.028775774 0.025548492 -0.01566453 0.01420049
-0.0004839292 -0.0057404516 0.022520924 0.0025490741 0.0028656886 0.023223102 0.011688781 0.025531668
0.036275335 0.01331171 -0.00010425631 0.0392363 -0.004901834 0.021892989 -0.00017821508 -0.0038445347
-0.0051301396 0.00011396289 0.012556094 0.0068511786 0.034292106 0.017021723 0.025158258 0.04444022
0.0588668 0.0036503326 -0.003577257 0.012614087 -0.0047567096 -0.006123429 0.013436057 0.037033845

fc.2.weight f4 [1, 128]
00000000: 6b65 9ebe 24a4 d0be 9b0d 2bbb ae27 ac3e
00000010: 39b3 cabe 9716 6ebe 2d22 093f 0efc 96be
00000020: 1e3e 493e 7a99 d43e 26a8 af3e 221b 75be
00000030: 6ba5 913e 76a6 aa3e 8c37 a83e 3536 253c
00000040: 9e32 cf3c 99e5 43bb 5464 a03e dae4 c23e
00000050: a8ac 1cbf 2133 e73e c507 983e 6d11 72be
00000060: 2a1d f7bd 3492 31be a991 4ebe b525 3bbe
00000070: baca 8f3e 7fc5 a83e 9fa2 c83e 4a53 493e
00000080: 3563 46be 6817 9bbe d155 cdbd 283f df3e
00000090: 4b17 8cbe 0785 f03d db32 a6bd 8e5b 273e
000000a0: d02a 803e eaa2 75be e697 fd3e 290d 823e
000000b0: 09fe 303e f7e1 31be cfcb 1d3e a962 763e
000000c0: ff14 c83e 68b7 b8be 9621 bb3e bb8e f5bd
000000d0: 1ab0 e9be fd9a b73e 0019 b3be f87b 073f
000000e0: e0cd de3e 5030 c63e cc45 c4be d4ed 8f3e
000000f0: a138 ba3e d074 8b3e bb77 87be ab01 c33e
00000100: 4569 5fbe 6d45 eebe 31d8 87be 24bd d63d
00000110: 968f 89be 8497 4e3e f40c ddbe fd41 69be
00000120: 6ee8 71bd 5ec6 59be 7291 b63e b11e 14be
00000130: 38ea 2bbe 4205 40be 84b7 743d 60c1 d43e
00000140: e814 8d3e a0f4 5cbe b6c1 a83e 1f67 473e
00000150: ddb5 3dbe a559 8e3c 2117 843e 7e6f 6f3e
00000160: 13a0 633e f52d dbbe 3957 a7be 3732 d3be
00000170: 6006 103f 082d 90be 03ad 86be c3a1 08be
00000180: 350b 603d aff0 da3e 23c6 b93e a495 08be
00000190: 1374 cd3c 8edc 84be 9a39 6abe 5036 aa3e
000001a0: 28e3 84be 35ca b13e 0c6b 3b3e 9f20 72be
000001b0: 8f47 e53e 1181 5cbe 7af0 5e3e 3f9b a43e
000001c0: c99b 9e3e 934b 543e 971a 0dbe 9c9c dc3e
000001d0: 8cbf 4cbe 984d 283f 3ace ad3e 85b8 cabe
000001e0: 33b9 623e b0b3 03be e845 5138 d5e1 013f
000001f0: b79e 893e 30c0 3abe 5d07 833e 425d d6be
-0.3093675 -0.4075023 -0.0026100639 0.33624023 -0.3958986 -0.23250805 0.53567773 -0.29489177
0.19652602 0.41523343 0.34307975 -0.23936132 0.28446516 0.33330125 0.3285488 0.010083725
0.02529269 -0.002989149 0.31326544 0.38065225 -0.6120095 0.45156196 0.29693428 -0.2363946
-0.120661095 -0.17340928 -0.20172752 -0.18276103 0.28084356 0.32963178 0.3918657 0.19660679
-0.19373782 -0.30291295 -0.10026134 0.43602872 -0.2736152 0.11744123 -0.08115169 0.16343519
0.25032663 -0.23987928 0.49529952 0.25400665 0.17284407 -0.17371355 0.15409778 0.24061073
0.3907852 -0.36077428 0.36549062 -0.11990114 -0.45642167 0.35860434 -0.3498001 0.52923536
0.43516445 0.38708735 -0.383345 0.28111136 0.3637133 0.27237558 -0.26458535 0.3808721
-0.21817501 -0.46537343 -0.26532128 0.104852945 -0.2686736 0.20174986 -0.43173945 -0.22779079
-0.059059553 -0.21267077 0.3565784 -0.14464833 -0.16788566 -0.18752006 0.059745327 0.41553783
0.27555013 -0.21577692 0.3296029 0.19472931 -0.18526407 0.01737673 0.25798896 0.23382375
0.22229032 -0.428085 -0.32683733 -0.41249248 0.5625973 -0.28159356 -0.26303872 -0.13342957
0.054698188 0.42761752 0.3628398 -0.13338333 0.025079763 -0.2594952 -0.22873536 0.33244562
-0.25954556 0.34724584 0.18302554 -0.23645256 0.44781157 -0.2153361 0.21771422 0.32149693
0.3097823 0.20731954 -0.13779674 0.43088233 -0.19994944 0.657434 0.339464 -0.39593902
0.2214096 -0.12861514 4.989459e-05 0.5073522 0.26878902 -0.18237376 0.25591555 -0.41868025

weighting.weight f4 [1, 2]
00000000: a9fb fbbe 5c6d 283e
-0.4921544 0.16447967
