data/task2_learned_goal.pt (torch_old, 82433 bytes, 5 tensors)

fc.0.weight f4 [128, 9]
0	0x3e053d3f	0.13011645
1	0x3f0148ef	0.5050191
2	0x3eb3b86a	0.35101634
3	0xbe162f38	-0.1466645
4	0x3caf7db6	0.021422248
5	0xbd33c718	-0.043891042
6	0xbea9941e	-0.33120817
7	0xb094dc14	-1.0830967e-09
8	0x3e34f7b7	0.1767262
9	0x3af69edc	0.0018815654
10	0x3eca2e8c	0.39488637
11	0x3d838fc5	0.06423906
12	0x3e38f19b	0.18060915
13	0xbe3373cf	-0.17524646
14	0xb4b4c3ed	-3.3670167e-07
15	0x3dd18da2	0.102320924
16	0x3c41acd1	0.011820988
17	0x3c3df7f8	0.011594765
18	0xbdb974dc	-0.09055492
19	0xbe07f8ff	-0.13278578
20	0xbe17f493	-0.14839391
21	0xbe876509	-0.2644427
22	0xbb1646ea	-0.0022930452
23	0xb99518e4	-0.0002843804
24	0x3e85c42e	0.26126236
25	0xb240dcbb	-1.1226059e-08
26	0x3e905777	0.2819173
27	0x3e5342ab	0.206309
28	0xbe55f200	-0.20893097
29	0x3d7a5800	0.06111908
30	0xbddda8a1	-0.10823179
31	0xbb22614f	-0.0024777239
32	0x3bc3f485	0.0059800767
33	0x3e3c95b0	0.18416476
34	0xbdedfe9a	-0.11620827
35	0xbd2b6445	-0.04184367
36	0x3e44efeb	0.19232146
37	0x3e1afab8	0.15134704
38	0x3e875cd3	0.26438007
39	0x3c208b77	0.009798876
40	0xbd87572f	-0.06608426
41	0xb390ec14	-6.748465e-08
42	0x3de0a08e	0.109681234
43	0xbda6ec45	-0.081505336
44	0xbda006a9	-0.0781377
45	0xbdb9991d	-0.09062407
46	0xbe08a1f8	-0.13343036
47	0xbe655fa2	-0.22399762
48	0xbe933b96	-0.28756398
49	0x3ec2df1f	0.38060853
50	0x3888c695	6.521974e-05
51	0xbdc17871	-0.094468005
52	0xbb7d083d	-0.0038609647
53	0x3e76dfb7	0.24108778
54	0xbd40bb7f	-0.04705381
55	0xbe20d787	-0.15707217
56	0xbb89bb05	-0.0042032027
57	0xbd855ea9	-0.065121956
58	0x3e2cd770	0.16879058
59	0xbd38dbe5	-0.045131583
60	0xbeaf4f18	-0.3424003
61	0x3cf27355	0.02959601
62	0xbecb14a8	-0.39664197
63	0xbe2cdd4f	-0.16881298
64	0x3d95f00a	0.073211744
65	0xbe18907c	-0.14898866
66	0x3be6bbb6	0.00704142
67	0x3d52bc48	0.05144909
68	0xb2815e0d	-1.5060346e-08
69	0x3e385610	0.1800158
70	0xbae133f9	-0.0017181627
71	0x3e7b0356	0.24512991
72	0x3d81c0e7	0.06335621
73	0x3e3f6179	0.18689527
74	0x3a4d915e	0.0007841791
75	0x3d01a84c	0.03165464
76	0xbd2dfbb2	-0.042476363
77	0xbdac8d4c	-0.08425388
78	0x3e1009b7	0.14066206
79	0xbc6efacb	-0.014586161
80	0xbd67f4f5	-0.056630094
81	0x3d7b4b7d	0.061351288
82	0x3efb2778	0.4905355
83	0xbdb215af	-0.08695542
84	0xbee35142	-0.44397932
85	0xbd235dda	-0.039884426
86	0x342f0931	1.6301489e-07
87	0xbbf01836	-0.007327105
88	0x3dc18f12	0.094511166
89	0x3e2b8a57	0.16751991
90	0xbeb645f2	-0.3560024
91	0xbcb20a21	-0.021733345
92	0x3cf45109	0.029823797
93	0xbe6dff9a	-0.23242036
94	0x3efa06cc	0.4883331
95	0xb8a8ec79	-8.054911e-05
96	0xbe10fc9e	-0.14158866
97	0x3df4b2e5	0.11948184
98	0x3d775a76	0.060389005
99	0x3deca5f5	0.11555091
100	0x3df871f9	0.121311136
101	0xbc182105	-0.009285216
102	0xbd5b78a3	-0.053581845
103	0x3dfd4b4a	0.12367876
104	0xbc3c50a2	-0.011493834
105	0xbe999630	-0.29997396
106	0xb24d511e	-1.1951014e-08
107	0x3cee4a27	0.029088093
108	0x3d7f81ff	0.062379833
109	0x3dffd152	0.124910966
110	0xbe3b46c3	-0.18288712
111	0xbe4b38c4	-0.19845873
112	0xbe6cd397	-0.2312759
113	0x3d9f6be6	0.07784252
114	0xbe1b3005	-0.15155037
115	0x32034e2c	7.642978e-09
116	0xbd26e5d3	-0.04074652
117	0x3ea0b875	0.3139073
118	0x3dbc1633	0.09183922
119	0xbdba1ee9	-0.09087927
120	0x3df19696	0.117963
121	0x3dece606	0.11567311
122	0x3989f982	0.00026316574
123	0x3e677364	0.22602612
124	0xbda64b87	-0.081198744
125	0xbcc36470	-0.023851603
126	0x3c5bd468	0.013417341
127	0xbe85ba93	-0.26118907
128	0x3cc300c1	0.02380407
129	0xbcf684d1	-0.030092629
130	0xbdab0880	-0.083512306
131	0xb2c35d11	-2.274331e-08
132	0x3d2b6366	0.04184284
133	0xbbdcb38f	-0.0067352722
134	0xbe2f670c	-0.17129153
135	0x3e694cd2	0.22783211
136	0x3e9a977d	0.301937
137	0xbe7b0ff8	-0.2451781
138	0xbdda4b75	-0.106589235
139	0xbeb2363c	-0.34807003
140	0xb58c4f3c	-1.0453873e-06
141	0xbe028778	-0.1274699
142	0xbc6aee31	-0.014339016
143	0xbe0b972b	-0.13631885
144	0x3e29c9e8	0.16580927
145	0x3dff3c2c	0.12462649
146	0xbb644c05	-0.003483535
147	0x3d8e73f3	0.06955709
148	0x3e216129	0.1575972
149	0xbab9f836	-0.0014188353
150	0x3e114f39	0.14190377
151	0xbe1b088d	-0.1513998
152	0x3c5e0fc4	0.0135535635
153	0xbe222af2	-0.15836695
154	0xbe33130c	-0.17487735
155	0xbd8cb567	-0.06870537
156	0xbe609654	-0.21932346
157	0x3dbabbda	0.09117861
158	0x3b4e4bbf	0.0031478254
159	0xbe418e6a	-0.18901983
160	0x3cae4178	0.021271452
161	0x3e3bd8c3	0.18344407
162	0xbdfdd716	-0.1239454
163	0xbe842ca0	-0.25815296
164	0xbd8d1826	-0.068893716
165	0x3dcdfc1e	0.10057853
166	0x3e0712a8	0.1319071
167	0x3add62d0	0.001689041
168	0xbd20960f	-0.039205607
169	0x3d10ace6	0.03532114
170	0x3e130e71	0.14360978
171	0xbe473a6d	-0.19455881
172	0x3e8f9fa7	0.28051493
173	0x3dbd4d59	0.092432685
174	0xbe585bf8	-0.21128833
175	0xbe443eb5	-0.19164546
176	0xbe748859	-0.23880138
177	0x3e339515	0.17537339
178	0x358fdbaf	1.0718267e-06
179	0x3e2ae3a8	0.16688406
180	0xbe9d86bc	-0.30766857
181	0xbecd5365	-0.40102687
182	0x3e254768	0.1614052
183	0xbda25148	-0.079256594
184	0x3bc34099	0.0059586284
185	0xbcc6e982	-0.024281267
186	0xbc486884	-0.01223195
187	0xb65f1a94	-3.324506e-06
188	0x3da1ec8c	0.07906446
189	0x3cf29466	0.029611778
190	0x3e60a8aa	0.2193934
191	0xbe013fc9	-0.12621988
192	0xbe02018c	-0.12695903
193	0x3da20429	0.0791095
194	0x32b6c40a	2.1276737e-08
195	0xbd2de4bf	-0.042454477
196	0x3d9aa237	0.07550471
197	0xbde3e94f	-0.111284845
198	0xbe33860f	-0.17531608
199	0x3c12938a	0.008946309
200	0x3e4bb93b	0.19894879
201	0x3da4c005	0.08044437
202	0x3d13e7d9	0.03610978
203	0x36c1e8dd	5.778957e-06
204	0x3dfcc152	0.123415604
205	0x33a523a3	7.6898935e-08
206	0xbdc9f8a0	-0.098618746
207	0xbe6392e5	-0.22224005
208	0xbe57ed83	-0.21086697
209	0xbda4fce2	-0.08056046
210	0xbe8047ba	-0.25054723
211	0xbf034999	-0.51284176
212	0x3cf6036e	0.030030932
213	0x3d8eba7c	0.06969163
214	0xbb167608	-0.0022958536
215	0xbcd0cb5f	-0.0254876
216	0xbea3f40b	-0.32022128
217	0xbe92a9e8	-0.28645253
218	0x3d8d5d36	0.06902544
219	0xbde2426d	-0.11047826
220	0x3e72434b	0.23658483
221	0xb44be9d3	-1.8990913e-07
222	0xbe23a80c	-0.15982074
223	0x3bdda928	0.0067645498
224	0x3e323ee8	0.1740681
225	0xbeecd5cd	-0.46256867
226	0xbe95ab6f	-0.29232356
227	0xbe90e202	-0.2829743
228	0x3e748c74	0.23881704
229	0x3ccaa5f8	0.024737343
230	0xb3e58cce	-1.0689256e-07
231	0x3e2c3ccd	0.16820069
232	0x3adddc2f	0.0016926582
233	0x3dc9a1bd	0.09845302
234	0xbec2958b	-0.38004717
235	0xbe4e6b0f	-0.20158027
236	0x3df13e8e	0.117795095
237	0xbd0260ac	-0.031830475
238	0x3e23a6e2	0.1598163
239	0x3d199f1a	0.037505247
240	0xbe208b38	-0.15678108
241	0xb3073ab0	-3.1485513e-08
242	0x3cd8668d	0.026416088
243	0xbe8a2823	-0.26983747
244	0xbdf30ef9	-0.1186809
245	0x3ce8d30c	0.028420947
246	0x3e09ff23	0.13476233
247	0xbd305e94	-0.043058947
248	0x3c894d1f	0.016760407
249	0xbe2f14c4	-0.17097765
250	0xbce356ce	-0.027751353
251	0xbc605470	-0.0136920065
252	0x3d088e27	0.033338692
253	0x3de9a48b	0.11408337
254	0x3e2db7d3	0.16964655
255	0xbde689e9	-0.11256773

fc.0.bias f4 [128]
0	0x3d49b4b9	0.049244616
1	0x3cd7c2e3	0.026338046
2	0xbccff1dc	-0.025383882
3	0xbd3a83fd	-0.04553603
4	0x3d122a04	0.0356846
5	0xbbe9dd95	-0.0071370103
6	0xbc709237	-0.014683298
7	0x3a34fcda	0.0006904133
8	0x3cdf4762	0.027255718
9	0x3d1364f2	0.03598494
10	0x3c811ed0	0.015761763
11	0x3c2a254b	0.010384868
12	0x3d548db4	0.05189295
13	0xbc8d006c	-0.017212115
14	0xbd21473a	-0.039374568
15	0x3d0efe42	0.034910448
16	0x3b819126	0.0039540706
17	0x3ca8c6f8	0.020602688
18	0xbc0e6e85	-0.008693342
19	0x3d17198c	0.036889598
20	0xbd35ab73	-0.04435296
21	0xbc76cf19	-0.015064024
22	0xbc79e02a	-0.015251199
23	0xbcbb3715	-0.022853414
24	0x3b9fe88a	0.0048800157
25	0xbcb58c1c	-0.022161536
26	0xbd1af2c5	-0.03782918
27	0xbc8c0d5a	-0.01709621
28	0x3cd26a29	0.025685387
29	0xbd0bd784	-0.03414108
30	0x3cc92cfc	0.024557583
31	0x3d2268f1	0.03965086
32	0x3cd152c0	0.025552154
33	0x3bdbd970	0.00670927
34	0x3d25a019	0.040435884
35	0xbc251e81	-0.0100780735
36	0x3d136aea	0.035990633
37	0x3cc16f27	0.023612572
38	0x3c3fe50e	0.011712326
39	0xbcbc6e9f	-0.023001967
40	0xbc9c7d4f	-0.01910272
41	0xbba9cdfa	-0.005182025
42	0x3c423697	0.011853836
43	0x3c06766c	0.008206945
44	0xbc713f32	-0.01472454
45	0x3ced8dd7	0.028998299
46	0x3d1a6185	0.037690658
47	0xbd2db401	-0.042407993
48	0x3cb823da	0.022478033
49	0x3d15fcfc	0.036618218
50	0x3cf1298e	0.02943876
51	0x3ca841bb	0.020539155
52	0xbc538e61	-0.012912364
53	0x3bac0fad	0.005250892
54	0xbb4fe35d	-0.0031721212
55	0x3cec10dd	0.028816635
56	0x3d4c98cc	0.049950406
57	0xbd08262e	-0.033239536
58	0xbd1dba78	-0.03850791
59	0xbc91e387	-0.017808689
60	0x3ccaaa9c	0.024739556
61	0x3d23bf04	0.03997709
62	0xbc322ac1	-0.010874451
63	0xbb4a2c4b	-0.0030849155
64	0xbd2cc2bf	-0.04217791
65	0xbcfb7ba7	-0.03069861
66	0x3d1b8d75	0.0379767
67	0x3ce9e5af	0.028551904
68	0xbceb4577	-0.028719647
69	0x3c90bd7d	0.01766848
70	0xbd2b0573	-0.041753244
71	0x3c8dcda4	0.017309971
72	0x3c62ab9c	0.01383486
73	0x3d1b60c9	0.0379341
74	0x3d627c93	0.055294584
75	0x3d6ef2eb	0.058337133
76	0xbcf8b16e	-0.030358043
77	0x3cc30e8c	0.023810647
78	0x3b691ecf	0.0035571342
79	0x3ce19afc	0.027539723
80	0xbd07004a	-0.03295926
81	0x3bd45c07	0.006480697
82	0xbc25d18e	-0.0101207625
83	0x3c007a98	0.007841729
84	0x3d4f060d	0.05054288
85	0x3ca7fbaa	0.020505745
86	0x3aa51a2b	0.00125963
87	0xbb618652	-0.0034412337
88	0xbd23e7bd	-0.040015925
89	0xbb5db486	-0.0033829524
90	0x3d2b1cd2	0.041775532
91	0x3cfe6858	0.031055614
92	0xbc80b44f	-0.015710978
93	0x3ccd8119	0.025085973
94	0xbc9c2cd9	-0.019064354
95	0xbd12ea3f	-0.035867926
96	0xbc0e70bc	-0.00869387
97	0x3a717979	0.0009211521
98	0x3c671690	0.0141045
99	0xbcce911a	-0.025215674
100	0xbc236b17	-0.009974263
101	0xbc8df0f3	-0.017326808
102	0x3d5484d3	0.051884484
103	0x3d0f5c21	0.03499997
104	0x3d27a43f	0.04092812
105	0xbcbc2ec4	-0.022971518
106	0xbb5715b0	-0.0032819323
107	0x3b9ec212	0.0048449123
108	0x3c6581cb	0.014007996
109	0xbc21495f	-0.009844153
110	0x3d037a72	0.032099195
111	0x3d545228	0.051836163
112	0xbab730f6	-0.0013976383
113	0xbce89a76	-0.028393965
114	0xbc9ffe25	-0.019530365
115	0xbb944066	-0.0045242785
116	0x3cfad18f	0.030617503
117	0x3a68c247	0.0008879047
118	0xbd3ba606	-0.04581263
119	0xbc879fa6	-0.016555618
120	0xbc211a89	-0.009832987
121	0xbcf56f82	-0.029960398
122	0x3bf68cd4	0.0075241122
123	0xbd1082f8	-0.03528115
124	0xbca6877e	-0.02032828
125	0xbd22a905	-0.03971197
126	0xbd2059ec	-0.039148256
127	0xbd000ccf	-0.031262215

fc.1.weight f4 [128, 128]
0	0xbe84504f	-0.2584252
1	0xbdd60ef7	-0.10452073
2	0x3dc0714e	0.09396611
3	0xbd6f8579	-0.0584769
4	0xbe6a1c3c	-0.22862333
5	0xbcc6b536	-0.02425633
6	0x3e4bd28b	0.19904535
7	0xbe8482db	-0.25881085
8	0xbdc8dcd0	-0.09807742
9	0x3d098d86	0.033582233
10	0x3d978446	0.07398276
11	0x3d4e334a	0.05034188
12	0x3e0252b4	0.12726861
13	0x3c0a1c3a	0.008429581
14	0xbc043270	-0.008068666
15	0xbe09e125	-0.13464792
16	0xbdca466e	-0.09876715
17	0x3d1f37be	0.03887152
18	0x3de8a17d	0.113589264
19	0xbe2bebad	-0.16789122
20	0x3e51ddb5	0.20494731
21	0x3d1a3e84	0.037657276
22	0x3e013c8e	0.12620756
23	0x3e7c048c	0.2461111
24	0x3dbdc6c9	0.09266431
25	0x3ddf24c1	0.10895682
26	0x3e41311e	0.18866393
27	0x3e21e585	0.15810211
28	0xbe87e0de	-0.26538748
29	0x3e8c18b5	0.273626
30	0xbd38bd0a	-0.045102157
31	0xbeaac148	-0.33350587
32	0xbe2e45d0	-0.17018819
33	0xbd0a6f54	-0.033797577
34	0xbe0d82f5	-0.13819487
35	0xbe10523e	-0.14093873
36	0x3db6a4dc	0.08918163
37	0xbdfeed24	-0.12447575
38	0x3d8f826a	0.070072964
39	0xbdb2a53b	-0.087229215
40	0x3df2d5da	0.11857195
41	0x3e56e8e3	0.20987277
42	0x3e6d83a9	0.23194756
43	0xbe637dd0	-0.22215962
44	0xbe0296eb	-0.12752883
45	0xbdd5240e	-0.104072675
46	0xbedcc130	-0.4311614
47	0x3dfb1579	0.12259955
48	0x3e81406e	0.25244468
49	0xbde29273	-0.11063089
50	0xbe0aabbd	-0.13542075
51	0x3db70224	0.08935955
52	0x3d5bdcab	0.053677242
53	0x3d770c3e	0.06031441
54	0xbd8d0936	-0.068865225
55	0xbcb9e645	-0.022692809
56	0xbda0671e	-0.07832168
57	0xbd8443fb	-0.06458279
58	0x3ddd376a	0.10801585
59	0xbcec6674	-0.028857447
60	0xbe9aae8c	-0.30211294
61	0xbc50766c	-0.0127235465
62	0x3c041f62	0.008064123
63	0xbd2d9b6d	-0.042384554
64	0x3e630735	0.22170718
65	0x3cab0e81	0.02088094
66	0xbebaecfb	-0.36508927
67	0xbe0e4778	-0.1389445
68	0xbded778f	-0.115950696
69	0xbd1d4b15	-0.038401682
70	0xbd0dcf1f	-0.034621354
71	0xbe4a526b	-0.19758002
72	0x3df96091	0.12176622
73	0xbdc18e32	-0.0945095
74	0xbe625126	-0.22101268
75	0x3d74618a	0.059663333
76	0x3d558899	0.052132223
77	0x3e700b3b	0.23441784
78	0xbe68fca1	-0.2275262
79	0xbe593d04	-0.21214682
80	0x3e32aaed	0.17448016
81	0xbe61e047	-0.22058211
82	0x3e7854fb	0.24251167
83	0x3e55dbb5	0.20884593
84	0xbe48d8ad	-0.19613905
85	0x3d55f1eb	0.052232664
86	0xbdf75e67	-0.12078553
87	0xbd838cd5	-0.06423346
88	0x3da3efad	0.08004699
89	0x3c85b5f3	0.016322112
90	0x3e354fce	0.17706224
91	0xbcf703cb	-0.030153176
92	0x3e3129ac	0.17301053
93	0x3b48e832	0.0030655977
94	0x3ea718be	0.32636064
95	0x3e3d0051	0.18457152
96	0x3e4438c0	0.19162273
97	0x3d1f9bdb	0.038966995
98	0x3df7fa4f	0.121082895
99	0x3de878f4	0.11351195
100	0xbbdf1ac7	-0.006808612
101	0xbd8923e1	-0.066962965
102	0x3c935cff	0.01798868
103	0x3d6f2a35	0.05838986
104	0x3dedec16	0.116172954
105	0xbdf534bc	-0.11972949
106	0x3eae83a3	0.34084806
107	0xbe055a33	-0.1302269
108	0xbe4768a4	-0.19473511
109	0x3e2a3b6b	0.16624229
110	0xbcab8bd5	-0.0209407
111	0xbdfc88ae	-0.12330757
112	0xbe172b15	-0.14762528
113	0xbd8cab72	-0.06868638
114	0x3d42e4a0	0.047581315
115	0x3db6c404	0.08924106
116	0x3d21edf6	0.039533578
117	0xbe7f1767	-0.24911271
118	0x3e3a4142	0.18188956
119	0x3e220432	0.15821913
120	0xbe295cd6	-0.1653932
121	0xbe043115	-0.12909348
122	0xbc9dc8ca	-0.019260783
123	0x3e3cc98c	0.18436259
124	0xbe41cbc7	-0.18925391
125	0x3e2217e2	0.15829423
126	0x3e1c1cef	0.15245412
127	0x3d0f2842	0.034950502
128	0x3e9601e9	0.29298332
129	0x3e2cc2c6	0.16871175
130	0xbde6c4cc	-0.11268005
131	0xbda988aa	-0.0827802
132	0x3ed119c0	0.40839958
133	0xbd48c7e0	-0.04901874
134	0xbdeb3393	-0.114844464
135	0x3e0baef2	0.13640955
136	0x3d953ef7	0.072874
137	0x3ed53e6e	0.41649193
138	0xbe803d92	-0.25046974
139	0x3e53847c	0.20656008
140	0x3e765ec2	0.24059585
141	0xbdf7c189	-0.12097461
142	0xbdd9301a	-0.10604878
143	0x3db6b736	0.089216635
144	0x3e0a7bcc	0.13523787
145	0x3bf8b7a5	0.0075902515
146	0xbe0d2cda	-0.13786641
147	0xbd872141	-0.065981396
148	0xbe244095	-0.16040261
149	0x3e03d0df	0.12872647
150	0xbe26d8c1	-0.16293623
151	0xbc64ea32	-0.013971852
152	0x3c72f3d2	0.014828639
153	0xbe372ec0	-0.17888927
154	0xbe86132c	-0.26186502
155	0xbcc209bb	-0.02368628
156	0xbcd46826	-0.025928568
157	0x3e136779	0.1439494
158	0xbc38e10b	-0.011284123
159	0x3d03d8b6	0.032189094
160	0x3c7b4363	0.01533589
161	0xbdf2f13c	-0.11862418
162	0x3e5de7b6	0.21670422
163	0x3d0757a0	0.03304255
164	0x3d637cae	0.055538826
165	0x3d85e5e2	0.06537987
166	0xbd5d6f9c	-0.054061517
167	0x3e299161	0.16559364
168	0xbdef5db4	-0.11687794
169	0xbe6f1471	-0.23347642
170	0x3d6adc68	0.057339102
171	0xbcd56001	-0.026046755
172	0x3e23c78e	0.15994093
173	0xbd48266f	-0.048864778
174	0x3e146d27	0.14494763
175	0x3d913e50	0.07091963
176	0xbdca0599	-0.09864349
177	0xbd253402	-0.0403328
178	0x3e3fa543	0.18715386
179	0xbd99924e	-0.074986085
180	0xbe81f9aa	-0.2538579
181	0x3dc7129e	0.09720348
182	0x3e17c441	0.14820959
183	0xbbcc4e57	-0.006234925
184	0xbdcee20f	-0.10101711
185	0xbc9d8427	-0.019228054
186	0xbd3e389b	-0.046440702
187	0xbacd7b10	-0.0015676934
188	0x3bc8f789	0.006133024
189	0x3dfebe29	0.12438614
190	0xbced0da4	-0.028937168
191	0xbdec86b7	-0.11549132
192	0xbe5b462a	-0.21413484
193	0xbe00aec8	-0.12566674
194	0x3df64e96	0.12026708
195	0x3d9abf2a	0.07555993
196	0xbdce26f9	-0.10066027
197	0xbd43a66a	-0.047766127
198	0xbd173b1a	-0.036921598
199	0x3c7fa1a9	0.015602508
200	0xbd695e35	-0.05697461
201	0xbd7e1369	-0.06203023
202	0xbd31a775	-0.04337259
203	0x3e61036d	0.21973963
204	0x3b0d7681	0.0021585526
205	0xbeaae033	-0.33374175
206	0x3dfc20ee	0.12310968
207	0xbe037e29	-0.12841095
208	0xbd5dd394	-0.054156855
209	0xbd9371f9	-0.07199473
210	0x3d8e08f1	0.06935299
211	0xbea1f82f	-0.31634662
212	0x3e587dac	0.2114169
213	0x3d845881	0.06462193
214	0x3afa5d21	0.0019101241
215	0xbe107207	-0.14105998
216	0xbe8bd4e1	-0.2731085
217	0xbdb53d8f	-0.08849632
218	0x3db7619d	0.08954165
219	0x3c8d5a0f	0.017254857
220	0xbe6ce8af	-0.23135637
221	0xbe161edb	-0.14660208
222	0xbd9e5ee2	-0.07732941
223	0x3e4b3442	0.19844154
224	0xbc3b50d8	-0.011432849
225	0xbdc3fc90	-0.09569657
226	0xbba388da	-0.004990679
227	0xbe8a01fd	-0.26954642
228	0xbe659a6c	-0.22422189
229	0x3d82b08c	0.0638133
230	0x3ea1071b	0.31450734
231	0xbc967f15	-0.018371144
232	0x3acacc6d	0.0015472301
233	0xbe06290b	-0.13101594
234	0xbcf6da1b	-0.030133298
235	0x3e7d7ff9	0.24755849
236	0x3d5b62e9	0.053561125
237	0xbccb3724	-0.024806567
238	0xbd042e0a	-0.03227047
239	0x3e83caf3	0.25740775
240	0xbd4b9974	-0.04970689
241	0xbcdbd30d	-0.026834035
242	0xbe34c6fe	-0.17654034
243	0xbea10d7f	-0.3145561
244	0x3e9ee7b0	0.3103614
245	0x3dc0b9c7	0.09410434
246	0xbe62adc7	-0.22136603
247	0xbd8bd088	-0.068268836
248	0x3d50bbd4	0.050960377
249	0x3d9c5775	0.076338686
250	0xbdc0cdf3	-0.09414282
251	0x3e179a39	0.14804925
252	0xbdd3bafe	-0.103384
253	0xbcf14d6a	-0.02945586
254	0x3da60c0c	0.081077665
255	0xbdd082bc	-0.101811856

fc.1.bias f4 [128]
0	0xbce04013	-0.027374303
1	0x3d6c6694	0.057715014
2	0xbc1efef4	-0.00970434
3	0xbd29ad92	-0.041425295
4	0x3d02cf4e	0.031935982
5	0x3d2fdb56	0.042933784
6	0xbd2b5946	-0.041833185
7	0xbd30211e	-0.043000333
8	0x3d36227c	0.04446648
9	0xbd2a59cd	-0.041589547
10	0x3d27f28e	0.041002803
11	0xbd2f6790	-0.042823374
12	0x3d308380	0.04309416
13	0x3d0a4006	0.033752464
14	0xbd2d2714	-0.042273596
15	0xbd24c3e5	-0.040225882
16	0xbd311cc1	-0.043240312
17	0xbd0319d4	-0.032007053
18	0xbc63bb09	-0.013899573
19	0xbd221279	-0.0395684
20	0x3d3bfe85	0.045897026
21	0xbd2c2cb8	-0.042034835
22	0x3d393c7e	0.045223705
23	0x3d45b5e8	0.048269182
24	0xbd1b8d99	-0.037976835
25	0x3d31ff22	0.043456204
26	0x3d337697	0.043814268
27	0x3d3dca94	0.04633577
28	0x3d2443b9	0.040103648
29	0x3d2c1b56	0.042018257
30	0xbbcdab5a	-0.00627653
31	0xbc8cb4cf	-0.01717606
32	0x3d3b7443	0.045765173
33	0xbc770ba0	-0.015078455
34	0xbc06ac5b	-0.008219804
35	0xbd29ab31	-0.041423026
36	0xbcbc8f89	-0.023017662
37	0x3d532608	0.05154994
38	0x3d26e83a	0.040748812
39	0x3d296df8	0.04136464
40	0xbd2c12de	-0.04201018
41	0x3d1fbef3	0.039000463
42	0xbc953ead	-0.018218363
43	0xbccb796f	-0.024838177
44	0x3d289f6a	0.041167654
45	0xbc1e63e7	-0.009667373
46	0xbb72b1d9	-0.0037032275
47	0x3d5d8290	0.054079592
48	0xbbca80cb	-0.006179904
49	0x3d2918ba	0.041283347
50	0xbd2f7973	-0.042840432
51	0xbd265646	-0.04060962
52	0xbd2d4bcb	-0.04230861
53	0xbc2dfbfa	-0.010619158
54	0xbd2de2ca	-0.04245261
55	0x3d20a212	0.039217062
56	0x3d737280	0.059435368
57	0x3d2eadcc	0.042646214
58	0xbd2ed691	-0.042685095
59	0xbb8563e4	-0.004070746
60	0x3d2d5d0a	0.042325057
61	0xbc071df2	-0.008246886
62	0xbbb74c49	-0.0055938107
63	0x3d310834	0.043220714
64	0x3d61feaf	0.055174526
65	0x3d264c16	0.040599905
66	0xbc539abd	-0.01291531
67	0x3d14dfc5	0.036346216
68	0x3d23ef32	0.040023036
69	0xbd37f2e5	-0.044909377
70	0xbd2d82bd	-0.04236101
71	0xbc84d97b	-0.016216984
72	0xbd1cc74c	-0.038276
73	0xbbd0338a	-0.0063538
74	0x3d2c861e	0.04212009
75	0xbd2b4ee8	-0.041823298
76	0xbd2de141	-0.042451147
77	0xbc8e63f9	-0.017381655
78	0x3d07c2b5	0.03314467
79	0xbc7a0cbe	-0.015261827
80	0x3d2a54a3	0.041584622
81	0x3d159a32	0.036524005
82	0x3d10f38f	0.035388526
83	0xbd2caf7a	-0.042159535
84	0x3d2630f8	0.040574044
85	0xbd2e378b	-0.04253344
86	0xbb002816	-0.0019555143
87	0xbcb51c00	-0.022108078
88	0xbc9b6ced	-0.018972838
89	0x3d2ae139	0.041718695
90	0x3ccb5069	0.024818616
91	0x3d2cbe8f	0.04217392
92	0x3d2e5541	0.042561773
93	0xbd289ef6	-0.041167222
94	0xbc998c09	-0.018743532
95	0xbd2c6e1f	-0.042097207
96	0xbd3538ee	-0.044243746
97	0x3d2dcb7f	0.042430397
98	0xbd3973e7	-0.04527655
99	0x3d64968c	0.055807635
100	0x3d2c2627	0.042028572
101	0x3d2b7af9	0.041865323
102	0x3d413679	0.04717109
103	0x3d243f68	0.04009953
104	0x3d2d1024	0.04225172
105	0xbd3c3a6b	-0.04595415
106	0x3d2abde5	0.041685004
107	0xbd2b29fc	-0.041788086
108	0x3d775cef	0.060391363
109	0x3d33f013	0.043930124
110	0x3d2558ec	0.040368006
111	0x3d323b27	0.043513443
112	0x3c80170a	0.015635986
113	0xbba0da43	-0.0049088313
114	0x3d94aa29	0.07259018
115	0xbd2adc6c	-0.041714117
116	0xbace9d07	-0.001576335
117	0x3d32b64a	0.043630876
118	0xbd329ea9	-0.04360834
119	0xbd2ef35b	-0.04271255
120	0xbc860d3c	-0.016363733
121	0xbc7d8fbd	-0.015476164
122	0x3d35827f	0.044313904
123	0x3d29ff52	0.041503258
124	0xbc03ea6a	-0.008051494
125	0x3d2d2ca3	0.042278897
126	0xbbfc4e34	-0.007699752
127	0xbc58aa8a	-0.013224253

fc.2.weight f4 [1, 128]
0	0xbe9312df	-0.28725335
1	0x3e9548ad	0.2915701
2	0xbea8a72a	-0.32940036
3	0xbe45a3b6	-0.19300732
4	0x3e996d08	0.29965997
5	0x3e77fc7c	0.24217409
6	0xbed630c4	-0.4183408
7	0xbe942b39	-0.28939226
8	0x3e706d17	0.23479114
9	0xbe76fcd2	-0.24119881
10	0x3e89cefb	0.26915726
11	0xbe88734f	-0.26650473
12	0x3e5071af	0.20355867
13	0x3ee4169c	0.445485
14	0xbe7d90c6	-0.24762258
15	0xbe35477a	-0.17703047
16	0xbe807c95	-0.2509505
17	0xbeb6c850	-0.356997
18	0xbe6b4dbf	-0.22978877
19	0xbe2110d7	-0.1572908
20	0x3f02f83d	0.5116003
21	0xbec35383	-0.38149652
22	0x3e723974	0.23654729
23	0x3e831d66	0.25608367
24	0xbe64d426	-0.22346553
25	0x3e4444ce	0.19166872
26	0x3e6eb974	0.23312932
27	0x3e9a521f	0.30140778
28	0x3de8f646	0.11375098
29	0x3e6fb3d0	0.23408437
30	0xbe9cd686	-0.30632418
31	0xbea6ef9e	-0.32604688
32	0x3ef0459c	0.46928108
33	0xbea77a31	-0.32710412
34	0x3deba82f	0.11506688
35	0xbeaf3e40	-0.3422718
36	0xbe6bd083	-0.2302876
37	0x3e4f9d42	0.20274833
38	0x3e37e47f	0.17958258
39	0x3ea9c68c	0.33159292
40	0xbe914f32	-0.28380734
41	0x3e7ee3aa	0.24891534
42	0x3ea59893	0.32342967
43	0xbe2a5e00	-0.1663742
44	0x3e222b8f	0.15836929
45	0xbe21ee1f	-0.15813492
46	0xbea95eb8	-0.33080077
47	0x3e90a845	0.2825338
48	0xbe94c3ea	-0.2905572
49	0x3e9507ab	0.29107413
50	0xbe8dd5a6	-0.27702063
51	0xbe3f4ae6	-0.18680915
52	0xbec7987b	-0.3898352
53	0x3dd19051	0.10232604
54	0xbe8c07f1	-0.2734981
55	0x3e75dd27	0.24010144
56	0x3e73ab80	0.23795891
57	0x3e82c967	0.25544283
58	0xbe93f009	-0.2889407
59	0xbe8d4509	-0.27591732
60	0x3eadc3f9	0.33938578
61	0x3b51aa6d	0.003199245
62	0x3d0d682d	0.034523178
63	0x3e7b9128	0.24567091
64	0x3eb6d57b	0.35709748
65	0x3e461498	0.19343793
66	0xbe9a961e	-0.30192655
67	0x3e915f4f	0.28393027
68	0x3e789917	0.24277149
69	0xbe3177e9	-0.17330898
70	0xbeac878c	-0.33697164
71	0xbe82be26	-0.25535697
72	0xbed7d254	-0.42152655
73	0xbe80deea	-0.2517007
74	0x3eb30d5f	0.3497114
75	0xbee2a19b	-0.4426392
76	0xbe9ceef6	-0.30651063
77	0xbee1425b	-0.43995938
78	0x3ebbee0b	0.3670505
79	0x3e819516	0.25309056
80	0x3e44361c	0.19161266
81	0x3e8d87ec	0.27642763
82	0x3e9897f3	0.29803428
83	0xbed35c3c	-0.41281307
84	0x3e96ff91	0.29491857
85	0xbe8791ae	-0.26478332
86	0xbeb4f978	-0.3534658
87	0xbe5f4539	-0.2180375
88	0xbf0d3bd6	-0.5516943
89	0x3ee61e28	0.44944882
90	0x3ec1d733	0.37859496
91	0x3e982eb8	0.29723144
92	0x3e8d33a4	0.2757846
93	0xbeb230b7	-0.3480279
94	0xbed37251	-0.41298154
95	0xbecb59ba	-0.39716893
96	0xbe457de0	-0.19286299
97	0x3e9005d0	0.28129435
98	0xbe4b7fdc	-0.19872993
99	0x3e4ec7a1	0.2019334
100	0x3ea50d57	0.3223674
101	0x3efdaeae	0.49547333
102	0x3e81c6a7	0.25346872
103	0x3e403087	0.18768512
104	0x3e76e9b5	0.2411259
105	0xbe245287	-0.16047107
106	0x3f07f342	0.53105557
107	0xbe902abf	-0.28157613
108	0x3eab21af	0.33424136
109	0x3e4209f9	0.18949117
110	0x3e38ccec	0.18046921
111	0x3e5ed996	0.2176269
112	0x3e3054eb	0.17219894
113	0x3df0fb56	0.117666885
114	0x3e9f4055	0.3110377
115	0xbebb24a5	-0.36551395
116	0xbe5ab1c0	-0.21356869
117	0x3e6bdc9b	0.23033373
118	0xbe5e1480	-0.21687508
119	0xbe89fa68	-0.26948857
120	0xbecc46ab	-0.39897665
121	0xbe742c02	-0.23844913
122	0x3e625db5	0.22106059
123	0x3e9ec5ae	0.31010193
124	0x3d01e556	0.031712852
125	0x3ea3f109	0.32019833
126	0xbe8716df	-0.26384637
127	0xbe981358	-0.29702258
