data/task3_learned_goal.pt (torch_old, 80897 bytes, 5 tensors)

fc.0.weight f4 [128, 6]
00000000: 92ca a13e fbd9 a7bd 65c4 38bd d5ef 9cbd
00000010: e874 53be 8203 5d3d e5ed 1dbd 1ebd 733e
00000020: 69fd 913e 1cb7 c5bd 7562 eabe 1ba8 b4be
00000030: 99dd c13c ecbc 4abd 0247 7d3e b311 acbd
00000040: 2b08 843d 89eb 8cbd d1ee 883e 4dcb c8be
00000050: cf71 5b3d d7e3 1c3d 9ee8 31be d729 233e
00000060: 55f2 0e3f 5979 ba3e 24d7 bd3d 6a80 98be
00000070: 536e bebd 755b 20be aaca 913c cbcf 7e3e
00000080: 3463 8a3d 5500 2c3e a1de 3ebe 623f 153e
00000090: 137e 3dbd da53 833e d3a3 3dbe 545c ae3e
000000a0: b5bc 773e 43f0 c63c 1b5e 38be b9d1 963d
000000b0: b90f 4d3e e12a 7c3e 5f35 73bc 75cc b9bc
000000c0: ce44 33be 0858 e1be 631b 8b3c e2c5 1d3e
000000d0: df14 83be 4754 77be c555 8bbe 87cd 563d
000000e0: 3477 a4bd 9ca9 ba3d 5d90 8ebc e177 ea3c
000000f0: 862f a93e ba08 a0bc b3b8 823e 7e97 03be
00000100: 4745 aebd 7cbc 5cbe 882a 3f3e 07f5 a33e
00000110: 1436 10be 7c71 e8bd 154c 56ba 7ce6 19bb
00000120: 76bd 833e 477b c03d 2e69 413e da2b 0a3d
00000130: a99e 203e e846 623e aaae a63e 52fc b0bd
00000140: a08c e4be 356f 613d 9789 143e 9984 803b
00000150: 29b4 15be 936f 183e 8708 bcbe c44b 84be
00000160: 27c5 a2bd bdb8 083d 62ba 763e d918 83be
00000170: 837a 1abe 973d 903e 35c9 513e 51e7 e8bd
00000180: 89f1 773d b513 fb3b a47d 063d 932c 73bd
00000190: 4c79 2a3e e8e2 013d a118 70be bc9f 783e
000001a0: 913a ccbd 0aea cbbc 6463 4dbe cf3f 9fbe
000001b0: 8d4b 3e3e 8210 1cbe 2689 85bd a851 e93d
000001c0: e2af 6bbb f183 613d f8f0 aebe 6659 1e3d
000001d0: f317 e23d 8802 e93d 37db 563d e273 b63d
000001e0: 57bf 953e 1c1e b9be 7daf 7bbe 9ec3 783e
000001f0: ec76 7c3d 242e 6b3d 867b dabe 1895 0d3e
00000200: 309c 3b3e 883a 7c3d 5ec9 f6bd 1b3e 533e
00000210: 448e 32be d003 5a3e aaec 28be 8bcc 923e
00000220: 56c4 3f3d 1c72 1dbc c99e 0e3f 640d 51bd
00000230: a6b9 86be 6deb cc3d a1b4 5f3d 6969 003e
00000240: 175d 49bd e2f5 b5be f9a9 83bd e83f 84be
00000250: 9a47 b8bd f13f d73b 6b84 7d3e 56d4 76be
00000260: 69c7 633e 5388 053d 392c 2ebd bc2c 83bd
00000270: b03e bbbe 6579 283b 27cf e5bd d5e5 9cbe
00000280: 8e0e 553e d7ee 97be 3bc6 273e 7aeb c5bd
00000290: 57fc 133e b6d4 17bd abac c9be c2a6 823d
000002a0: 04ce 6bbe 502f d13e d44c 45be cd63 023e
000002b0: 2bda 33be ea09 0d3d 6aa8 c4bd ab98 bf3d
000002c0: 2feb bebe 42e5 913d 70b8 a23d 0c4d 663d
000002d0: da47 7bbe 3a2f 263e 9655 393e 01d2 4d3e
000002e0: d347 2dbd 074f 733d dc5d b93e a6cd 7fbe
000002f0: 65f8 d0bd b81f fdbd abff d1bd ff31 8abd
00000300: e208 713e 1e2d 80bc 51ee 33be 1b68 59bb
00000310: d8e4 83bd 9108 a6bc bdc6 a83e 8e90 803d
00000320: 3f33 b63d 99fb 23bd 4d36 22bc 784b ae3d
00000330: bb2c 35bd 028a cdbc 1b76 663e a7b0 2bbe
00000340: 31f0 e3bd f7f0 31be 3cc8 37be 90cc 503e
00000350: 7b59 443e 67c8 e73b 913b bfbc ae4d 8d3e
00000360: 0cfc 18be 86ec cd3e 9438 4f3e b53d aabc
00000370: 35bc 793d 6f3d a9be 6dd7 fdbd 9de7 9fbe
00000380: 00e5 0cbd c23c f03d a2ec 273e 2fc0 053c
00000390: 56f1 6fbe 7f86 883d 2499 91bd beb4 813d
000003a0: edb4 5fbe f9df fb3d 6814 2abe 28ac b83e
000003b0: 3035 cb3e 14c0 9f3d 7a0a 98bc 665c cd3c
000003c0: 3e87 e6be a18d a93b c8cf 0bbe 4177 b8bd
000003d0: da93 5cbb 780c 7ebd 9b42 23bd e020 033e
000003e0: cc9c 5ebe ed33 5dbd 4b52 5c3d 816b 0f3b
000003f0: 2139 103e 3284 a3be de28 893e 2f98 8fbd
0.3159986 -0.08195873 -0.04510917 -0.07662932 -0.20650065 0.053958423 -0.038556952 0.23802611
0.2851365 -0.09654066 -0.45778242 -0.35284504 0.023665236 -0.049496576 0.24734119 -0.08401813
0.064468704 -0.06880862 0.26744702 -0.39217606 0.053575333 0.038303223 -0.17373893 0.1593393
0.5583852 0.36420706 0.092695504 -0.29785472 -0.092983864 -0.15659888 0.017796833 0.24883954
0.06757203 0.16797002 -0.18639614 0.1457496 -0.046262812 0.2564991 -0.18519525 0.34054816
0.2419308 0.024284488 -0.18004648 0.0736422 0.20025529 0.24625732 -0.014844268 -0.0226805
-0.17506716 -0.44012475 0.016980832 0.15407518 -0.2560186 -0.24153243 -0.27213874 0.0524421
-0.08030549 0.09114382 -0.017402822 0.028621616 0.3304407 -0.019535411 0.2553154 -0.12850758
-0.08509307 -0.21556276 0.18668568 0.3202288 -0.14083129 -0.113497704 -0.0008174789 -0.0023483327
0.25730485 0.09398513 0.18887779 0.033733226 0.15685524 0.22097361 0.32555133 -0.08641876
-0.44638538 0.055037696 0.14505611 0.003922057 -0.14619507 0.14886312 -0.36725256 -0.25839055
-0.0794776 0.033379305 0.24094537 -0.25604895 -0.15085797 0.2817199 0.2048691 -0.11372245
0.06053308 0.0076622614 0.032834664 -0.05936868 0.16647834 0.031710535 -0.23446895 0.24279684
-0.09972108 -0.024891872 -0.20057446 -0.3110337 0.18583508 -0.15240672 -0.065202996 0.11392528
-0.0035962989 0.05505747 -0.3416822 0.038659476 0.11039724 0.11377436 0.052455153 0.08908822
0.29247543 -0.36155784 -0.24578662 0.24293372 0.06163685 0.05741705 -0.42672366 0.13826406
0.183213 0.061579257 -0.120501265 0.2062916 -0.17437083 0.21290517 -0.1649653 0.2867168
0.0468181 -0.009609725 0.55711037 -0.05103816 -0.26313514 0.100058414 0.05461562 0.12540211
-0.049161043 -0.35539156 -0.06428904 -0.25830007 -0.08998032 0.0065689017 0.24757545 -0.24104437
0.22244038 0.032600712 -0.042522643 -0.06405017 -0.36571264 0.0025707122 -0.11221152 -0.30644098
0.20806333 -0.29674408 0.16384213 -0.09664054 0.14451729 -0.03706809 -0.39389548 0.06379463
-0.23027807 0.4085641 -0.19267589 0.12733383 -0.17563693 0.034433283 -0.09602435 0.09355291
-0.37288806 0.071238056 0.07945335 0.05622582 -0.24539128 0.16228953 0.18099055 0.20099641
-0.042304825 0.05940154 0.36204422 -0.24980792 -0.102036275 -0.123595655 -0.10253843 -0.06747817
0.23538545 -0.015646514 -0.17571379 -0.0033173624 -0.06440133 -0.020267757 0.32964125 0.062775716
0.08896493 -0.040034864 -0.009900642 0.08510488 -0.04423211 -0.025090221 0.22505991 -0.16766606
-0.11129797 -0.17377077 -0.17947477 0.20390534 0.19174759 0.0070734504 -0.023343833 0.27598327
-0.14939898 0.40219516 0.20236427 -0.020781377 0.060970504 -0.33054683 -0.12394605 -0.31231394
-0.03439808 0.11730339 0.16398862 0.008163496 -0.23431906 0.06666278 -0.071092874 0.06333302
-0.21846361 0.12298579 -0.16609347 0.36068845 0.39689016 0.07800308 -0.018559683 0.025068473
-0.45025057 0.005174354 -0.13653481 -0.09007121 -0.0033657462 -0.06202361 -0.03985844 0.1280551
-0.21739501 -0.0540046 0.05378942 0.0021884146 0.14084293 -0.31936795 0.26788992 -0.070114486

fc.0.bias f4 [128]
00000000: 6fef 0e3d 085f 643c 1069 5cbc fdd4 37bc
00000010: 534d 7d3c 1114 84bc ccdd ae3b 7108 77bc
00000020: 7035 0b3c c2ac c6bb f5de 2a3c 95a8 06bd
00000030: a8f7 a0bc 446e 79bc 9234 38bc 9e4e fdbb
00000040: 76e3 05bc 0ee0 983d 285b 153c 7b94 3abc
00000050: 63f2 d1bc 6bf5 cb3c 8825 10bd 36ea e2bb
00000060: 9ed6 e13c 394b 643d cc7f 453c 9646 3cbc
00000070: 3c92 cc3a 6046 94bb 2264 403c e425 403d
00000080: f058 f43b bc04 ea3c 367c 1ebb c357 1dbc
00000090: add8 923d 397a cbba c964 6e3b 1997 cabc
000000a0: 3af8 c83c d860 babc 9c63 42bc 8fb7 a43b
000000b0: 888a 903c 4571 d4bb 9813 2fba c47b 393c
000000c0: de5f 8b3c 9313 8bba 15a8 6f3c 5e8a 66bc
000000d0: 76e2 4cbb 073c a2bc f734 003d 63aa f73c
000000e0: 8cc5 1fbb ff5d 2ebb 5de8 a13b 0238 8a3d
000000f0: 27bd 90bc 58c2 99bc c8f9 0f3d 0e0c aebc
00000100: 28c5 3b3d 421a 1dbc c516 253d f26f 153d
00000110: 2738 acbc 646f 883c 8671 8a3c acae cbbc
00000120: 2bdf 88bb f0bb cf3c 9217 0bbd 0b8a 5f3b
00000130: ab95 01bd 482e 4f3c 9ef4 713c dcec 48bd
00000140: 3975 da3b 84ba 2fbb 4a51 e4bc 760b 4b3d
00000150: bc5b 70bc d53b 0c3b 1b71 7bbb 4f74 c53b
00000160: 5ff8 d4bb 8233 5cbb d011 c4bc ff69 ae3c
00000170: 56bf 11bc b923 b5ba ee3e 413c 121b 3c3c
00000180: 49be 05bc 99d6 f7ba 89f1 4c3c 00ad ba3a
00000190: 7fc5 3ebc 8123 cdbc 17ef 83bc f048 81bc
000001a0: 5af6 2f3c 98d1 553c 6549 cfbc ac78 a13c
000001b0: 38bb 093d 5961 173c 5761 883b 0460 693c
000001c0: 4786 b6bc 6ece b4bc 4eab 023d 8d93 e9bc
000001d0: b1d4 cdba f549 63bb 7d60 223c 4337 a2bc
000001e0: 546d 323c 82bd 56bd c3cf 053c 75c9 84bc
000001f0: 2190 4aba 5d22 163c 3a3b 123d 18c7 f3bb
0.03489631 0.013938673 -0.013452783 -0.011220214 0.01546033 -0.01612285 0.005336499 -0.015077696
0.008496627 -0.006063075 0.010429134 -0.032875616 -0.019649342 -0.015224043 -0.0112430025 -0.007730319
-0.008171907 0.0746461 0.009115972 -0.01138794 -0.025628274 0.024897298 -0.035192043 -0.006924893
0.027568158 0.0557358 0.012054395 -0.011491438 0.0015607546 -0.004524991 0.0117426235 0.046911135
0.0074568912 0.02856671 -0.0024182922 -0.009603444 0.07170234 -0.0015524096 0.003637599 -0.024730252
0.024532426 -0.022751257 -0.011864569 0.0050267647 0.017644182 -0.0064832293 -0.000667864 0.011321012
0.017013486 -0.0010610692 0.014627476 -0.014071075 -0.003126291 -0.019804014 0.03130051 0.030232614
-0.0024379222 -0.002660632 0.00494103 0.06748964 -0.01766832 -0.018769428 0.03515032 -0.021245982
0.04584232 -0.00958878 0.040304918 0.036483712 -0.02102287 0.016654678 0.016899835 -0.024863563
-0.0041769943 0.02535817 -0.033958025 0.003410938 -0.031636875 0.012645312 0.014767794 -0.04905401
0.006666806 -0.0026814053 -0.027870793 0.049571477 -0.014670309 0.0021397967 -0.0038366977 0.006025828
-0.0064993347 -0.0033600037 -0.023934275 0.021290777 -0.008895716 -0.001381985 0.011794789 0.011481063
-0.008163043 -0.001890856 0.012508758 0.0014242232 -0.011643766 -0.025041344 -0.016105218 -0.01578185
0.010739887 0.013050459 -0.025303552 0.019710861 0.03362581 0.009239518 0.0041619944 0.014244083
-0.022280825 -0.02207109 0.03190165 -0.02851274 -0.0015703646 -0.0034681533 0.0099107 -0.019801741
0.010890324 -0.052426822 0.00816721 -0.016209343 -0.00077271654 0.009163466 0.035701014 -0.0074395053

fc.1.weight f4 [128, 128]
00000000: 90bb 92be 3ecb 2d3e 8af8 2d3e e2d5 a83d
00000010: f6aa 26be 0f7b 01bc c844 823e 9ee7 37be
00000020: a20c 08bd 30d9 5b3d 0e3b 983d babd d33d
00000030: d6f6 d7bd 7571 06be a0a4 003d ee52 e5bd
00000040: 9b51 93bb a779 48bc eee3 333d 6595 913e
00000050: 6d2f 853b 5459 8d3d 26a9 073e 1a55 49be
00000060: fce2 893d b67c fabd d940 573e c510 8aba
00000070: 1aa8 68bd fddd b23d 1ccc 853e 6628 a8be
00000080: e822 ecbc 3740 76be 41b4 973e e4bf fe3d
00000090: 4f97 c63d 7786 8cbe 183a 3dbd e859 5a3e
000000a0: 45f6 1d3e 8666 ad3c 8ce9 f33b 0446 96be
000000b0: cb4b 87bd 7339 42bd e35e 81be 6834 5a3d
000000c0: 8c32 c63d 1952 923e 4904 663e 9df9 b8bc
000000d0: cba7 8bbe e56c ffbd 1d37 143e 3b37 c83d
000000e0: d337 3e3e 752f 463d 6704 74bd f03c dfbe
000000f0: d3b5 34bd 584e aa3d 8aab 0cbd 13e3 18bc
00000100: f1eb 0cbe 88f6 ce3d 2494 66be 775c f9bd
00000110: 34ac b03d 6c54 1fbc ed09 8dbe f0a5 673d
00000120: 2ef5 d4bc 6bf6 46be 626d d83d 6c17 cdbd
00000130: 5606 5e3e ca97 dfbb 60b4 903d 1f72 973d
00000140: b9f0 a9bd 308a ab3d fb25 463e ee0e 9cbe
00000150: d191 2dbd f30e 23bd 6782 913e 2a65 383d
00000160: 9222 d33d 52fa df3d 3b8d a5bd 0c9c 323e
00000170: 3f8d 6b3e 653d 423d 6c85 743e 6e18 a93e
00000180: dfc1 1fbd e968 493e 08b5 fabd 50fc 5a3d
00000190: 3b41 d9bd cfb7 51bd 2a5c 303e 38a7 873c
000001a0: 9560 573e efaf 143e d8f1 c63c b04f 59bd
000001b0: 1cee b2bd c9f5 543c 4324 263d 3f08 54bd
000001c0: 8c30 6e3e 4874 883d 806a 35be 8dbe b8bd
000001d0: dc13 8cbd b27d ec3c 7648 eabb 69d5 0c3e
000001e0: c9b7 f2bd 38aa c43d 3f52 0bbe e330 823d
000001f0: 5c7b 013e 4e52 953c 791f 593d 05e1 983d
00000200: 55bc 1b3e 320c dcbd 087d d43c 1b94 333e
00000210: cb8e 793e bc4a 123a d170 5ebd e2ae 39be
00000220: e6a0 5c3e 270d 0abc 048c e33d fb2f 2cbb
00000230: cb37 0f3c 34dc 593a 7b73 aabb 1979 8abc
00000240: 42d9 253b ba26 423d 7cdf 96bd efef 23be
00000250: 2c61 a03c 9417 02be fcc7 a4bc 5073 2d3e
00000260: 1962 d93d 3a3a 9a3d 1274 23be ef31 063b
00000270: 803e 37bd 6b15 aebc 16d2 07be 58c9 313e
00000280: e54c 963c 2fc6 2f3e 5b6c e5bc 98a8 c3bd
00000290: 73ad 9ebd 016b 8f3e 98fd 09bd acb8 03be
000002a0: 9100 f9bd 1473 e8bd 80ba b53d 2f6a 313e
000002b0: 3539 993b 8abf 953c ea1f f43d fcd6 95bc
000002c0: 0731 22ba 5b16 91bd 9c2b d1bc 282c 203a
000002d0: 1383 443e 8ad5 6e3c c8e1 253c f4df 613d
000002e0: ecd7 963d 4108 f7bd a7d9 023e cbd9 2f3e
000002f0: 63c9 603e 594e 38be 9186 f43c 2d11 1cbd
00000300: 0b91 3c3e 3002 8abc a4a8 ca3d 3a70 863e
00000310: 0e77 3c3c d7c0 813e 76b3 b73d 662f 423d
00000320: 4979 ba3a 4e4f 1e3e adcf 37bd f976 ab3c
00000330: ca8b 9ebd dc76 123d f0ee 47be f6f5 f8bc
00000340: e636 ae3d 70be 76bd 8085 44bd b6f3 403e
00000350: 2be7 8b3b 95d6 f1bb 5cf3 30be dbb8 b43d
00000360: 9b53 b03d c484 56b9 7ded a0be aee5 fabd
00000370: ecad febd b4ae 97bc 361c a0bd 9445 78be
00000380: d7c9 343c 1277 3fbe 312f 4f3e c518 a9bc
00000390: f7d8 e93d 400c 12bd ae1c 37bd a97a f0bc
000003a0: 4d1f 06be ae36 9ebc d09b 143d 8bb5 dcbc
000003b0: be14 fa3d 3dbe b83c c27d 30bd 8f6d 433e
000003c0: 56ed 79bc 0005 b0bb 10b8 243e d43c 233c
000003d0: 8dd0 903d d3f6 003d a650 863d 449d 18bd
000003e0: 0300 553e b98c a2bc 4137 a63d 285a 9b3c
000003f0: 61ae e8bc 3860 1ebc 52bf 1ebd 2394 93bc
-0.28658724 0.16972062 0.16989341 0.0824392 -0.16276154 -0.007902875 0.254431 -0.17959449
-0.033215173 0.053673923 0.07433139 0.10338922 -0.10545127 -0.13129218 0.031407 -0.11197458
-0.004495812 -0.012236035 0.043918543 0.2843429 0.0040644915 0.069018036 0.13248119 -0.1966137
0.06732747 -0.12230818 0.21020831 -0.0010533562 -0.05680094 0.08733747 0.26132286 -0.32843322
-0.028825238 -0.24047934 0.2962971 0.12438944 0.096968286 -0.2744634 -0.04619798 0.21323359
0.15425976 0.021167051 0.0074436124 -0.29350293 -0.06606253 -0.04741807 -0.25267705 0.053272635
0.0967761 0.2857826 0.22462572 -0.022579962 -0.27276453 -0.12471942 0.14474149 0.097761594
0.18575983 0.048385102 -0.05957451 -0.4360118 -0.044118714 0.08315724 -0.03434328 -0.009331482
-0.1376188 0.10105616 -0.22517449 -0.121758394 0.08626595 -0.009724718 -0.27546635 0.056554735
-0.025995817 -0.19429938 0.10567738 -0.10014233 0.21682104 -0.0068235146 0.07065654 0.07394814
-0.08297867 0.083759665 0.19350426 -0.3048014 -0.04237539 -0.03980918 0.28419802 0.045018353
0.10309328 0.10936417 -0.08083578 0.1744234 0.230031 0.04742183 0.23879021 0.3302645
-0.03900325 0.19668926 -0.1224156 0.05346328 -0.10608145 -0.051200684 0.17222658 0.016559228
0.21032937 0.14520238 0.024285242 -0.05305451 -0.08736822 0.012998053 0.040561926 -0.051765677
0.23260707 0.06662804 -0.17716408 -0.0902072 -0.068397254 0.02886853 -0.0071497513 0.13753285
-0.118514605 0.09602779 -0.13605593 0.06356981 0.12644714 0.018227722 0.05300853 0.07464794
0.15208562 -0.107445136 0.025938526 0.17536967 0.24370877 0.00055805943 -0.05430681 -0.18133119
0.21545753 -0.008425987 0.1111069 -0.0026273716 0.008741329 0.0008310706 -0.0052017546 -0.016903447
0.0025306498 0.047400214 -0.07366845 -0.16009496 0.019577585 -0.12704307 -0.020114891 0.1693852
0.10614414 0.07530637 -0.15962246 0.002047654 -0.04473734 -0.021250447 -0.13263735 0.17361963
0.018347213 0.17165445 -0.02800577 -0.09553641 -0.077479266 0.28011325 -0.03368911 -0.12863415
-0.12158311 -0.113500744 0.08873463 0.17325662 0.004676009 0.01827981 0.119201496 -0.01829099
-0.0006187115 -0.07084342 -0.02553349 0.00061100954 0.19190626 0.014577279 0.010124631 0.05514522
0.073654026 -0.12062121 0.1277834 0.17172925 0.21951823 -0.17998637 0.029849323 -0.038102318
0.18414705 -0.016846746 0.09895447 0.26257497 0.011502994 0.25342438 0.08969776 0.047408484
0.001422682 0.1545994 -0.04487579 0.020930754 -0.077415064 0.035757884 -0.19524741 -0.03039072
0.08506565 -0.06024021 -0.047978878 0.18842968 0.0042695007 -0.0073803165 -0.17280334 0.08824321
0.086096965 -0.0002045809 -0.3143119 -0.12250839 -0.12435517 -0.018515922 -0.07817881 -0.24245292
0.0110344505 -0.18697765 0.20232846 -0.020641694 0.11418336 -0.035656214 -0.044705085 -0.029355364
-0.13097878 -0.019313183 0.036281407 -0.026942035 0.122109875 0.02255165 -0.043088682 0.19084762
-0.015254339 -0.00537169 0.1608584 0.009963233 0.07071028 0.03148539 0.06558351 -0.037259355
0.20800786 -0.019842492 0.081160076 0.018963888 -0.028403463 -0.009666495 -0.038756676 -0.018014973

fc.1.bias f4 [128]
00000000: e61d 8cbc 148c ef3c 2ca8 863c e179 be3c
00000010: 91ef 0ebc 9def 673a 44da 883c 80cf 3d3c
00000020: b35c 8fbc 8818 863d ec0a 783c 24b1 383c
00000030: 33e9 4dbc 008a bf3c 9c39 063d ffb3 48bc
00000040: 527b fcbb 4a2b 09bc 6d04 c93c a215 77bc
00000050: 3f23 113d d0ca 7abc b9cf 9abc 8bbb f03c
00000060: d922 483d 5293 6ebc fa5c ca3c ce23 683c
00000070: 83e6 e93a cd2a 7dbc 2643 afba 35cc a43c
00000080: 6539 803c fcf4 65bc fef2 183d 4784 1abc
00000090: 1e7a 2dbc 3655 1b3b ba34 8dbc 5d90 a33c
000000a0: fc7b 863c f19b ac3c ee51 bbbc c045 f33c
000000b0: 5db5 48bc 4cb6 273c 4338 b23c b770 67bc
000000c0: a9d4 9bbc 16b8 f23c 0029 753d fe0d a23c
000000d0: 8196 0f3c 1bc4 71bc f5d6 a5ba c12d f23c
000000e0: af1c 563c 31c8 173c 9662 4c3c 3fe8 173d
000000f0: 644f 083d f21e 863c 1889 873c b266 5ebc
00000100: 5824 8bbc 377f d93c 96fd 163a 4e51 6ebc
00000110: eeb5 32bb e982 863c 851e bcbc 1367 403c
00000120: c82d c63c aae8 11bc ad7e 293c 2a62 f1b9
00000130: 4864 30bb c9fe 3dbd 0524 7c3c 4fdc 233b
00000140: 5d92 153d 38c8 7abc f8f6 8bbc fd29 ca3c
00000150: 5d14 673c 238a 2bbb 823a a33c 12aa c53b
00000160: efdd 86ba d222 593c ffc7 943c f0f5 3b3c
00000170: 29b1 8f3c ea29 7abc af11 90bc 8465 843c
00000180: 37da 863c 178f a7bc a9d6 bd3c 8577 ef3c
00000190: 023a 873c f20b 89bc e5d8 313d 83f8 1d3d
000001a0: d759 2e3d 0e6a b33c a7b2 863c f84a cf3b
000001b0: 3b2b 333d 5fc9 9d3c bf6f 7f3c 6cc0 77bc
000001c0: 7976 043b a1dd 863c 5ff2 353d 5d74 3f3d
000001d0: 0978 853c 39ba 843c f538 6dbc 072e 1d3d
000001e0: a65f a83c 40d9 ae3c 4e79 cc3c 725e 9dbc
000001f0: 2c97 ac3c 3fbe 79bc 755a 703c bf0a 7abc
-0.0171041 0.0292416 0.016437612 0.023251476 -0.008724109 0.0008847656 0.01670564 0.011585116
-0.017500257 0.06547648 0.015139323 0.011272702 -0.012567806 0.023381233 0.032769784 -0.012249946
-0.0077051306 -0.008372137 0.024538243 -0.015080841 0.035434004 -0.015307143 -0.018897878 0.029386302
0.04886136 -0.014561491 0.024702538 0.014168693 0.0017845187 -0.015452099 -0.0013371452 0.020116905
0.015652368 -0.01403546 0.03734111 -0.009430951 -0.010588197 0.0023701913 -0.017237056 0.019966299
0.016416542 0.021070452 -0.022866216 0.029696345 -0.012250272 0.010236334 0.021755343 -0.014125994
-0.019022303 0.029628795 0.059853554 0.019782063 0.00876391 -0.014756228 -0.0012652563 0.029562833
0.013068362 0.009264038 0.012474677 0.03708672 0.033278838 0.016372178 0.016544864 -0.013574289
-0.016985103 0.026549919 0.0005759833 -0.014545752 -0.0027269083 0.016419845 -0.022963772 0.011743325
0.024191752 -0.008905569 0.010345143 -0.0004604024 -0.002691524 -0.04638556 0.015389447 0.002500314
0.036516536 -0.015306525 -0.017085537 0.024678225 0.014103976 -0.0026174865 0.01992536 0.006032237
-0.001028953 0.013252931 0.018161772 0.01147221 0.017540531 -0.015268782 -0.017586557 0.016161688
0.016461475 -0.020453973 0.023173647 0.029231796 0.016507152 -0.016729329 0.043419737 0.038567077
0.042566147 0.021901157 0.01644261 0.0063260756 0.0437424 0.01926106 0.015590607 -0.015121561
0.0020212217 0.016463103 0.044420596 0.046741832 0.016292589 0.01620208 -0.014478912 0.038373973
0.020553421 0.021343827 0.024960186 -0.019210074 0.021068178 -0.015243112 0.014670004 -0.015261351

fc.2.weight f4 [1, 128]
00000000: 8b22 843e 1f9d 80be 73df e2be 767c 633e
00000010: 131a aa3e f8a1 323c 0cf8 a3be ee88 b43e
00000020: 515e 53be d223 ddbe 0564 84be d631 abbd
00000030: 8b24 263e e905 92be e5eb 83be 180c c83e
00000040: 9a5e c43d 4cfa 113e e6bd d4be dcb8 c13e
00000050: 43a5 99be 388a a13e 7c0f 563e 20f9 84be
00000060: 59af a6be 11d9 943e 3ae6 d5be 8349 eabe
00000070: ee5f 0fbe b195 c53e 8d39 5b3d 8dd2 9cbe
00000080: 4895 4b3e eb78 d9bd efd2 efbe 783e b63e
00000090: f11e 923e d92a f43e dd51 933e 7b73 ec3e
000000a0: f182 b9be a78a 61be b08c 263e 6dd4 a2be
000000b0: 81b7 003f c979 923e 419f 69be bebc 673e
000000c0: 9b30 083e decc 97be b626 f5be fc2a c23e
000000d0: 4058 d73e 7662 5e3e 1b42 683d 5238 50be
000000e0: 288c ba3e 7afd 833e 4d4c ec3e b08a d8be
000000f0: 570d e5be 8efd 03bf 2439 92be 12b3 0c3e
00000100: 42b8 ab3e 6ba5 59be e1ff 2cbe e393 853e
00000110: 9a6a 843e bc7f 7ebe 705b c03e 0ea6 583e
00000120: 78e8 f2be 9f3f 463e 8e87 b63e 360a 793e
00000130: fe6b 993e 2d74 b33d 72d7 aabe b164 be3e
00000140: 95e0 8bbe b340 f03e 0b68 7c3e 713a 773e
00000150: 97c1 33be 6c93 a33e 348b a5be ce51 083f
00000160: 01a9 4c3d 9367 33be 5bce 54be a1f0 9a3e
00000170: c244 a4be 7ef9 143e e757 8b3e 087e 543e
00000180: 9f34 163f 28db 8c3e aecc 92be 2b1e 84be
00000190: f3d7 84be bbad 093f b4e6 aebe f62d 9bbe
000001a0: ef78 9bbe d6f4 92be 7cb5 7cbe 429f 683e
000001b0: 5c0e adbe 9ed4 4ebe d4fd 073f 91e1 cf3e
000001c0: 48c4 e03e de99 84be 7097 21bf 62af eabe
000001d0: 5d99 65be 91a5 55be 9358 6c3e 1c7c b1be
000001e0: 0ea0 6d3e b806 683e 93a5 763e 4ae7 3c3e
000001f0: 0979 a5be 14d3 e23e 8ec5 3fbe 6087 eb3e
0.25807604 -0.25119874 -0.44311103 0.22215447 0.33223018 0.010902874 -0.32025182 0.3526072
-0.20641448 -0.4319139 -0.2585756 -0.08359115 0.16224878 -0.28520134 -0.2576591 0.39071727
0.09588356 0.14255637 -0.4155113 0.3783635 -0.30008897 0.31550765 0.20904344 -0.25971317
-0.32555655 0.2907186 -0.4177721 -0.4575921 -0.14001438 0.38590768 0.05352168 -0.30629387
0.19881165 -0.106187664 -0.46840617 0.35594535 0.2853923 0.4768894 0.28773394 0.46181855
-0.36232713 -0.22025548 0.16264606 -0.31802693 0.50280005 0.2860854 -0.22814657 0.22630593
0.13299792 -0.2964849 -0.47881097 0.3792342 0.42059517 0.21717247 0.056703668 -0.20333984
0.36435056 0.25779325 0.46151963 -0.4229331 -0.4473674 -0.5155877 -0.2855922 0.13740185
0.33539015 -0.21254508 -0.16894485 0.2608939 0.2586258 -0.24853414 0.3756976 0.21157095
-0.47442985 0.19360207 0.35650295 0.24320301 0.29965204 0.08762393 -0.33367497 0.37186196
-0.2731978 0.46924362 0.24649064 0.24143387 -0.17554317 0.3194841 -0.32332766 0.53249824
0.049965862 -0.17519979 -0.20781843 0.3026171 -0.32083708 0.14548299 0.27215502 0.20751202
0.58674043 0.27510953 -0.28671783 -0.25804266 -0.25946006 0.53780717 -0.34160388 -0.30308503
-0.30365703 -0.2870242 -0.24678606 0.22717002 -0.33800018 -0.20198295 0.53121686 0.4060178
0.4389975 -0.2589864 -0.631217 -0.4583693 -0.22421785 -0.2086394 0.23080663 -0.34665
0.23205587 0.22658813 0.24086599 0.18447605 -0.32318905 0.44301665 -0.18727705 0.4600172
