data/task2_learned_goal.pt (torch_old, 82433 bytes, 5 tensors)

fc.0.weight f4 [128, 9]
0	0xbe9e67b1	-0.30938485
1	0x3dff65ff	0.12470626
2	0x3e085daf	0.13316987
3	0x3aeb42b7	0.001794896
4	0xbe404467	-0.18776093
5	0x3d5f804d	0.054565717
6	0x3e859260	0.26088238
7	0x3d085404	0.03328325
8	0xbe2fdf1e	-0.17174956
9	0xbe7758a9	-0.24154915
10	0xbe5a4524	-0.21315438
11	0x3d9c5780	0.07633877
12	0x3e1ab9b1	0.15109898
13	0xbd52ccd7	-0.05146488
14	0xbc1ba061	-0.0094986865
15	0x3e8c21ec	0.2736963
16	0xbcd02588	-0.025408521
17	0x3d82734a	0.06369646
18	0x3eea1db0	0.45725775
19	0x3e42dcf9	0.19029607
20	0x3d9b3064	0.07577589
21	0xbd5bd965	-0.05367412
22	0x3e1069dd	0.14102884
23	0x3e17979c	0.14803928
24	0x3da0f708	0.078596175
25	0x3d825f30	0.06365812
26	0x3da063c6	0.0783153
27	0x3ecfe649	0.4060538
28	0xbd6be906	-0.057595275
29	0x3e106461	0.14100792
30	0xbd7659e9	-0.06014434
31	0x3debb987	0.11509996
32	0x334f8e31	4.8325266e-08
33	0x3e871542	0.26383406
34	0x3da15394	0.078772694
35	0xbc2b6bb6	-0.010462692
36	0x3d5b38d1	0.05352098
37	0xbd87a038	-0.06622356
38	0x3e2d00a8	0.16894782
39	0xbe742ac8	-0.23844445
40	0xbd6eeb72	-0.058330007
41	0x329d4ba3	1.8311601e-08
42	0x3d2ce9d0	0.04221517
43	0x33859549	6.22045e-08
44	0x3dbcbf90	0.09216225
45	0xbdba4ea4	-0.09097031
46	0xbee37973	-0.44428596
47	0xbdd0ee56	-0.10201709
48	0x3d3c5c1e	0.045986287
49	0x3e21d8ea	0.15805402
50	0xbe360436	-0.17775044
51	0xbde7a1b0	-0.11310136
52	0xb1968970	-4.3811994e-09
53	0xbe19f13c	-0.1503343
54	0x3e4ea8c3	0.20181565
55	0xbcc19c99	-0.023634242
56	0xbd870a21	-0.06593729
57	0x3dcdec9b	0.100548945
58	0xbe080dea	-0.13286558
59	0xbd0a94b3	-0.033833217
60	0xbcafff2b	-0.021483978
61	0x3d7194da	0.058979847
62	0x3e313380	0.17304802
63	0xbec2fa4a	-0.3808158
64	0xbd49f9e3	-0.049310576
65	0x3bd628d2	0.006535628
66	0xbb0e09b3	-0.0021673262
67	0xbcf4a676	-0.029864531
68	0x34cc4c24	3.805336e-07
69	0x3e6ab223	0.22919516
70	0xb40f7710	-1.3361228e-07
71	0xbd27d69c	-0.04097615
72	0x3eb605f5	0.3555142
73	0x3df4fb31	0.119619735
74	0xbe382f14	-0.17986709
75	0xbe3f72ba	-0.18696108
76	0xbdddc582	-0.10828687
77	0x333ea555	4.438819e-08
78	0xbeae916c	-0.34095323
79	0xbe98f5d9	-0.29875067
80	0xbd4f464e	-0.050604157
81	0xbf099b5a	-0.5375267
82	0xbe85c35c	-0.2612561
83	0x3d76385a	0.060112335
84	0xbc201fef	-0.009773239
85	0xbd8bd006	-0.06826787
86	0x3d84d8e9	0.06486685
87	0xbdf0d33f	-0.11759042
88	0x3c6dc9f2	0.01451348
89	0x3e020516	0.12697253
90	0x3e789ac1	0.24277784
91	0x3e2a29ed	0.16617556
92	0x3d85204f	0.06500303
93	0xbd3a40fd	-0.045472134
94	0x3e3c7f26	0.18407878
95	0xb45a13f8	-2.0310097e-07
96	0xbe87fab9	-0.26558474
97	0x33936909	6.864327e-08
98	0xbe128842	-0.1430979
99	0x3df7cfab	0.121001564
100	0xbe9bf5ce	-0.30460972
101	0xbe926260	-0.2859068
102	0xbe2f0116	-0.17090258
103	0x3e75e8ee	0.24014637
104	0x3c57cc7e	0.013171313
105	0x3c3afaf0	0.011412367
106	0xbc9a77d6	-0.01885597
107	0xbea35131	-0.31897882
108	0x3dcfc016	0.10144059
109	0x3d94727b	0.07248398
110	0x3e29f30a	0.16596618
111	0xbe0328b0	-0.1280849
112	0x3d13f6f3	0.03612418
113	0xb4a28307	-3.0270186e-07
114	0xbe863b13	-0.26216945
115	0x36babf48	5.5655e-06
116	0x3e93a815	0.28839174
117	0xbce292d2	-0.0276579
118	0xbde4324e	-0.11142407
119	0xbea1910e	-0.3155598
120	0x3e2a7fe4	0.16650349
121	0x3e3b07a4	0.18264633
122	0x3d4ad445	0.049518842
123	0x3e8813ee	0.26577705
124	0x3d0c152d	0.034199882
125	0x3cd90f63	0.026496595
126	0x3cb63da7	0.022246195
127	0xbe079ea2	-0.13244107
128	0x3e13e6f8	0.14443576
129	0x3c473773	0.012159216
130	0x3cd39006	0.025825512
131	0x327c628c	1.46907375e-08
132	0xbd72deac	-0.059294388
133	0xbd271796	-0.040793978
134	0xbe7f5e3f	-0.24938296
135	0xbcf18502	-0.029482368
136	0x3ecfcac4	0.40584385
137	0xbe2e7f01	-0.17040636
138	0xbeaf1efd	-0.3420333
139	0xbd0c57aa	-0.03426329
140	0xbd27327c	-0.04081963
141	0xbe426722	-0.18984655
142	0xbd8c6971	-0.06856049
143	0x3e4decd6	0.20109877
144	0xbdb2ce04	-0.087307006
145	0xbe8f582c	-0.27996957
146	0xbe1f0ab6	-0.1553143
147	0x3db8e805	0.09028629
148	0xbd8ee1e7	-0.06976681
149	0x3c676d29	0.014125147
150	0x3d9bff44	0.076170474
151	0xb8fafb18	-0.00011967699
152	0x3c2d5a6c	0.01058064
153	0xbeab08d2	-0.33405167
154	0xbee869a2	-0.4539309
155	0x3d30b046	0.043136857
156	0x3e88cc3d	0.2671832
157	0x3e7476b5	0.23873408
158	0xb2c65df2	-2.3092955e-08
159	0xbc1ad1d3	-0.00944944
160	0xb2802c21	-1.4921229e-08
161	0x3db15691	0.08659089
162	0xbea67590	-0.32511568
163	0x3dc1f676	0.09470837
164	0xbca1a2f5	-0.019731024
165	0x3d50fe35	0.05102368
166	0xbd992576	-0.07477848
167	0x32a2faaf	1.897328e-08
168	0xbd3c9e2f	-0.046049293
169	0xbc3e0a81	-0.011599184
170	0xbe37d9d2	-0.17954186
171	0xbeac545b	-0.33658108
172	0xbcb808a4	-0.022465058
173	0x3e0f923a	0.14020625
174	0x3e8d5b56	0.27608746
175	0x3e4720b3	0.19446068
176	0x34d30ecd	3.9312582e-07
177	0x3d8d320a	0.0689431
178	0xbde39bcd	-0.11113701
179	0xbca872c7	-0.020562543
180	0xbd83c8fe	-0.064348206
181	0xbe158792	-0.14602497
182	0xbd782602	-0.060583122
183	0x3d8ec2aa	0.06970723
184	0xbe01352a	-0.12617937
185	0xbdcd979d	-0.100386836
186	0xbcd9878e	-0.026553895
187	0xb32ac274	-3.9758064e-08
188	0x3e4cf048	0.20013535
189	0x3e981e77	0.29710743
190	0x3e516374	0.20448095
191	0x3e43f57f	0.19136618
192	0x3e416be8	0.18888819
193	0xbe4b1f3a	-0.1983613
194	0x36afe1a6	5.2416754e-06
195	0x3dfc4166	0.12317161
196	0xba9775ad	-0.0011555456
197	0xbc0dc73f	-0.008653461
198	0xbe40250f	-0.18764137
199	0xbd9e4106	-0.07727246
200	0x3dd0a97f	0.10188579
201	0x3c283737	0.0102670705
202	0x3e82cc08	0.25546288
203	0xbc759fc1	-0.014991702
204	0x3e57cb41	0.21073629
205	0xbc3939c3	-0.011305275
206	0xbe241011	-0.16021754
207	0xbeaffb1a	-0.34371263
208	0xbcc54b7c	-0.024083845
209	0xbe059978	-0.13046825
210	0xbd29a1be	-0.041414015
211	0x3e13b28b	0.14423577
212	0x3cec2784	0.028827436
213	0xbdcb50cd	-0.09927521
214	0x3537042f	6.81789e-07
215	0xbe156ea6	-0.1459299
216	0xbec95134	-0.39319766
217	0xbe404289	-0.18775381
218	0xbc89172a	-0.016734678
219	0x3e0dd15a	0.13849393
220	0xbe7341c8	-0.23755562
221	0xbd32bff7	-0.043640103
222	0xbe24595a	-0.1604971
223	0x35925cd5	1.0904865e-06
224	0xbd7b39ae	-0.061334305
225	0x3a925abc	0.0011165957
226	0xbeec3260	-0.46132183
227	0xbd874c98	-0.06606406
228	0x3e07eb48	0.13273346
229	0xbd9bcaf6	-0.07607071
230	0xb5c5a634	-1.4726015e-06
231	0x3ebdfe5e	0.3710813
232	0x3900922d	0.00012261486
233	0x3bb049ec	0.005379906
234	0xbeac9102	-0.33704382
235	0xbd6dadf8	-0.058027238
236	0x3e493e72	0.19652727
237	0xbea2a8b3	-0.31769332
238	0x3e893487	0.26797888
239	0x3a1129ec	0.0005537558
240	0x3d6ac4f1	0.057316724
241	0xb31c7a2b	-3.643269e-08
242	0xbe10ae81	-0.14129068
243	0xbdfaca75	-0.12245647
244	0xbdb10158	-0.086428344
245	0x3d152861	0.03641546
246	0xbdf65c5f	-0.12029337
247	0x3e931fd9	0.28735235
248	0xbc04f7d4	-0.008115727
249	0x3dea930f	0.114538305
250	0xb49111de	-2.7021355e-07
251	0x3badedb9	0.0053078798
252	0xbd371631	-0.044698898
253	0xbe44b80b	-0.19210832
254	0x3e816e38	0.25279403
255	0x3e96e96e	0.29474968

fc.0.bias f4 [128]
0	0x3cccc8c5	0.024998078
1	0xbcbe0259	-0.023194479
2	0x3bb3e31e	0.005489721
3	0xbc0efac2	-0.0087267775
4	0xbce38183	-0.027771717
5	0x3c23ffa9	0.010009685
6	0xbbb041b4	-0.005378926
7	0xbcd2b06f	-0.025718896
8	0x3c4b227d	0.012398359
9	0xbbcae164	-0.0061914194
10	0x3ccb0b5e	0.024785694
11	0xbbd120c1	-0.0063820784
12	0xbc3ac718	-0.011400007
13	0xbd18d2f4	-0.037310556
14	0xbce2b36b	-0.027673444
15	0x3d318bc8	0.043346196
16	0xbcc2c242	-0.02377427
17	0xbb216b7e	-0.002463072
18	0x3bf0d396	0.0073494418
19	0xbcce3523	-0.025171822
20	0xbd0517a0	-0.032493234
21	0x3bbabe59	0.0056989607
22	0xbcd28b65	-0.025701234
23	0xbbc60e81	-0.0060442095
24	0xbcdffe77	-0.027343018
25	0xbcab09c7	-0.020878686
26	0xbcb94991	-0.022618087
27	0xba9ad480	-0.0011812598
28	0xbcceb91a	-0.025234748
29	0x3c3b6791	0.011438266
30	0x3d2a2d2d	0.04154699
31	0xba83fbf8	-0.0010069599
32	0xbcd6c53c	-0.026217096
33	0x3d2299e3	0.03969754
34	0xbcb5771b	-0.02215152
35	0x3cd14398	0.025544927
36	0x3b6e9f96	0.0036411039
37	0xbcc4e265	-0.024033735
38	0xbb272b22	-0.0025507887
39	0x3c84b30e	0.016198661
40	0x3c67cc2b	0.0141477985
41	0xbc5039de	-0.012709109
42	0xbc88789f	-0.01665908
43	0xbb5fc47c	-0.0034144213
44	0x3b9715c9	0.0046107513
45	0x3d17513b	0.0369427
46	0x3cafb802	0.021450046
47	0xbc88a4d9	-0.016680168
48	0xbc894185	-0.016754875
49	0xbbbd53fe	-0.005777835
50	0xbd142a09	-0.0361729
51	0xbd01cbb0	-0.031688392
52	0x3d12e70f	0.035864886
53	0x3ba3efaf	0.0050029377
54	0x3c7c0f9d	0.015384582
55	0x3c5675ae	0.01308958
56	0xbca213e4	-0.019784875
57	0x3d0905fd	0.033452976
58	0xbc4043f4	-0.011734951
59	0x3bbfe359	0.0058559594
60	0xbc9392fc	-0.018014424
61	0x3ca78424	0.020448752
62	0x3c6b996c	0.01437984
63	0x3caa532b	0.02079161
64	0x3b366828	0.0027833078
65	0x3c0b29da	0.008493865
66	0xbc48ed69	-0.012263634
67	0x3c99a4a0	0.018755257
68	0x3c5652d2	0.013081269
69	0xbc5cff38	-0.013488583
70	0xbc427161	-0.011867852
71	0x3d324007	0.043518092
72	0xbcda7b74	-0.026670195
73	0xbb674b8d	-0.0035292835
74	0xbc849be6	-0.01618762
75	0xbc8f104d	-0.017463828
76	0x3d253773	0.040336084
77	0xbc472366	-0.012154436
78	0xbbdd9379	-0.006761965
79	0x3ca6f382	0.020379785
80	0xbc003eba	-0.007827455
81	0xbd0e4592	-0.034734316
82	0xbd1c8e23	-0.03822149
83	0xbc37d3dc	-0.011219945
84	0xbd2da181	-0.04239035
85	0x3a2fe832	0.000671032
86	0x3c2ad07c	0.010425683
87	0x3b89fe07	0.0042111906
88	0x3c72740d	0.0147981765
89	0xbcbb022c	-0.022828184
90	0x3c2afa49	0.010435649
91	0x3cedf6b9	0.02904831
92	0xbbddfddd	-0.0067746476
93	0xbc2a5465	-0.010396098
94	0xbd16875c	-0.036750183
95	0xbce4f37e	-0.027948137
96	0xbcce949e	-0.02521735
97	0xbd3407bb	-0.043952685
98	0xbb1e6ffc	-0.0024175635
99	0xbccd9c5e	-0.025098976
100	0xbcc5aa9e	-0.024129208
101	0xbd02e6eb	-0.0319585
102	0xbb2772e7	-0.0025550665
103	0x3c5b9d17	0.013404152
104	0xbd2984b4	-0.04138632
105	0x3bba475b	0.0056847758
106	0xbb664b62	-0.0035140147
107	0x3d0adf4d	0.033904362
108	0x3c4fc8fe	0.012682198
109	0xbcbd1ba8	-0.023084477
110	0x3bb15551	0.005411782
111	0x3c24853e	0.010041533
112	0x3cfa3a92	0.030545507
113	0xbc5a7496	-0.01333346
114	0x3d4ac241	0.04950166
115	0xbcb6abb1	-0.022298666
116	0x3c5ca64a	0.013467381
117	0x3ce3fa92	0.027829442
118	0x3d25446e	0.040348463
119	0x3caf9533	0.021433448
120	0x3b4492b0	0.002999466
121	0x3d00e63a	0.03146956
122	0x3c6b0376	0.014344087
123	0xbc5c7740	-0.013456166
124	0xbb86d101	-0.0041142707
125	0x3ccb7bae	0.024839249
126	0x3cc580fb	0.024109354
127	0xbd29dd60	-0.041470885

fc.1.weight f4 [128, 128]
0	0xbdef8acd	-0.11696396
1	0xbe50287a	-0.2032794
2	0x3dd70555	0.10499064
3	0x3e1a60a3	0.15075926
4	0x3c5ba1af	0.013405248
5	0x3e114cd4	0.14189464
6	0x3d6175c4	0.05504395
7	0xbcd3a2b6	-0.025834423
8	0x3dc7ff84	0.097655326
9	0x3d06fc3b	0.03295539
10	0x3e4e35f7	0.20137773
11	0x3c055221	0.008137257
12	0x3d68f328	0.056872517
13	0xbdd042ee	-0.10169016
14	0xbe263f93	-0.16235189
15	0x3e867c88	0.26266885
16	0xbe58d4aa	-0.21174875
17	0xbe0d1ca0	-0.13780451
18	0x3e87be6c	0.26512468
19	0xbb969526	-0.0045954166
20	0xbe757456	-0.2397016
21	0x3e42de5d	0.19030137
22	0xbd94691f	-0.07246613
23	0xbec8df30	-0.3923278
24	0x3e3efa74	0.18650228
25	0xbdc6cc5e	-0.09706949
26	0xbe349ca3	-0.17637877
27	0xbd989534	-0.07450333
28	0xbd6f44a3	-0.058415066
29	0x3c775177	0.015095106
30	0x3e038bf1	0.12846352
31	0xbc2b754b	-0.010464977
32	0xbd5e9871	-0.0543446
33	0xbb33f4e7	-0.0027459206
34	0x3acabfb3	0.0015468508
35	0x3e98970b	0.29802737
36	0xbd791e0d	-0.060819674
37	0xbe5144f3	-0.20436458
38	0xbe3b0cdc	-0.18266624
39	0x3e0eef00	0.13958359
40	0x3e23c2d7	0.15992294
41	0xbda53f3b	-0.08068701
42	0x3cf59a20	0.02998072
43	0xbe175c57	-0.14781319
44	0xbc3ed775	-0.011648049
45	0x3e505cee	0.2034795
46	0x3da02db6	0.07821219
47	0xbe7c7f43	-0.24657921
48	0xbde5cf2a	-0.11221154
49	0xbd8cd452	-0.068764344
50	0xbe77c010	-0.2419436
51	0xbe22d8c0	-0.15902996
52	0x3e5dbb8d	0.21653576
53	0x3e2e8089	0.1704122
54	0x3dca36eb	0.09873756
55	0x3e3075a0	0.1723237
56	0xbda2f4ac	-0.07956824
57	0xbdedf05a	-0.11618109
58	0xbe9f9f88	-0.311764
59	0x3d8cadea	0.06869109
60	0xbdae43a4	-0.08508995
61	0xbd24a4bf	-0.040196177
62	0x3dc7ea4e	0.09761487
63	0xbd81a43d	-0.06330154
64	0x3e24d228	0.16095793
65	0xbe1ad4a3	-0.15120177
66	0xbdbbf87a	-0.091782525
67	0x3e021630	0.12703776
68	0x3c6105d2	0.013734298
69	0xbe64749e	-0.22310111
70	0xbdd3a3ba	-0.10333963
71	0x3d83461c	0.06409857
72	0xbde4be94	-0.111691624
73	0xbd26a4ab	-0.040684383
74	0xbe058dd8	-0.1304239
75	0x3ccd0c0c	0.025030158
76	0xbc92840c	-0.01788523
77	0x3b560c3f	0.0032661108
78	0xbe294ee4	-0.16534
79	0xbd777661	-0.06041563
80	0xbc912045	-0.017715583
81	0xbebeebc7	-0.3728926
82	0xbdddec48	-0.10836083
83	0x3cb9eb5a	0.022695232
84	0xbccb9add	-0.024854118
85	0xbd18b100	-0.037278175
86	0x3db61c0d	0.08892069
87	0xbdb5ec80	-0.088829994
88	0x3dbdd9f5	0.09270088
89	0xbd4a34ff	-0.049366947
90	0xbe3d1faf	-0.18469118
91	0x3d073500	0.03300953
92	0xbc2f7b03	-0.010710481
93	0xbe2302c1	-0.1591902
94	0x3e017c0e	0.1264498
95	0xbe64169a	-0.22274247
96	0x3d92a1f5	0.07159797
97	0xbdf26c6d	-0.11837087
98	0xbd9647df	-0.07337927
99	0xbebc2ae7	-0.36751482
100	0xbdbd9796	-0.09257428
101	0xbdd870ed	-0.10568414
102	0x3db111ec	0.086459965
103	0x3db9eeb2	0.09078731
104	0xbdccb213	-0.099949025
105	0x3db9269f	0.090405695
106	0x3dba3aad	0.09093223
107	0x3d7d3c62	0.061825164
108	0xbe1f1354	-0.15534717
109	0xbd4f3f02	-0.0505972
110	0x3d31b8b9	0.043389056
111	0xbe14a98d	-0.14517803
112	0x3e1b6e0c	0.15178698
113	0x3c0dd7c2	0.008657398
114	0x3df49d91	0.11944116
115	0xbc26ded3	-0.010184961
116	0xbf0f2d97	-0.5592894
117	0x3ea8b0a6	0.32947272
118	0x3e8fde0c	0.28099096
119	0x3e17f2f8	0.14838779
120	0x3d5a6fe8	0.05332938
121	0x3e107144	0.14105707
122	0xbde22f34	-0.110441595
123	0xbe6b58db	-0.22983114
124	0x3c2021d6	0.009773692
125	0xbd724b02	-0.059153564
126	0x3dba3403	0.09091952
127	0xbd759466	-0.059955977
128	0x3d97e269	0.07416231
129	0x3d6a9f33	0.05728073
130	0xbdf5df8b	-0.12005528
131	0xbd738e74	-0.059462026
132	0x3d5ce480	0.053928852
133	0x3e3026ff	0.17202376
134	0xbdfacf29	-0.12246544
135	0x3e19aa65	0.15006407
136	0xbe390a91	-0.18070437
137	0x3e4df36a	0.20112386
138	0xbe3d1e82	-0.18468669
139	0x3ccb17dd	0.024791652
140	0xbe76ac52	-0.24089172
141	0x3e2ab6f6	0.16671357
142	0x3e5462f9	0.2074088
143	0xbd9ec5d4	-0.077525765
144	0x3d9c1bef	0.076225154
145	0x3e0ca2e2	0.1373401
146	0x3ebbae37	0.36656353
147	0x3e0ac3be	0.13551232
148	0x3dba2723	0.09089496
149	0xbd12b105	-0.03581335
150	0x3d5a556d	0.053304125
151	0xbcecfcfd	-0.028929228
152	0x3e8f91c4	0.28040898
153	0xbdac302c	-0.084076256
154	0xbc199701	-0.009374381
155	0xbb5db563	-0.0033830039
156	0x3ca90c44	0.020635732
157	0xbe02300a	-0.12713638
158	0xbd2439df	-0.040094253
159	0x3d595f55	0.05306943
160	0xbe19fd40	-0.15038013
161	0xbe6ba5fd	-0.23012538
162	0x3e03d580	0.12874413
163	0xbe79d561	-0.24397804
164	0x3ccf4fe1	0.025306644
165	0xbc031364	-0.008000229
166	0xbd7eb497	-0.062183943
167	0xbcc4c1b3	-0.024018144
168	0xbd81dde6	-0.06341152
169	0x3d648b2c	0.055796787
170	0xbc2107d2	-0.009828525
171	0x3db9bb93	0.0906898
172	0x3cf0afdd	0.029380733
173	0xbe103f8f	-0.14086746
174	0xbe6fd611	-0.23421504
175	0x3e27ce2c	0.16387242
176	0x3eaf105b	0.34192166
177	0xbe096287	-0.13416491
178	0x3eaafb94	0.33395064
179	0x3e0c4db8	0.13701522
180	0x3c347391	0.011013881
181	0x3e091c42	0.13389686
182	0xbe1cfd54	-0.15331012
183	0xbe173af2	-0.1476858
184	0x3e12262d	0.14272375
185	0xbdc9ccec	-0.09853539
186	0x3e76b543	0.24092583
187	0xbd8cf022	-0.06881739
188	0x3ea4e179	0.32203272
189	0xbdb8d133	-0.090242766
190	0xbe0d677b	-0.13809006
191	0xbd726f7e	-0.05918836
192	0xbbbc8de5	-0.00575422
193	0x3e576eac	0.21038312
194	0x3e271719	0.16317405
195	0x3dc9f805	0.09861759
196	0xbea2e1ef	-0.31813
197	0x3dbb3b92	0.091422215
198	0x3ec40ae6	0.38289565
199	0xbe87000c	-0.26367223
200	0x3e2dc7f2	0.16970804
201	0x3ca61faa	0.02027877
202	0x3db3033c	0.08740851
203	0xbd611733	-0.054953765
204	0x3c2245ec	0.009904366
205	0x3e383d7b	0.17992203
206	0xbde0e9b9	-0.10982079
207	0x3ca735aa	0.020411331
208	0x3e644531	0.2229202
209	0x3e787cae	0.24266312
210	0x3e1f516c	0.15558404
211	0x3d3a6b61	0.04551256
212	0x3dd487a1	0.10377432
213	0x3e0fd4bc	0.14045995
214	0xbd8b1a61	-0.06792141
215	0x3d04602b	0.032318275
216	0xbdd331a9	-0.10312206
217	0x3dee0ff1	0.11624134
218	0x3dd34ada	0.10317011
219	0xbe3e5bfd	-0.18589778
220	0x3bf83098	0.007574152
221	0xbd2cb2d2	-0.042162724
222	0x3e65925b	0.22419111
223	0x3d968a83	0.07350638
224	0xbd446acf	-0.047953423
225	0x3d8b2198	0.06793517
226	0x3c635d34	0.013877202
227	0x3d4a81ee	0.049440317
228	0x3d8aca8e	0.067769155
229	0xbc886353	-0.016648924
230	0x3ce5fa96	0.02807359
231	0x3b7fcf64	0.0039033527
232	0x3e1035c2	0.14083007
233	0x3b011af5	0.0019699906
234	0x3e3d8d66	0.1851097
235	0xbdeedb88	-0.11662966
236	0x3dffc27d	0.124882676
237	0xbea76168	-0.32691503
238	0xbd5b8b98	-0.053599924
239	0xbd2f9289	-0.042864356
240	0xbe6d50ea	-0.23175398
241	0xbcbcce7a	-0.023047674
242	0x3d116b19	0.035502527
243	0x3e279f85	0.16369446
244	0xbcdbb590	-0.026819974
245	0xbe80a24c	-0.25123823
246	0xbca10634	-0.019656278
247	0xbe230996	-0.15921625
248	0xbc1ee955	-0.009699185
249	0xbd167087	-0.03672841
250	0x3d0e14c2	0.034687765
251	0x3e8d552d	0.27604046
252	0xbe4e2836	-0.20132527
253	0xba627c1a	-0.00086397084
254	0xbd80d214	-0.06290069
255	0x3dd0a06a	0.101868466

fc.1.bias f4 [128]
0	0x3d6c3ee9	0.057677183
1	0xbd1554b2	-0.036457725
2	0xbcda26a4	-0.026629753
3	0x3d5bee03	0.053693783
4	0xbd6ab9a1	-0.057305936
5	0x3d660963	0.056161296
6	0x3d827c3c	0.06371352
7	0x3d434599	0.047673795
8	0xbcc9f8c9	-0.024654763
9	0x3cf95591	0.030436309
10	0x3d3ee595	0.046605665
11	0xbb3bbc18	-0.0028646048
12	0xbd3f5d3c	-0.046719775
13	0x3d42888e	0.04749351
14	0xbd6b8e97	-0.05750903
15	0x3d674cd3	0.05646975
16	0x3d6f1566	0.058370017
17	0x3cd3596d	0.025799477
18	0x3d5e4d96	0.05427321
19	0x3d6c448a	0.05768255
20	0xbcd1f901	-0.02563143
21	0x3d68fc5f	0.056881305
22	0x3d417aa7	0.04723611
23	0xbd3fb986	-0.04680779
24	0x3d40ef98	0.047103494
25	0xbc81530b	-0.015786668
26	0x3d38ee3a	0.045149066
27	0xbd6005f9	-0.054693196
28	0xbbce5eba	-0.0062979134
29	0x3d6f42e9	0.05841342
30	0xbd0dcab3	-0.034617137
31	0x3d6827d9	0.056678627
32	0x3da3ae29	0.07992203
33	0xbd2f7d12	-0.042843886
34	0xbd67142e	-0.05641573
35	0x3d4b0872	0.0495686
36	0xbd4fd7cf	-0.05074292
37	0x3d00281e	0.03128826
38	0xbca77ff9	-0.020446764
39	0x3d4b1de8	0.049589068
40	0x3d680d02	0.05665303
41	0x3d742d70	0.059613645
42	0x3d109141	0.035294775
43	0xbd62b1e7	-0.055345442
44	0x3cf531eb	0.02993103
45	0x3cfe3d25	0.031035015
46	0x3d0b5828	0.03401962
47	0xbd7752b8	-0.06038162
48	0x3d1699a9	0.036767635
49	0x3d5cbf18	0.05389318
50	0xbca0ed88	-0.019644514
51	0xbd71a44a	-0.05899457
52	0x3d59f4e5	0.053212065
53	0x3d339a3e	0.04384827
54	0x3d6c0c2d	0.0576288
55	0x3cf4a8d6	0.029865663
56	0xbbea2ed4	-0.0071466956
57	0xbb45f285	-0.0030204367
58	0xbcd750a6	-0.026283573
59	0xbba7a14b	-0.005115663
60	0x3d6dc139	0.0580456
61	0xbd4785e7	-0.048711684
62	0xbd69d7df	-0.057090636
63	0xbc521c58	-0.0128241405
64	0xbc03186e	-0.00800143
65	0xbc9713ad	-0.018442
66	0x3d53b79d	0.05168878
67	0xbc9b7c1e	-0.018980082
68	0x3d2d1893	0.042259764
69	0x3d125152	0.035722084
70	0xbcf87eec	-0.030333959
71	0x3d6d9a17	0.05800828
72	0xbc977938	-0.018490419
73	0x3d4897a7	0.048972752
74	0xbc085cdf	-0.008322923
75	0xbc73f6f6	-0.014890423
76	0x3d6b3f18	0.057433218
77	0x3d3d7cff	0.046261784
78	0xbd650f24	-0.055922642
79	0x3d1d1554	0.03835042
80	0x3ce0813c	0.027405374
81	0xbd6cfe96	-0.05785998
82	0x3d7e6037	0.062103476
83	0x3d567600	0.052358627
84	0xbbb6740e	-0.005568034
85	0xbd266bd5	-0.04063018
86	0x3d4e2f0a	0.05033783
87	0xbd01a71f	-0.03165352
88	0xbc524487	-0.012833721
89	0xbcf3a84a	-0.029743332
90	0xbd6b4e8f	-0.057447966
91	0x3d6ec9c7	0.0582979
92	0xbd6fbd86	-0.058530353
93	0xbd6ed787	-0.05831101
94	0x3d68f874	0.05687757
95	0xbcf9c7ff	-0.030490873
96	0xbc1ae0eb	-0.009453039
97	0x3cef49b3	0.029209947
98	0x3d608326	0.054812573
99	0xbd6cfd51	-0.05785877
100	0x3d3f7320	0.04674065
101	0xbd4ed200	-0.05049324
102	0x3d2a049a	0.041508295
103	0xbd49a599	-0.04923019
104	0xbd701889	-0.05861715
105	0x3d56b7fd	0.05242156
106	0x3d522c39	0.051311705
107	0x3d659e70	0.0560593
108	0xbc1abbb3	-0.009444165
109	0xbc8e9222	-0.017403666
110	0xbd347016	-0.044052206
111	0xbbca1995	-0.0061676004
112	0x3d678c60	0.056530356
113	0x3d6b04e5	0.057377715
114	0x3d519853	0.05117066
115	0x3c1d5c22	0.009604486
116	0xbcf2af0a	-0.02962448
117	0x3cae5ee0	0.021285474
118	0x3d7007ec	0.058601305
119	0xbd4dc481	-0.05023623
120	0xbd67c7b1	-0.056586925
121	0xbcaf9f12	-0.021438155
122	0x3d457475	0.048206765
123	0xbd26fe1f	-0.040769693
124	0xbc2b1875	-0.010442843
125	0xbd6d9cc1	-0.05801082
126	0xbc9a232f	-0.018815605
127	0xbd33d1b9	-0.04390118

fc.2.weight f4 [1, 128]
0	0x3ecd8913	0.40143642
1	0xbee51be4	-0.4474784
2	0xbe380fb5	-0.17974742
3	0x3edf5a19	0.43623427
4	0xbea7ca5a	-0.3277157
5	0x3e53fa42	0.20700935
6	0x3e6d5e5a	0.23180524
7	0x3e53d04c	0.20684928
8	0xbed11fe4	-0.40844643
9	0x3ddecc15	0.10878769
10	0x3e4e3c4c	0.20140189
11	0x3e1b4bbf	0.15165614
12	0xbeda10a0	-0.4259081
13	0x3e88a390	0.26687288
14	0xbe94d4ea	-0.2906869
15	0x3e720b1f	0.23637055
16	0x3e9342b4	0.28761828
17	0x3e60545c	0.2190718
18	0x3db9d464	0.090737134
19	0x3ed989f6	0.42488068
20	0xbe5e614f	-0.21716808
21	0x3e5fc6ab	0.2185313
22	0x3e4a6a5c	0.19767135
23	0xbe39772b	-0.18111865
24	0x3e61d9df	0.22055767
25	0xbe352008	-0.17688
26	0x3e90b257	0.28261063
27	0xbee32ea5	-0.44371524
28	0xbeb0790d	-0.34467354
29	0x3e79df66	0.24401626
30	0xbee2c44e	-0.44290394
31	0x3e8802b4	0.26564562
32	0x3f00c88b	0.50306004
33	0xbe2a35de	-0.16622111
34	0xbe954fc7	-0.29162428
35	0x3e85d39b	0.26138005
36	0xbf19ac5f	-0.6002864
37	0x3eacbf23	0.33739576
38	0xbf19d803	-0.6009523
39	0x3e7711a9	0.2412783
40	0x3eb5bd0f	0.35495803
41	0x3e6b2880	0.22964668
42	0x3eb88974	0.36042368
43	0xbeb045b6	-0.34428185
44	0x3ec0c1ad	0.37647763
45	0x3f028c2a	0.50995123
46	0x3ef07c16	0.4696967
47	0xbe23c2f6	-0.1599234
48	0x3f068e24	0.5256064
49	0x3e889a9d	0.2668046
50	0xbe637375	-0.22212012
51	0xbe996de2	-0.29966646
52	0x3e5fff8e	0.2187483
53	0x3e182199	0.14856566
54	0x3e6c443b	0.23072903
55	0x3db54cb5	0.08852521
56	0xbec78475	-0.38968244
57	0xbe88f4b6	-0.267492
58	0xbe54d50f	-0.207844
59	0x3c03a0ef	0.008033975
60	0x3e8b6211	0.27223256
61	0xbe9dd7b8	-0.30828643
62	0xbe2eca3c	-0.17069334
63	0x3daa9580	0.08329296
64	0xbeb86c1f	-0.3601999
65	0xbea134c4	-0.3148557
66	0x3eab7441	0.33487132
67	0xbeb02b9f	-0.3440828
68	0x3f27b2a3	0.65506953
69	0x3eefce05	0.46836868
70	0xbee854d8	-0.4537723
71	0x3e92cd52	0.28672272
72	0xbe49f7bb	-0.19723408
73	0x3ea3e29a	0.3200882
74	0xbe0cd2fe	-0.13752362
75	0xbe9987fa	-0.29986554
76	0x3f0c850b	0.5489051
77	0x3eb17c1d	0.34665003
78	0xbe87290e	-0.2639851
79	0x3f09cde6	0.538298
80	0x3d887f63	0.06664922
81	0xbe502f69	-0.20330586
82	0x3e78c7ca	0.24294963
83	0x3ea8723c	0.32899654
84	0x3e783373	0.24238376
85	0xbea06b7d	-0.31332007
86	0x3eb62a7d	0.3557929
87	0xbde7a886	-0.1131144
88	0xbe82468d	-0.2544445
89	0xbeda67dc	-0.42657363
90	0xbe9b0b39	-0.30282
91	0x3e55d0bd	0.20880409
92	0xbe890d7d	-0.26768103
93	0xbeaa48ad	-0.33258572
94	0x3e77fe30	0.24218059
95	0xbe0685e2	-0.1313701
96	0xbe8cc482	-0.27493674
97	0x3e9e4f65	0.30919948
98	0x3e7ce407	0.2469636
99	0xbe8e82bf	-0.27834126
100	0x3e502026	0.20324764
101	0xbea8f6a7	-0.3300068
102	0x3ebf9a45	0.37422386
103	0xbe724d46	-0.2366229
104	0xbe91e753	-0.284968
105	0x3ec4aac4	0.38411534
106	0x3e9a7d4c	0.3017372
107	0x3e7edf48	0.24889863
108	0xbde7787f	-0.1130228
109	0xbf2c95dd	-0.67416173
110	0xbe593177	-0.21210276
111	0xbc677f23	-0.014129433
112	0x3e92f667	0.28703615
113	0x3f33eba5	0.7028144
114	0x3e963eed	0.29344884
115	0xbd8e092d	-0.06935344
116	0xbe993e88	-0.2993052
117	0x3de13cb4	0.10997906
118	0x3e88d73d	0.26726714
119	0xbea3b0ad	-0.3197073
120	0xbdcf168f	-0.101117246
121	0xbe6441fe	-0.22290799
122	0x3e5c9c3b	0.21543972
123	0xbdf0f985	-0.11766342
124	0xbe92dd1c	-0.28684318
125	0xbebff420	-0.3749094
126	0xbe307b32	-0.17234495
127	0xbf1e2914	-0.6178143
