data/task4_learned_goal.pt (torch_old, 82433 bytes, 5 tensors)

fc.0.weight f4 [128, 9]
-0.09497451 0.16565894 0.039958533 -0.20897307 -0.17489652 0.43155962 -0.15695092 0.08237078
-0.12833193 0.29365048 0.28777736 -0.01254345 -0.07863887 0.20373736 0.25159043 -0.09748292
-0.47768703 0.12936422 0.11692077 -0.17089522 -0.020270754 -0.11281326 0.040203676 -0.1988656
-0.20710258 0.037547283 0.23568247 -0.019942094 -0.17069215 -0.120375656 0.02893489 0.15895036
0.008355717 0.11074162 0.08993416 -0.08143669 -0.03141363 0.048542127 0.556617 0.11075257
0.18608864 0.312731 -0.0042304914 -0.37315914 -0.45420817 -0.4663452 0.0032600078 -0.12192443
-0.24901943 -0.22915892 -0.07256534 -0.12867877 0.17790693 0.10203177 0.23623535 -0.23672251
0.011619323 0.11471924 -0.2044667 -0.2885882 -0.04529521 -0.2180948 0.020029683 0.116317436
-0.14445285 0.06613949 -0.012514357 0.36392438 -0.048508834 0.10523066 0.10641304 -0.1456179
-0.0068821595 0.029535737 0.00848002 -0.23540652 0.1548312 -0.042931966 0.06750638 -0.15369217
0.06730896 -0.001933149 -0.20463169 -0.037472997 0.1915588 -0.1183947 -0.2992231 -0.062328003
0.069334455 -0.10230533 -0.35384405 0.11056806 -0.037589137 0.14725086 -0.0758434 0.059302583
-0.04796041 0.3543299 0.19882001 -0.06235357 -0.22225773 0.14234115 -0.15047294 -0.045190416
-0.13922732 0.10441568 0.21450256 -0.12103864 -0.16069537 0.3202386 -0.114742495 -0.047140393
-0.2590924 -0.13004902 0.22965188 0.2223253 0.039609406 0.1896668 -0.053181473 -0.08770826
0.028947799 0.016888177 0.10771091 0.0455655 -0.07063573 0.13422558 -0.6370059 -0.21670225
0.008165728 -0.4411767 -0.16297084 -0.1577571 -0.07648458 0.26793918 0.4321263 0.2908118
0.09473837 -0.1525594 0.1807018 0.17524728 -0.1482135 0.044190157 0.1690421 -0.03126079
0.266143 -0.42483175 -0.015731618 0.21347357 0.29068822 0.16576204 0.068957336 -0.06888502
-0.19904768 -0.21628508 0.32830113 -0.13279226 -0.1501429 0.1405586 -0.1658074 -0.12885095
0.39650896 0.014896219 -0.053040884 0.24501598 -0.039306775 0.16507456 -0.06019653 0.026586829
-0.054588255 0.4925421 -0.0016159924 -0.17066282 0.053021166 -0.40994734 0.13948853 0.2325621
-0.1075957 0.19804448 0.05287885 0.04665073 0.11173179 0.1889574 -0.028307168 -0.09364853
0.015845913 -0.0495562 -0.21538723 -0.026841316 -0.050661597 -0.13435876 0.03405053 0.289039
0.2677913 0.022432826 0.0117771905 -0.1625004 0.18383683 -0.05303363 0.23806976 0.20218158
0.29478145 -0.08036271 0.02935771 0.018802606 0.15101871 0.1892447 0.056902524 -0.18287444
-0.105607085 0.19322431 0.17254978 -0.27113017 0.2272914 0.12667917 0.38475928 0.14606781
-0.007801037 -0.12601931 0.060801275 -0.1788214 0.11151293 -0.017924046 -0.11094913 -0.17327732
-0.09198011 -0.04106475 0.003929207 0.03747576 0.36277506 0.050215457 -0.062095787 -0.2125698
-0.3131196 -0.019134937 -0.4494118 0.014974934 -0.020057125 -0.22322059 -0.13191366 0.08479873
-0.0004896646 0.30549437 -0.033663843 0.096906066 0.35824916 0.02927741 -0.10407388 -0.31954542
0.3145119 -0.1587856 -0.0019034828 -0.24984753 0.4961424 -0.11213631 0.372948 -0.010514661
00000000: ff81 c2bd 7fa2 293e 8fab 233d 09fd 55be
00000010: 1318 33be 62f5 dc3e beb7 20be 03b2 a83d
00000020: 7269 03be 5b59 963e 8e57 933e 0b83 4dbc
00000030: 6a0d a1bd 87a0 503e 76d0 803e 20a5 c7bd
00000040: 6593 f4be 0e78 043e 2874 ef3d 28ff 2ebe
00000050: da0e a6bc a30a e7bd 9cac 243d 6da3 4bbe
00000060: b312 54be 2ecb 193d bf56 713e 9a5d a3bc
00000070: ecc9 2ebe 8387 f6bd dd08 ed3c e2c3 223e
00000080: 6be6 083c 81cc e23d 672f b83d 48c8 a6bd
00000090: 94ab 00bd 1cd4 463d 747e 0e3f 3ed2 e23d
000000a0: 058e 3e3e 471e a03e ef9f 8abb b70e bfbe
000000b0: f98d e8be ccc4 eebe dba5 553b 84b3 f9bd
000000c0: f3fe 7ebe a3a8 6abe 239d 94bd 5ec4 03be
000000d0: 3c2d 363e 08f6 d03d aee7 713e 6367 72be
000000e0: f95e 3e3c ecf1 ea3d b85f 51be d5c1 93be
000000f0: 7887 39bd 3e54 5fbe 4a15 a43c d637 ee3d
00000100: 73eb 13be 2474 873d 0509 4dbc 4c54 ba3e
00000110: 33b1 46bd 2c83 d73d 14ef d93d dc1c 15be
00000120: bd83 e1bb eef4 f13c c8ef 0a3c 680e 71be
00000130: 128c 1e3e 6ed9 2fbd c940 8a3d 7b61 1dbe
00000140: 48d9 893d b761 fdba f88a 51be 497d 19bd
00000150: fd27 443e ec78 f2bd c533 99be a64b 7fbd
00000160: 39ff 8d3d 7585 d1bd 0c2b b5be 8271 e23d
00000170: 11f7 19bd eec8 163e c953 9bbd 44e7 723d
00000180: 2372 44bd bb6a b53e 7997 4b3e 7566 7fbd
00000190: 8897 63be e1c1 113e 9415 1abe 9619 39bd
000001a0: 9b91 0ebe e3d7 d53d 8fa6 5b3e 1be3 f7bd
000001b0: 548d 24be 50f6 a33e 1dfe eabd 4916 41bd
000001c0: c2a7 84be 922b 05be dd29 6b3e 3ea9 633e
000001d0: 793d 223d 0338 423e d1d4 59bd 63a0 b3bd
000001e0: ef23 ed3c 1359 8a3c 8a97 dc3d e4a2 3a3d
000001f0: 77a9 90bd 6e72 093e d212 23bf 32e7 5dbe
00000200: 8cc9 053c eae1 e1be d4e1 26be 148b 21be
00000210: f3a3 9cbd 532f 893e a93f dd3e 49e5 943e
00000220: 3106 c23d 8838 1cbe e509 393e 0674 333e
00000230: 48c5 17be bd00 353d 5f19 2d3e 500b 00bd
00000240: e543 883e 8c83 d9be 98df 80bc d198 5a3e
00000250: 16d5 943e 86bd 293e 8139 8d3d 9713 8dbd
00000260: 28d3 4bbe d679 5dbe 1617 a83e b2fa 07be
00000270: 0fbf 19be 98ee 0f3e 6ac9 29be 81f1 03be
00000280: 3903 cb3e 450f 743c 6641 59bd 78e5 7a3e
00000290: 2400 21bd 4e09 293e a390 76bd 9fcc d93c
000002a0: ef97 5fbd 7a2e fc3e b5cf d3ba 3cc2 2ebe
000002b0: b92c 593d 9ee4 d1be 15d6 0e3e c224 6e3e
000002c0: 225b dcbd 2ccc 4a3e 7e97 583d d614 3f3d
000002d0: a3d3 e43d 0c7e 413e 6fe4 e7bc cdca bfbd
000002e0: 4acf 813c 71fb 4abd 788e 5cbe 52e2 dbbc
000002f0: 8982 4fbd 5895 09be 9278 0b3d ebfc 933e
00000300: f11b 893e 0cc5 b73c 1ef5 403c 8166 26be
00000310: b93f 3c3e cb39 59bd 8fc8 733e b008 4f3e
00000320: 98ed 963e 3495 a4bd 957f f03c ec07 9a3c
00000330: a6a4 1a3e 5dc9 413e 9f12 693d 7043 3bbe
00000340: 8748 d8bd 98dc 453e e4b0 303e 93d1 8abe
00000350: 14bf 683e 2fb8 013e 2bff c43e cd92 153e
00000360: d79f ffbb 350b 01be c20a 793d f51c 37be
00000370: e460 e43d 73d5 92bc 4c39 e3bd 9c6f 31be
00000380: 1160 bcbd 8333 28bd 94c0 803b 2f80 193d
00000390: a7bd b93e b9ae 4d3d 2758 7ebd e6ab 59be
000003a0: 3651 a0be dfc0 9cbc 4e19 e6be 6d59 753c
000003b0: d74e a4bc f093 64be 6014 07be f5aa ad3d
000003c0: d65c 00ba c269 9c3e 19e3 09bd b076 c63d
000003d0: 6f6c b73e 2ed7 ef3c b024 d5bd 759b a3be
000003e0: b407 a13e b198 22be 497e f9ba 08d8 7fbe
000003f0: 6006 fe3e b9a7 e5bd 0af3 be3e af45 2cbc

fc.0.bias f4 [128]
-0.007144385 0.009725457 -0.016526725 -0.012113115 0.014063075 0.045211494 -0.014235141 -0.017047606
0.01702615 -0.02292329 0.025470443 0.018520057 -0.023557844 0.007580966 0.03381525 -0.017205467
-0.018630363 -0.00064007693 -0.011498039 0.005559785 -0.018269412 0.030313903 0.0064110206 -0.007638912
-0.01273792 0.018661745 -0.007909359 -0.024250617 -0.005492179 -0.01413692 0.012788935 0.018110078
0.010417351 0.019225994 0.0052419296 0.014163611 0.0054655136 -0.026871337 -0.021179141 0.02544271
0.016654536 -0.014640748 0.027539873 0.020792047 0.010527279 -0.0027689738 0.022211842 -0.010389793
0.020755656 0.025713742 0.043183435 0.033282425 -0.018552093 0.0050540403 -0.019790523 -0.0110324975
0.025139846 -0.025198665 0.024276605 -0.019964177 -0.022306718 0.031552326 0.007166613 0.012739271
0.015328545 -0.01439756 0.06894282 -0.008391202 -0.0055779195 -0.019080017 -0.014144163 0.021482408
-0.016309394 0.0061276974 -0.006941673 0.008937414 -0.004012647 -0.0010579102 0.027626537 0.04019182
-0.00958572 -0.023771426 0.0134176435 0.04860347 0.013869328 0.04261742 -0.0046196776 -0.012105268
-0.010583095 0.00888969 0.020116944 -0.010550926 -0.01070555 0.021011682 0.022920586 0.03290786
0.023021715 0.014708195 -0.0111217 0.028500574 0.045349956 0.02255372 -0.0022082732 -0.019414531
0.01563349 -0.014819542 -0.011653633 -0.0059412243 -0.030341838 0.006684437 -0.017537935 0.031854775
0.019561334 0.003492032 0.033320546 0.0284066 0.027614376 -0.008320896 0.007005981 -0.0112455925
0.045070052 0.008860523 0.0058328263 0.018739467 0.011444852 0.018194035 0.026820078 0.02662074
00000000: 721b eabb 8657 1f3c 0e63 87bc 1676 46bc
00000010: d068 663c b02f 393d 823a 69bc 6ca7 8bbc
00000020: 6d7a 8b3c a0c9 bbbc 64a7 d03c 60b7 973c
00000030: 61fc c0bc c169 f83b dc81 0a3d 7bf2 8cbc
00000040: b49e 98bc d6ca 27ba 4562 3cbc db2e b63b
00000050: bca9 95bc dd54 f83c 8a13 d23b d74f fabb
00000060: b5b2 50bc 84e0 983c 4296 01bc 3ba9 c6bc
00000070: bdf7 b3bb 8a9e 67bc ae88 513c 965b 943c
00000080: 89ad 2a3c d57f 9d3c 7ec4 ab3b 7e0e 683c
00000090: 0d18 b33b 4721 dcbc e17f adbc 3b6d d03c
000000a0: 186f 883c bfdf 6fbc 4d9b e13c 1554 aa3c
000000b0: 9c7a 2c3c ac77 35bb 9cf5 b53c f339 2abc
000000c0: c407 aa3c a0a5 d23c 1de1 303d 2753 083d
000000d0: 8ffa 97bc 5d9c a53b bc1f a2bc a6c1 34bc
000000e0: 14f2 cd3c 6e6d cebc bbdf c63c ea8b a3bc
000000f0: 94bc b6bc 033d 013d e8d5 ea3b 60b8 503c
00000100: 9424 7b3c bee3 6bbc e531 8d3d 417b 09bc
00000110: fbc6 b6bb b24d 9cbc ebbc 67bc e0fb af3c
00000120: 479b 85bc daca c83b f976 e3bb 3b6e 123c
00000130: 867c 83bb 93a9 8aba 0c51 e23c 2ea0 243d
00000140: 6c0d 1dbc 4bbc c2bc add5 5b3c 6f14 473d
00000150: 2e3c 633c 9b8f 2e3d aa60 97bb 2d55 46bc
00000160: b864 2dbc 10a6 113c 4acc a43c cbdd 2cbc
00000170: 5566 2fbc b120 ac3c f4c3 bb3c 64ca 063d
00000180: 0998 bc3c a4fa 703c ca37 36bc 097a e93c
00000190: e0c0 393d 94c2 b83c adb8 10bb 390b 9fbc
000001a0: ce11 803c aacd 72bc e1ee 3ebc 9aae c2bb
000001b0: 728f f8bc 1f09 db3b b7ab 8fbc 277a 023d
000001c0: 173f a03c 93da 643b 207b 083d f5b4 e83c
000001d0: 8b37 e23c 5e54 08bc 6e92 e53b 6f3f 38bc
000001e0: 609b 383d ba2b 113c 4b21 bf3b 8383 993c
000001f0: 3083 3b3c a80b 953c c8b5 db3c bd13 da3c

fc.1.weight f4 [128, 128]
0.10993769 0.1718205 0.081718564 0.09000256 0.14032254 0.0022440152 -0.011594378 -0.07761606
0.0002096333 0.2026888 -0.19264251 -0.05408185 -0.08199736 -0.075884774 0.11892848 0.049863953
0.01162636 0.083985575 -0.03844548 0.14943723 0.116845086 -0.0347832 0.07026509 0.09625342
0.13016935 -0.0014901558 -0.17356442 0.13635594 -0.0029080128 0.1609959 -0.066012435 -0.071340226
-0.076383926 -0.120664574 0.065696634 -0.035843145 -0.09844754 -0.08552949 -0.10203184 -0.27212435
0.04933141 0.1328869 0.03406807 -0.23772177 -0.04561942 -0.1800983 0.08427879 0.052070454
-0.10265572 0.032110278 -0.15744826 -0.14260446 0.053022414 0.008799443 0.067325935 0.115305506
-0.04469456 -0.098776035 0.15025249 0.112739526 0.07590122 0.30233598 0.19544993 0.35409847
0.15631242 -0.13172984 0.018512335 -0.053776126 0.21772401 0.18141465 -0.031653058 0.011332547
0.16482542 -0.13303237 -0.06773086 0.25847593 -0.036997896 -0.024390582 -0.08540128 -0.10498791
0.12569754 -0.22785273 -0.12291641 0.28947216 0.19895117 0.11948582 0.10967363 0.10790654
-0.13254786 -0.044013895 0.16552638 0.06251955 -0.028582338 0.19618376 -0.15535723 0.199068
0.17331308 -0.007386077 -5.4887905e-06 0.12535731 -0.08475899 -0.072372384 -0.15132515 -0.030299395
-0.19336851 0.015560133 0.112549536 -0.03456553 -0.14196053 -0.06340671 0.187823 -0.15941195
-0.17086516 0.2360098 0.03919702 0.15005122 -0.2087324 -0.059873134 0.38044336 0.12510757
0.035248857 0.16572036 0.035965506 0.016594866 0.02697202 0.008737933 0.13036121 0.056289136
0.01564008 0.115953445 0.079148434 0.0050625373 -0.0057333508 0.048122942 0.14429548 0.000111142246
-0.21045607 -0.035835665 0.003621101 0.014011696 0.0053760614 -0.18878715 0.08565115 -0.25014794
-0.050286207 0.069785796 -0.02059075 0.005786881 0.04784544 0.059837382 -0.09487679 -0.19631778
-8.102008e-05 -0.14456151 -0.050035015 -0.16244866 -0.023301424 0.05574785 -0.0026313423 0.03131651
0.13400002 -0.056885824 -0.11429356 -0.07037965 0.008446254 -0.00016662771 0.030860133 0.12873946
0.018735953 0.011275094 -0.16073574 0.030292315 0.23618063 0.018595405 -0.029261371 -0.12664817
0.01595074 0.090667 -0.00057224196 0.16513148 0.023009758 0.12647997 0.13427125 -0.11810165
-0.05073744 0.12671301 0.14971241 0.019161226 0.2603126 -0.1900112 0.31686515 -0.20363899
0.08420673 -0.02818206 0.20259799 -0.05867331 0.08886736 -0.07278059 -0.051548902 -0.1657528
-0.11651057 -0.026771292 -0.17894638 -0.193203 -0.08487938 -0.04071695 -0.059778906 0.06926425
0.057562407 0.03438143 0.057186186 -0.3281601 -0.04518373 -0.092319556 -0.098865375 0.070622526
0.03775797 -0.0025132787 -0.015529785 -0.11764188 0.012272795 0.059825722 0.05906564 -0.059691805
0.10193025 0.3746666 0.024298476 -0.06850912 0.14891201 -0.0043967287 0.22007827 -0.11271805
-0.062553 0.03957528 0.09714187 0.034938227 -0.22855842 0.027502444 -0.03634103 -0.19683269
0.0076868753 0.049354225 0.027101314 0.13076349 0.047923166 0.0023675675 -0.01995755 0.04025396
0.15047435 -0.08014403 -0.2057018 -0.011187086 0.085740894 -0.09427407 -0.072217666 0.13173798
00000000: 0327 e13d b7f1 2f3e 105c a73d 4353 b83d
00000010: b6b0 0f3e 5410 133b 59f6 3dbc 2bf5 9ebd
00000020: 03d1 5b39 a78d 4f3e 1444 45be ee84 5dbd
00000030: 3bee a7bd 7a69 9bbd c690 f33d 253e 4c3d
00000040: 7d7c 3e3c a100 ac3d 0279 1dbd 1306 193e
00000050: 7a4c ef3d d478 0ebd 25e7 8f3d 8320 c53d
00000060: 1d4b 053e 5551 c3ba dfba 31be e4a0 0b3e
00000070: 5c94 3ebb 1cdc 243e 8731 87bd d31a 92bd
00000080: 2d6f 9cbd fd1e f7bd f58b 863d 43d0 12bd
00000090: dd9e c9bd 162a afbd 12f6 d0bd e253 8bbe
000000a0: bc0f 4a3d 8113 083e f68a 0b3d 566d 73be
000000b0: 6edb 3abd b06b 38be 5c9a ac3d d447 553d
000000c0: 2a3d d2bd 1186 033d 1e3a 21be e706 12be
000000d0: 082e 593d 8a2b 103c 2ee2 893d 4b25 ec3d
000000e0: a511 37bd 174b cabd cadb 193e fbe3 e63d
000000f0: 1972 9b3d c8cb 9a3e 0724 483e 654c b53e
00000100: 5d10 203e 30e4 06be 2ea7 973c 5b44 5cbd
00000110: 0bf3 5e3e c3c4 393e a3a6 01bd 26ac 393c
00000120: ffc7 283e a339 08be 7ab6 8abd f556 843e
00000130: 1b8b 17bd c2ce c7bc dee6 aebd e703 d7bd
00000140: dbb6 003e 3a52 69be 99bb fbbd b235 943e
00000150: dbb9 4b3e fbb4 f43d 919c e03d 1bfe dc3d
00000160: a0ba 07be ea47 34bd bf7f 293e 400a 803d
00000170: 8225 eabc 65e4 483e f715 1fbe 7bd8 4b3e
00000180: fc78 313e e806 f2bb 5a2c b8b6 ab5d 003e
00000190: 1f96 adbd f937 94bd fbf4 1abe 7036 f8bc
000001a0: 6502 46be eeef 7e3c 5f80 e63d 9694 0dbd
000001b0: 1a5e 11be 61db 81bd ac54 403e e33c 23be
000001c0: 47f7 2ebe 8eac 713e 0e8d 203d 07a7 193e
000001d0: f2bd 55be 883d 75bd 79c9 c23e 331c 003e
000001e0: 1b61 103d 99b2 293e 9150 133d f5f1 873c
000001f0: 6df4 dc3c 8c29 0f3c 697d 053e 708f 663d
00000200: a01f 803c 0079 ed3d 9318 a23d a4e3 a53b
00000210: d5de bbbb 901c 453d 32c2 133e 0a15 e938
00000220: cc81 57be 6bc8 12bd fe4f 6d3b 5091 653c
00000230: ac29 b03b 6b51 41be df69 af3d 6413 80be
00000240: e9f8 4dbd dbeb 8e3d efad a8bc e09f bd3b
00000250: 95f9 433d 0b18 753d c34e c2bd 8707 49be
00000260: 53e9 a9b8 ef07 14be 84f1 4cbd f158 26be
00000270: a1e2 bebc dc57 643d 9972 2cbb be45 003d
00000280: 4d37 093e 1c01 69bd be12 eabd 3523 90bd
00000290: 2862 0a3c c9b8 2eb9 64ce fc3c 47d4 033e
000002a0: 247c 993c 2cbb 383c e997 24be 9727 f83c
000002b0: 56d9 713e 6455 983c 8bb5 efbc 0fb0 01be
000002c0: 20ab 823c 9faf b93d 8202 16ba 3a18 293e
000002d0: f67e bc3c f783 013e 677e 093e 47df f1bd
000002e0: 10d2 4fbd 0ec1 013e 364e 193e 01f8 9c3c
000002f0: b147 853e 4c92 42be 263c a23e bd86 50be
00000300: 9474 ac3d 10de e6bc d975 4f3e 6d53 70bd
00000310: 1700 b63d fd0d 95bd f124 53bd 1abb 29be
00000320: 189d eebd 784f dbbc b83d 37be 02d7 45be
00000330: 3ed5 adbd d1c6 26bd bada 74bd 6ada 8d3d
00000340: 8fc6 6b3d 8bd3 0c3d 103c 6a3d 9a04 a8be
00000350: 9312 39bd 0912 bdbd ee79 cabd 8ba2 903d
00000360: 1aa8 1a3d d2b5 24bb a470 7ebc 3aee f0bd
00000370: d513 493c d10b 753d d0ee 713d 657f 74bd
00000380: cfc0 d03d 4dd4 bf3e 990d c73c 824e 8cbd
00000390: 647c 183e 6f12 90bb 335c 613e b9d8 e6bd
000003a0: ca1b 80bd b019 223d 51f2 c63d 631b 0f3d
000003b0: 380b 6abe ce4c e13c 55da 14bd 828e 49be
000003c0: 2fe2 fb3b a827 4a3d 9303 de3c dde6 053e
000003d0: 154b 443d 3129 1b3b 047e a3bc 56e1 243d
000003e0: f315 1a3e 8e22 a4bd 7ea3 52be 0a4a 37bc
000003f0: ec98 af3d c312 c1bd dbe6 93bd 52e6 063e

fc.1.bias f4 [128]
-0.006783932 -0.018121976 0.0136238905 -0.011330956 -0.01073169 0.023122976 0.013733259 0.016870406
0.021260262 0.013884068 0.010021238 0.0051917257 0.026481891 0.014172926 -0.021140113 0.028924746
-0.0071474276 0.025850644 0.024317302 -0.013688742 -0.0019936308 -0.010708414 0.011459433 0.034643557
0.0019540137 -0.01517005 0.012497216 -0.0118094925 0.018404134 -0.009171669 0.032087598 -0.008887599
0.03195699 0.021160392 0.014225964 -0.01141574 0.015306474 0.01225137 0.036300603 0.020748667
0.007427153 0.004956953 -0.010549709 0.048009586 -0.01753714 0.040207177 0.020037936 -0.0018799017
0.016211111 0.016516713 -0.011713002 0.009924125 -0.02001513 -0.020562263 -0.016583497 -0.011462572
0.013649167 -0.007956192 -0.009794567 -0.019642467 0.02380447 -0.021707227 0.017580863 -0.02239106
-0.01923442 -0.008924503 0.030110428 0.017830633 -0.0048091803 -0.014039439 0.01763883 -0.019045852
0.030519795 0.001429386 0.036466833 -0.014085992 -0.010376488 0.0020516182 -0.00428987 -0.021079997
-0.0096859075 -0.007147614 0.012378102 -0.004262545 0.03384437 0.010149336 0.027191289 0.015981907
0.023111392 -0.013979784 0.014767821 0.018548062 0.024714813 -0.017059103 0.006456571 0.023397798
0.024446245 -0.020094423 0.014817944 -0.013447816 0.038971253 0.013861878 0.006380221 0.024001617
0.013505533 0.011628173 0.030805174 -0.017076869 0.024627222 0.025334645 0.013478041 0.025744911
-0.010705545 -0.0038259835 -0.011459775 -0.017284593 -0.012245025 0.014474408 -0.01865465 -0.02375314
-0.014473522 0.0073378775 0.0048717535 0.016409134 -0.017094659 0.013239136 0.012719803 -0.0032966086
00000000: bf4b debb 8a74 94bc bd36 5f3c 79a5 39bc
00000010: f8d3 2fbc 656c bd3c 7701 613c ce33 8a3c
00000020: 002a ae3c 007a 633c 1e30 243c 5a1f aa3b
00000030: 8df0 d83c 8f35 683c 082e adbc 97f3 ec3c
00000040: f834 eabb bbc4 d33c 1435 c73c bf46 60bc
00000050: 93a7 02bb 5872 2fbc 58c0 3b3c 67e6 0d3d
00000060: e90e 003b cd8b 78bc 20c1 4c3c 9a7c 41bc
00000070: 44c4 963c c544 16bc 496e 033d 4b9d 11bc
00000080: 55e5 023d 8f58 ad3c 0514 693c 1509 3bbc
00000090: 01c8 7a3c f8b9 483c f1af 143d 1cf9 a93c
000000a0: 7a5f f33b f06d a23b b0d8 2cbc b3a5 443d
000000b0: 0caa 8fbc 48b0 243d 9926 a43c 0967 f6ba
000000c0: 2acd 843c 0f4e 873c e4e7 3fbc cc98 223c
000000d0: c5f6 a3bc 3172 a8bc 1dda 87bc 83cd 3bbc
000000e0: c1a0 5f3c b05a 02bc 6479 20bc 3de9 a0bc
000000f0: 9801 c33c 5bd3 b1bc be05 903c 756d b7bc
00000100: 8191 9dbc 1438 12bc 25aa f63c 8c11 923c
00000110: 5496 9dbb ad05 66bc 4f7f 903c 0c06 9cbc
00000120: a604 fa3c 3c5a bb3a 3f5e 153d efc8 66bc
00000130: 2502 2abc 7174 063b 0a92 8cbb f5af acbc
00000140: a4b1 1ebc 8836 eabb 86cd 4a3c d2ac 8bbb
00000150: 65a0 0a3d 6749 263c 44c0 de3c 7dec 823c
00000160: 1a54 bd3c 770b 65bc bbf4 713c 1bf2 973c
00000170: b876 ca3c 88bf 8bbc a591 d33b bdac bf3c
00000180: 7e43 c83c 0f9d a4bc f6c6 723c 3a54 5cbc
00000190: 52a0 1f3d ee1c 633c 2c11 d13b 0a9f c43c
000001a0: 5046 5d3c 1884 3e3c 225b fc3c cae4 8bbc
000001b0: 07bf c93c 9a8a cf3c 00d3 5c3c fee6 d23c
000001c0: 4f66 2fbc 5abd 7abb c8c1 3bbc 6b98 8dbc
000001d0: 5b9f 48bc 1126 6d3c a3d1 98bc f295 c2bc
000001e0: 5a22 6dbc 9472 f03b 3ba3 9f3b 736c 863c
000001f0: 190a 8cbc f6e8 583c b866 503c ea0b 58bb

fc.2.weight f4 [1, 128]
-0.2731309 0.13183577 0.2866285 0.20428832 -0.16701028 0.1259948 0.14604133 -0.24054793
-0.1748436 0.41798514 -0.30807522 -0.22526768 0.08886942 0.25447473 -0.16312617 0.40292096
-0.39125064 0.24147151 0.16165328 -0.35920665 -0.026886376 0.2887327 -0.38151148 -0.310582
-0.17762382 0.044705834 -0.13159448 -0.15476063 0.21222843 0.13446642 -0.31956565 0.32783392
-0.32425433 0.22144985 -0.23381528 -0.13638654 -0.14582275 0.23748355 0.29092762 0.35912016
-0.06508289 -0.16469409 -0.21452495 0.2098943 -0.14475696 0.25609696 0.13786776 -0.13235725
-0.14065225 -0.09702827 0.17224732 0.22660132 -0.055861033 -0.06390888 0.08308286 -0.16411793
0.15069942 -0.04807509 0.13815698 -0.05101203 0.31049144 -0.10904471 0.33316073 -0.050569765
0.09799115 0.08436867 -0.32452437 0.15801725 -0.100879915 -0.092542104 -0.12985857 0.06538952
0.23042087 0.23094575 -0.2080833 -0.22353752 0.06590621 -0.34028453 -0.11972506 -0.09871365
0.071526326 0.27623254 0.18486921 0.29585686 0.14218286 -0.21023299 0.2928005 -0.20114438
-0.15272185 -0.23144187 0.06871187 -0.12220171 0.18140008 -0.14881577 -0.22157805 0.35317937
-0.3475255 -0.1615176 -0.27270606 0.14318706 -0.20808426 0.21043682 -0.17849807 0.22476526
0.13590828 -0.06792612 0.19385155 -0.37580138 0.5178029 0.1977815 0.31840476 -0.29505607
0.0020375745 -0.27621734 -0.1213433 0.038459968 -0.0052973176 -0.33657327 -0.008792666 0.3529878
0.04720666 -0.12045363 -0.17975713 -0.39132327 -0.34175706 0.14062554 0.06476935 -0.32849976
00000000: d0d7 8bbe f5ff 063e f9c0 923e f530 513e
00000010: be04 2bbe c804 013e dc8b 153e 3252 76be
00000020: 330a 33be 2602 d63e 09bc 9dbe 92ac 66be
00000030: 2c01 b63d 834a 823e 8c0a 27be a84b ce3e
00000040: 0152 c8be 4f44 773e 7088 253e efe9 b7be
00000050: d140 dcbc c6d4 933e 7955 c3be 9b04 9fbe
00000060: 05e3 35be 771d 373d b4c0 06be 9279 1ebe
00000070: 6952 593e 91b1 093e 1c9e a3be d9d9 a73e
00000080: aa04 a6be c0c3 623e 466d 6fbe eaa8 0bbe
00000090: 8f52 15be e32e 733e 77f4 943e 99de b73e
000000a0: 2e4a 85bd 91a5 28be 6eac 5bbe 88ee 563e
000000b0: 2b3b 14be 241f 833e 352d 0d3e a988 07be
000000c0: 2507 10be c2b6 c6bd 9a61 303e 2d0a 683e
000000d0: 8ace 64bd a9e2 82bd 5927 aa3d 880e 28be
000000e0: f350 1a3e 63ea 44bd 0679 0d3e fef1 50bd
000000f0: bcf8 9e3e d552 dfbd 0b94 aa3e 3e22 4fbd
00000100: 96af c83d 7bc9 ac3d 0f28 a6be 46cf 213e
00000110: 219a cebd b786 bdbd a5f9 04be f1ea 853d
00000120: 73f3 6b3e 0b7d 6c3e ca13 55be 05e7 64be
00000130: d6f9 863d c639 aebe 6a32 f5bd 622a cabd
00000140: 657c 923d 5a6e 8d3e 5b4e 3d3e 8d7a 973e
00000150: 6298 113e 5147 57be f2e9 953e cbf8 4dbe
00000160: 1e63 1cbe 19ff 6cbe cfb8 8c3d e444 fabd
00000170: f1c0 393e 2963 18be 5be5 62be edd3 b43e
00000180: ddee b1be df64 25be 21a0 8bbe a19f 123e
00000190: 0a14 55be c07c 573e 33c8 36be dd28 663e
000001a0: 8a2b 0b3e d91c 8bbd 0581 463e 0a69 c0be
000001b0: bb8e 043f 3c87 4a3e f305 a33e 9711 97be
000001c0: d488 053b 5c6c 8dbe d682 f8bd 3388 1d3d
000001d0: 1f95 adbb 5553 acbe 1d0f 10bc d1ba b43e
000001e0: c55b 413d 65b0 f6bd 4112 38be 865b c8be
000001f0: c8fa aebe 2400 103e cba5 843d 1f31 a8be
