data/task3_learned_goal.pt (torch_old, 80912 bytes, 6 tensors)

fc.0.weight f4 [128, 6]
0	0x3f02a196	0.5102781
1	0xbed38d7d	-0.41318884
2	0xbde7219d	-0.11285708
3	0xbe1e6ad7	-0.15470444
4	0xbe2ffef9	-0.17187108
5	0x3c98df76	0.018661242
6	0x3efa66cc	0.48906553
7	0xbeee1011	-0.46496633
8	0xbd832809	-0.064041205
9	0xbe227395	-0.15864404
10	0xbcf8a3f3	-0.030351615
11	0xba5ca026	-0.0008416198
12	0xbf597341	-0.8494149
13	0x3f06e671	0.52695376
14	0x3e0d7207	0.13813029
15	0xbe8d3274	-0.27577555
16	0xbda7fafe	-0.0820217
17	0x3e0e66ff	0.13906477
18	0x3f0504da	0.5196053
19	0xbf24da9f	-0.6439609
20	0x3d13698a	0.03598932
21	0x3d57a4d7	0.052647438
22	0x3c531e1a	0.012885595
23	0x3ba4716b	0.0050184033
24	0xbe11ea70	-0.14249587
25	0x3d5a9c0e	0.05337148
26	0x3dc7b769	0.097517796
27	0xbdc77e8e	-0.09740935
28	0xbdaa0fe7	-0.083038144
29	0xbdd0b5d2	-0.101909295
30	0x3f1238f3	0.5711815
31	0xbef23d41	-0.47312358
32	0x3e6f4ce4	0.23369175
33	0xbee0d38b	-0.43911394
34	0xbcbe0378	-0.023195013
35	0x3df8bdb2	0.121455565
36	0xbd9d08dc	-0.076677054
37	0x3de3720e	0.111057386
38	0x3d55c415	0.05218895
39	0xbd3a6f92	-0.045516558
40	0xbb0c0206	-0.002136351
41	0xbd3fc0dc	-0.046814784
42	0x3db0b7f3	0.086288355
43	0xb9036879	-0.00012532053
44	0xbd906826	-0.07051115
45	0x3ea39bd6	0.3195483
46	0x3b863302	0.004095436
47	0x3ce10996	0.027470391
48	0x3e0ad414	0.13557464
49	0x3bf1c9ab	0.007378777
50	0xbd4c81ce	-0.04992848
51	0x3d4abbd6	0.04949554
52	0x3d43b2d5	0.04777797
53	0x3e3b2de2	0.18279222
54	0x3dc9274e	0.0982195
55	0xbd647bf8	-0.05578229
56	0xbe29e069	-0.16589512
57	0x3e59cb75	0.21269019
58	0xbe6cee8d	-0.23137875
59	0x3e09dd40	0.13463306
60	0x3e68c07b	0.22729675
61	0xbed94302	-0.42433935
62	0x3e8466b8	0.25859618
63	0xbe61306d	-0.21991129
64	0xbf014ee4	-0.50511
65	0xbe409310	-0.188061
66	0x3d01f778	0.031730145
67	0x3b69e633	0.0035690188
68	0xbd843e3a	-0.06457181
69	0x3d2fb3be	0.042896025
70	0x3e7ea6c9	0.24868311
71	0x3d39302b	0.045211952
72	0x3ea29695	0.3175551
73	0xbe325bff	-0.17417906
74	0x3e51654c	0.20448798
75	0xbe640c53	-0.22270326
76	0xbddf8b62	-0.10915257
77	0xbd9fa58b	-0.07795247
78	0x3e1faaf4	0.15592557
79	0xbbd68bae	-0.006547413
80	0xbe171bff	-0.14756773
81	0x3e6cdb03	0.23130421
82	0xbe92f0ce	-0.28699344
83	0x3cfede8d	0.03111198
84	0x3eeaa523	0.45829114
85	0xbf465089	-0.77466637
86	0x3e0e5a8f	0.13901733
87	0xbddea9d1	-0.10872234
88	0xbefac757	-0.4898021
89	0xbd9d289a	-0.0767376
90	0xbf2295aa	-0.6350962
91	0x3ed6d399	0.4195831
92	0x3e98d1cc	0.29847562
93	0xbdafee19	-0.085903354
94	0xbe8cd3ea	-0.27505428
95	0xbe01e469	-0.12684788
96	0x3e72ea19	0.23722114
97	0xbefebf77	-0.4975545
98	0x3e95e489	0.2927592
99	0xbec5cc0c	-0.38632238
100	0xbe5cab22	-0.21549657
101	0xbdebfde6	-0.11523037
102	0x3e82760b	0.25480685
103	0xbe191193	-0.1494811
104	0xbd0a3b7a	-0.033748128
105	0x3d8ce51d	0.068796374
106	0xbdcf8ac1	-0.10133887
107	0x3dca4372	0.098761454
108	0x3ed9c80b	0.42535433
109	0xbef5cd22	-0.48008066
110	0x3f0efd62	0.5585538
111	0xbe8c96ca	-0.27458793
112	0xbdfaa5ea	-0.12238677
113	0x3ce11185	0.027474174
114	0x3e82a968	0.25519872
115	0x3ab0dcfd	0.0013493594
116	0xbd452301	-0.048129085
117	0x3e00b719	0.12569846
118	0x3b85b289	0.004080121
119	0x3d6332c3	0.055468332
120	0xbf172dc9	-0.5905424
121	0x3ed48458	0.4150722
122	0x3e33cece	0.17559358
123	0xbe9dd72d	-0.3082823
124	0xbdbd2356	-0.092352554
125	0xbe33534b	-0.17512242
126	0x3e466d60	0.19377661
127	0xbf22d7f5	-0.63610774
128	0x3ed2c5cb	0.4116653
129	0xbe3354bf	-0.17512797
130	0xbdd46819	-0.103714176
131	0xbd893297	-0.06699102
132	0x3e504b47	0.20341216
133	0xbed878de	-0.42279714
134	0x3e898480	0.26858902
135	0xbe9075f2	-0.28214985
136	0xbeae09bc	-0.33991802
137	0xbbb71278	-0.0055869184
138	0xbdfe8f17	-0.12429636
139	0x3cd6c47a	0.026216734
140	0x3d90d7d0	0.07072413
141	0xbd8d6bdd	-0.06905339
142	0xbd4e5788	-0.050376445
143	0xbd403566	-0.046925925
144	0x3dc071d7	0.09396713
145	0xbd319497	-0.043354597
146	0xbd14a7c5	-0.03629281
147	0x3de80fa2	0.11331107
148	0x3d0f77c9	0.035026345
149	0x3e545e24	0.20739037
150	0x3e86dc1b	0.26339802
151	0xbcd8a92a	-0.026447851
152	0xbdb2fcdc	-0.08739635
153	0x3d5d81d3	0.05407889
154	0x3d57fb88	0.052730113
155	0xbd788235	-0.06067105
156	0xbf41a569	-0.7564302
157	0x3ee5e52d	0.4490141
158	0x3ea72c5f	0.3265104
159	0xbe0080a5	-0.12549074
160	0xbe9fa219	-0.31178358
161	0xbd70bb18	-0.058772177
162	0xbf205a62	-0.62637913
163	0x3ed91956	0.42402142
164	0x3e681e01	0.22667696
165	0xbdb0cdb8	-0.08632988
166	0xbe4f39a0	-0.20236826
167	0xbe0b3e0f	-0.13597892
168	0xbeb79461	-0.35855392
169	0x3e0798ea	0.13241926
170	0x3e2ba85c	0.16763443
171	0xbd93e404	-0.07221225
172	0xbe23edc2	-0.16008666
173	0xbd847801	-0.064682014
174	0x3dd54d47	0.1041513
175	0x3bab0ffe	0.0052204123
176	0xbd5351f1	-0.051591817
177	0x3e0ed2b1	0.1394756
178	0x3d78bf94	0.06072958
179	0x3d3a7931	0.045525733
180	0xbb3f2245	-0.0029164713
181	0x3e4d0350	0.20020795
182	0xbcbd9066	-0.023140144
183	0x3c72209e	0.014778284
184	0x3da904b1	0.08252848
185	0xbbb7255c	-0.0055891704
186	0x3e8190d9	0.25305822
187	0xba3b52e2	-0.00071458344
188	0xbd87425f	-0.06604456
189	0x3d813c32	0.063103095
190	0x3d209982	0.039208896
191	0x3d2b5717	0.041831102
192	0x3edb8407	0.42874166
193	0xbe907fa2	-0.28222376
194	0x3e56204c	0.20910758
195	0xbee6de65	-0.4509155
196	0xbe02a3c2	-0.12757781
197	0xbd93f5df	-0.072246306
198	0x3eb0f7a6	0.3456394
199	0xbed84491	-0.42239812
200	0xbd6b2a53	-0.05741341
201	0xbdafb8a7	-0.085801415
202	0xbda86c75	-0.082238115
203	0x3c9c9cc9	0.01911773
204	0x3f25e0ce	0.6479615
205	0xbf3b2cc8	-0.73115206
206	0x3ed9048a	0.42386276
207	0xbdbfadd4	-0.09359327
208	0xbcfd51db	-0.03092282
209	0xbcfe6824	-0.031055517
210	0x3f11dafa	0.56974757
211	0xbf11d97b	-0.56972474
212	0x3da40b1d	0.08009932
213	0x3dd1b9b8	0.10240501
214	0xbcdbc14c	-0.02682557
215	0xbc2b5fde	-0.010459868
216	0xbec7cd12	-0.39023644
217	0x3ed6f1c7	0.41981336
218	0x3ed75486	0.42056674
219	0xbe1166da	-0.14199391
220	0x3dffe896	0.12495534
221	0xbe69d29c	-0.22834247
222	0xbeff07bc	-0.49810588
223	0x3eba5fc3	0.36401185
224	0x3e1e73ca	0.15473858
225	0xbe80019d	-0.2500123
226	0xbcb890ea	-0.022530038
227	0xbdf6df51	-0.12054313
228	0x3da6334a	0.08115251
229	0xbcef543e	-0.029214974
230	0xbdf5d106	-0.12002759
231	0x3cedbf7a	0.029021967
232	0x3d108bdb	0.035289627
233	0x3ce70c75	0.028204182
234	0x3dd3224a	0.103092745
235	0xbac16af2	-0.0014756604
236	0xbd2d8fe3	-0.04237355
237	0x3dbf6a86	0.093464896
238	0x3d2b1d81	0.041776184
239	0x3d257eac	0.040404007
240	0xbf0a9f22	-0.5414907
241	0x3e915576	0.28385514
242	0x3ea2154e	0.3165688
243	0xbdf98c48	-0.1218496
244	0xbd856b35	-0.06514589
245	0xbe6a8ff3	-0.22906475
246	0x3f08ec61	0.53485686
247	0xbeaadafa	-0.3337019
248	0x3f14840d	0.58013994
249	0x3d258eb2	0.040419288
250	0xbe42d23a	-0.19025508
251	0xbd41d55e	-0.047322623
252	0xbf2cf51f	-0.67561525
253	0x3e598be3	0.21244769
254	0xbd270960	-0.040780425
255	0xbe11c929	-0.14236893

fc.0.bias f4 [128]
0	0x3cd45881	0.025921108
1	0x3d6f7d94	0.05846937
2	0x3e39d43a	0.18147364
3	0x3d257fb5	0.040404994
4	0x3dcb025e	0.09912561
5	0x3de72f79	0.112883516
6	0x3d62527b	0.05525444
7	0xbcc2d8e5	-0.023785064
8	0xbd7394cb	-0.059468072
9	0xbd4241a0	-0.047425866
10	0x3e30dba0	0.1727128
11	0xbd445054	-0.04792817
12	0x3e13e03b	0.14441006
13	0xbd43262a	-0.047643818
14	0x3de2e234	0.11078301
15	0x3df01c93	0.117242
16	0x3e252b43	0.16129784
17	0xbd0693d3	-0.03285582
18	0x3e0b36a8	0.13595068
19	0xbd4c970f	-0.04994875
20	0x3e4b49d2	0.19852379
21	0x3e048014	0.12939483
22	0x3e38b818	0.18038976
23	0x3d94a19f	0.07257389
24	0xbd14cb23	-0.03632654
25	0xbd88d3f4	-0.06681052
26	0x3e52d249	0.2058803
27	0x3e1f642a	0.15565553
28	0x3e298388	0.16554081
29	0xbd57bd82	-0.052670963
30	0xbc6eab56	-0.014567217
31	0xbd24ceb1	-0.04023618
32	0x3e16965f	0.147058
33	0x3cc978e8	0.024593785
34	0x3d490b7e	0.049083225
35	0x3d3e710d	0.046494532
36	0x3e0562ca	0.13025966
37	0x3e1a9e43	0.15099435
38	0xbceb4949	-0.028721469
39	0xbd46c68d	-0.048529197
40	0x3e376e71	0.17913224
41	0x3ddc4554	0.10755411
42	0x3e13d7c6	0.1443778
43	0x3d06389a	0.032768823
44	0x3dd9fca7	0.10643893
45	0x3e260103	0.16211323
46	0xbd29f01a	-0.041488744
47	0xbd5081c8	-0.05090502
48	0x3e1d36eb	0.15352981
49	0x3e3280cb	0.17431943
50	0x3de8b868	0.11363298
51	0x3ced93ed	0.0290012
52	0xbc400c8b	-0.0117217405
53	0x3dce2884	0.100663215
54	0xbd1c0a48	-0.038095742
55	0x3dd71392	0.105017796
56	0xbd7a28ee	-0.06107419
57	0xbd0f1973	-0.03493638
58	0xbd1f8b56	-0.03895124
59	0x3d1a30c3	0.03764416
60	0x3e3019bb	0.17197315
61	0x3e3aed0c	0.18254489
62	0x3e304c12	0.17216519
63	0xbd0a9dd8	-0.033841938
64	0xbd5e720f	-0.054307994
65	0x3da08a96	0.07838933
66	0x3da4b00f	0.08041393
67	0x3e1119f0	0.1417005
68	0x3d66bb16	0.056330763
69	0xbd6368bd	-0.055519808
70	0x3e17ad5e	0.14812228
71	0x3e187f64	0.14892346
72	0x3db24c6a	0.08705981
73	0x3e16a192	0.14710072
74	0x3e103674	0.14083272
75	0x3d1a32f7	0.03764626
76	0xbc813bfb	-0.015775671
77	0xbd2da833	-0.042396735
78	0x3d82c2c5	0.063848056
79	0x3db79e16	0.089656994
80	0x3e27db8d	0.16392346
81	0x3de46063	0.11151197
82	0x3e08556d	0.13313837
83	0xbd461629	-0.048360977
84	0xbd35a2af	-0.0443446
85	0x3d375631	0.044759933
86	0xbd65c3ce	-0.056094937
87	0xbd64f91e	-0.05590164
88	0x3da77d5e	0.08178209
89	0x3df7340d	0.12070475
90	0xbd370605	-0.044683475
91	0xbcf7cb67	-0.030248357
92	0x3e0bf641	0.13668157
93	0xbd2324c7	-0.039829995
94	0xbd8979e3	-0.06712701
95	0x3e0b43d6	0.13600096
96	0xbd793e73	-0.06085057
97	0x3c99b46e	0.018762793
98	0xbd24a8e4	-0.04020013
99	0x3e1de2e1	0.15418579
100	0x3e0c5d0b	0.13707368
101	0x3e1a982a	0.15097108
102	0x3e082f61	0.13299324
103	0x3d383695	0.04497393
104	0xbd6252c8	-0.055254728
105	0x3d550aa0	0.052012086
106	0x3e890469	0.26761177
107	0x3e91af2d	0.2845396
108	0x3e24bc0d	0.1608736
109	0x3d46e557	0.04855856
110	0x3e17f2d6	0.14838728
111	0xbd867d95	-0.065669216
112	0x3e13e36c	0.14442223
113	0x3e1063a4	0.1410051
114	0x3dc6290a	0.09675796
115	0x3e6df0ca	0.23236385
116	0x3e23583d	0.15951629
117	0xbd525dfe	-0.05135917
118	0x3e09a076	0.13440117
119	0x3e0e943e	0.13923737
120	0x3d89e9ab	0.06734022
121	0x3e1e7c0f	0.15477012
122	0x3df5e39f	0.12006306
123	0xbc023e1a	-0.0079493765
124	0x3e1d106a	0.15338293
125	0x3ce41364	0.027841277
126	0xbd879825	-0.06620816
127	0xbca70e11	-0.02039245

fc.1.weight f4 [128, 128]
0	0xbea00037	-0.31250164
1	0xbe642126	-0.2227827
2	0x3ecd49f4	0.40095484
3	0xbe15648a	-0.14589134
4	0x3e059aed	0.13047381
5	0xbcc2cc0b	-0.023778936
6	0x3dcbb071	0.09945763
7	0xbdb477e3	-0.08811929
8	0xbdbe7213	-0.09299102
9	0xbdbd67dd	-0.09248326
10	0x3e0a9b5e	0.1353583
11	0xbe0a7aa3	-0.13523345
12	0x3e3644bc	0.17799658
13	0xbdbd1ff5	-0.09234611
14	0x3c8fac16	0.017538112
15	0x3eb15481	0.34634784
16	0x3e1d0931	0.15335537
17	0xbe7976ec	-0.24361771
18	0x3daeb6d0	0.085309625
19	0xbd8bbf55	-0.06823603
20	0x3ecba52f	0.39774463
21	0x3c993afa	0.01870488
22	0x3e5f22c1	0.21790601
23	0x3dece87e	0.11567782
24	0xbdc1ebd9	-0.094688125
25	0xbdcb4d5e	-0.09926866
26	0x3ed740a0	0.42041492
27	0x3eb5f942	0.3554173
28	0x3e7f1ce7	0.24913369
29	0xbdb581d6	-0.08862655
30	0xbd12125a	-0.035662033
31	0xbdcf07ba	-0.101088956
32	0x3e0b75da	0.13619176
33	0xbe06daed	-0.13169451
34	0xbdb556eb	-0.08854469
35	0xbd9f70e4	-0.07785204
36	0x3e9c37a5	0.30511203
37	0x3ef60f7d	0.48058692
38	0xbdc379b1	-0.09544695
39	0xbdbb2f10	-0.09139836
40	0x3ecaeed1	0.39635327
41	0x3cca5958	0.024700806
42	0x3eab2384	0.33425534
43	0x3e3676b3	0.17818718
44	0x3ed107f0	0.40826368
45	0x3e073fbd	0.13207908
46	0xbdc45d8d	-0.09588156
47	0xbdb500b4	-0.08838025
48	0x3e8b29d2	0.27180344
49	0x3ecf3fab	0.40478262
50	0xbda0e720	-0.078565836
51	0xbed15c05	-0.40890518
52	0xbd4679ff	-0.04845619
53	0xbe427c42	-0.18992713
54	0xbdb5baaf	-0.08873498
55	0xbcf8719a	-0.030327607
56	0xbdcf26fd	-0.10114858
57	0xbd9befc2	-0.076140895
58	0xbda1012b	-0.07861551
59	0xbe6c1965	-0.23056562
60	0x3eead69f	0.45866868
61	0x3e8a278a	0.2698329
62	0x3ee18797	0.4404876
63	0xbdad814d	-0.08471928
64	0xbdb49c4e	-0.08818875
65	0x3d3f1c21	0.046657685
66	0x3d85b917	0.06529444
67	0x3da6f06c	0.081513256
68	0x3dc18e0e	0.09450923
69	0xbdb5ddcc	-0.08880195
70	0x3e34a02a	0.17639223
71	0x3ebc25df	0.36747643
72	0xbc903f60	-0.017608345
73	0xbcef1b59	-0.029187845
74	0x3e0448b3	0.12918358
75	0x3da9c28c	0.0828906
76	0xbe2930e0	-0.1652255
77	0xbe1bf8d4	-0.15231639
78	0x3dcb3ef0	0.09924114
79	0xbe0947e1	-0.13406326
80	0x3e81679b	0.25274357
81	0xbd53ccfd	-0.051709164
82	0xbc39e3aa	-0.011345783
83	0xbdb555d5	-0.08854262
84	0xbdb161f4	-0.08661261
85	0xbe3586d9	-0.17727222
86	0xbc8649b0	-0.016392559
87	0xbda98a03	-0.08278277
88	0xbce04a8b	-0.027379295
89	0xbd3a601c	-0.045501813
90	0xbdb55dba	-0.088557675
91	0xbdaf5838	-0.08561748
92	0x3e9ed1c1	0.31019405
93	0xbdf1f3a2	-0.118140474
94	0xbdb6646f	-0.08905875
95	0x3ef467fb	0.4773558
96	0xbd9a8e30	-0.07546651
97	0xbd9fa3a0	-0.07794881
98	0xbdb77061	-0.089569815
99	0x3ecfd3dd	0.40591326
100	0x3caeff69	0.021362023
101	0x3eb0a775	0.3450276
102	0x3e5f5757	0.21810661
103	0xbe7fa74d	-0.24966164
104	0xbdf94764	-0.1217182
105	0xbdfc4c0b	-0.123191915
106	0x3e2791a7	0.16364156
107	0x3e597a77	0.21238123
108	0x3ea62e5e	0.3245725
109	0xbea2bda0	-0.31785297
110	0x3ee30f7d	0.44347754
111	0xbdbf3c50	-0.093376756
112	0x3d62510b	0.05525307
113	0x3ed12ee0	0.40856075
114	0x3cd5603f	0.02604687
115	0x3e5d1622	0.21590474
116	0x3db0c772	0.08631791
117	0xbdae49ac	-0.085101455
118	0xbcdb6c98	-0.02678518
119	0x3d90930b	0.07059296
120	0xbd7d4c69	-0.06184045
121	0x3d90008b	0.070313536
122	0x3cbb1119	0.022835301
123	0xbdb6cf6b	-0.089262806
124	0x3cfccb3a	0.030858625
125	0xbea31aa9	-0.31856278
126	0xbdc08dc6	-0.09402041
127	0xbe03beae	-0.12865707
128	0xbca8ab59	-0.020589517
129	0x3c94cff2	0.018165562
130	0xbdd6fd73	-0.1049756
131	0x3d5c3119	0.05375776
132	0xbdc20ff4	-0.09475699
133	0xbd409bc6	-0.047023557
134	0xbda68de2	-0.08132531
135	0x3d14f541	0.036366705
136	0x3b3abaa7	0.00284926
137	0x3c6e695c	0.014551487
138	0xbd98bf6b	-0.07458385
139	0x3c416aa1	0.0118052075
140	0xbd82585e	-0.06364511
141	0x3aef3d00	0.0018252432
142	0xbd4350d0	-0.04768449
143	0xbdd4399a	-0.10362549
144	0xbd813122	-0.063081995
145	0x3a3df58b	0.00072463666
146	0xbd8c8aa6	-0.068623826
147	0x3c197b01	0.009367705
148	0xbdd3047c	-0.1030359
149	0xbd75444f	-0.059879597
150	0xbdcb3b02	-0.09923364
151	0xbdc8672a	-0.09785302
152	0x3b224ba3	0.0024764321
153	0x3cb5c06e	0.022186484
154	0xbd851a19	-0.06499118
155	0xbdd16cc8	-0.102258265
156	0xbdcd778d	-0.10032568
157	0x3b4d4a3a	0.003132476
158	0xbc5a3568	-0.013318397
159	0xbc971692	-0.01844338
160	0xbd7f8ae1	-0.062388305
161	0x3d8a222e	0.067448005
162	0x3da8275a	0.08210631
163	0x3d4e5fac	0.05038421
164	0xbddc756f	-0.10764586
165	0xbdd247a1	-0.102675684
166	0x3ba0b9be	0.0049049547
167	0xbcc25bef	-0.023725478
168	0xbdd11d06	-0.10210614
169	0xbe04bd5f	-0.12962864
170	0xbde5d175	-0.112215914
171	0xbd9af0cb	-0.07565459
172	0xbdd24ace	-0.10268174
173	0xbd8e34ee	-0.06943689
174	0x3c2bb53d	0.010480222
175	0x3adce9b3	0.0016854316
176	0xbd903ec8	-0.070432246
177	0xbddb8e9c	-0.1072056
178	0xbd8ad128	-0.06778175
179	0x3d8d0479	0.06885619
180	0xbc4dd885	-0.012563829
181	0xbd144627	-0.036199715
182	0x3c13dac6	0.009024328
183	0xbceb22b4	-0.028703071
184	0x3c1fc87e	0.009752391
185	0x3bdb7b96	0.006698082
186	0x3c98027d	0.018555874
187	0x3be4b25a	0.006979269
188	0xbdfc807a	-0.123291925
189	0xbdd84416	-0.10559861
190	0xbdd70d5d	-0.10500596
191	0x3e0309d8	0.12796724
192	0x3c2b87e2	0.010469409
193	0xbda521e1	-0.080631025
194	0xbd3b710d	-0.04576211
195	0xbd8bce85	-0.068265
196	0x3cd8c807	0.026462568
197	0x3c3fa625	0.011697327
198	0xbdce2117	-0.10064905
199	0xbdd87bd9	-0.10570497
200	0xbd2ab2a4	-0.04167427
201	0xbd83fe0b	-0.06444939
202	0xbd75bf24	-0.05999674
203	0xbdad749c	-0.08469507
204	0x3d0713ab	0.03297774
205	0xbcb58b5a	-0.022161175
206	0x3cc87700	0.024470806
207	0xbc742e44	-0.014903609
208	0xbd709166	-0.058732413
209	0xbd069db0	-0.032865226
210	0xbd56c12f	-0.052430328
211	0x3c1e84de	0.009675233
212	0x3ad3a6c5	0.0016147724
213	0x3d577c44	0.052608743
214	0x3dd4050b	0.10352524
215	0x3c22212f	0.009895607
216	0xbd50771b	-0.050894838
217	0xbca5bd23	-0.020231789
218	0x3c437716	0.011930248
219	0x3c34c07b	0.011032219
220	0xbdd35d64	-0.10320547
221	0x3c41e81c	0.011835124
222	0x3c952daf	0.01821026
223	0xbd873317	-0.066015415
224	0x3c83ec2c	0.016103826
225	0x3d49b078	0.04924056
226	0x3bf1f1a1	0.0073835407
227	0xbd4362b6	-0.04770156
228	0xbcf7a4f2	-0.03023002
229	0xbd8bc75e	-0.06825136
230	0xbd589660	-0.052877784
231	0x3d75231c	0.059847936
232	0x3bb5f6eb	0.0055531166
233	0xbc0f581e	-0.008749036
234	0xbdc1ee65	-0.09469298
235	0xbd0a2262	-0.033724196
236	0xbdd14d45	-0.10219816
237	0x3d92cf74	0.07168475
238	0xbdd0f4f5	-0.10202972
239	0xbe2826fc	-0.16421121
240	0xbd7e347a	-0.062061764
241	0xbdd98162	-0.10620381
242	0xbd120deb	-0.035657804
243	0xbdaa3751	-0.08311332
244	0xbdb506eb	-0.0883921
245	0x3c3265a8	0.010888495
246	0xbd34b938	-0.04412195
247	0xbdd9b188	-0.106295645
248	0x3b922706	0.0044602184
249	0xbd78be5b	-0.060728412
250	0xbd4dfb24	-0.050288334
251	0x3d9fdab8	0.07805389
252	0xbd90b0f1	-0.07064999
253	0x3d15e9e0	0.036599994
254	0xbc3956a2	-0.011312159
255	0x3a62ee6a	0.0008656742

fc.1.bias f4 [128]
0	0x3e4df154	0.2011159
1	0xbdbe7083	-0.09298804
2	0x3e627b03	0.22117238
3	0x3d9cd361	0.07657505
4	0xbdc28334	-0.09497681
5	0x3e4f76df	0.2026019
6	0x3e176b32	0.14786986
7	0x3d76d312	0.060259886
8	0x3dda72c2	0.106664196
9	0x3de8055a	0.11329146
10	0xbdbdd322	-0.09268786
11	0x3dba9753	0.09110894
12	0x3da94e2f	0.082668655
13	0xbdbe17ea	-0.09281905
14	0x3dc04835	0.093887724
15	0x3e3e88c9	0.18606867
16	0x3dc70e7e	0.09719561
17	0x3d37d3a9	0.04487959
18	0x3dedbbc2	0.116080776
19	0x3de6cd88	0.11269671
20	0xbdb94ea4	-0.09048203
21	0x3dae7337	0.08518069
22	0x3e5230ac	0.2052638
23	0x3dc0f7eb	0.094222866
24	0x3d8d0411	0.06885541
25	0x3dcfc70e	0.101453885
26	0x3e56376e	0.20919582
27	0x3e3b33e2	0.1828151
28	0x3e5c0e28	0.21489775
29	0x3e7175eb	0.23580138
30	0xbe0d6c4f	-0.13810848
31	0x3e48805a	0.19580212
32	0x3e13b47e	0.14424321
33	0x3dc05783	0.093916915
34	0x3de1ffab	0.11035093
35	0x3dc72e6b	0.097256504
36	0xbdbd897b	-0.09254738
37	0x3cd00541	0.02539313
38	0x3df60c0a	0.12014015
39	0x3dbc67cd	0.09199486
40	0x3d9f333e	0.077734455
41	0x3df5ab45	0.11995558
42	0x3da36e16	0.079799816
43	0x3db7fd14	0.08983818
44	0xbdbc2114	-0.09185997
45	0x3dd8e433	0.105904005
46	0xbdb490aa	-0.08816655
47	0xbcad8aaf	-0.021184294
48	0x3db0eaa1	0.08638502
49	0xbdb66ebd	-0.089078404
50	0xbdb60bba	-0.088889554
51	0x3e45ab4b	0.19303624
52	0x3d9ce9fb	0.07661816
53	0x3df6e241	0.12054873
54	0xbdc3855c	-0.09546921
55	0x3dc86c2f	0.097862594
56	0x3e21b72f	0.15792535
57	0x3ded02dc	0.11572811
58	0x3deb8216	0.11499421
59	0x3dc9cb75	0.098532595
60	0xbdbc3898	-0.09190482
61	0x3c99deaa	0.018782932
62	0x3dd39262	0.10330655
63	0x3dde4c4d	0.10854397
64	0x3dba75f7	0.09104531
65	0x3e4c06b3	0.1992443
66	0x3e37fd09	0.17967619
67	0x3dc7f19a	0.09762879
68	0xbd916425	-0.07099179
69	0x3d000409	0.03125385
70	0x3dd21db7	0.10259574
71	0x3dca652c	0.09882578
72	0x3e576b64	0.2103706
73	0x3db8de73	0.09026804
74	0xbdaa2400	-0.08307648
75	0x3dc7da6c	0.097584575
76	0xbdbcf9da	-0.09227343
77	0xbdbd3083	-0.092377685
78	0x3ded74ae	0.115945205
79	0x3db3354a	0.087503985
80	0x3d85457a	0.06507392
81	0x3d9f5a54	0.077809006
82	0x3dbba629	0.09162552
83	0x3e416a18	0.18888128
84	0x3e3582dd	0.17725702
85	0xbe30c008	-0.17260754
86	0x3dff79c6	0.12474398
87	0x3dc432fa	0.095800355
88	0x3e39e1b8	0.18152511
89	0xbdb83027	-0.08993559
90	0x3dd3df9a	0.10345383
91	0x3db331af	0.08749711
92	0x3e30b71b	0.17257349
93	0x3c9189bd	0.017765874
94	0x3d04e5e8	0.03244582
95	0xbda0bc87	-0.07848459
96	0x3de3f230	0.11130178
97	0x3d2ead2f	0.04264563
98	0xbdbcbc1c	-0.092155665
99	0x3da8e5c8	0.08246952
100	0x3e05dfcc	0.13073653
101	0x3df07bcd	0.11742363
102	0xbdb735cc	-0.08945808
103	0x3d79d49f	0.060993787
104	0x3d13f1ea	0.03611938
105	0x3a79b5b5	0.00095256726
106	0x3e36d13b	0.17853253
107	0x3dd89d73	0.10576906
108	0x3dc010d5	0.093782105
109	0xbdb7acee	-0.089685306
110	0x3dc066c4	0.09394601
111	0x3de0222b	0.10944017
112	0xbdbfafca	-0.09359701
113	0x3e5f1c97	0.2178825
114	0x3dbf8ebe	0.09353398
115	0x3dadef45	0.08492903
116	0x3e2714e2	0.1631656
117	0x39f6dc79	0.0004708504
118	0x3e5355c0	0.2063818
119	0x3e53dd5b	0.20689909
120	0x3e5454b7	0.20735441
121	0xbdbe77e4	-0.09300211
122	0xbdb6767f	-0.0890932
123	0x3d5de502	0.054173477
124	0x3d54a954	0.051919296
125	0x3dbdf67d	0.092755295
126	0x3dbddc01	0.09270478
127	0x3d80839c	0.062751025

fc.2.weight f4 [1, 128]
0	0x3f11b926	0.5692314
1	0xbdd2bbe6	-0.10289745
2	0x3ee3ebff	0.44515988
3	0xbf075d56	-0.52876794
4	0xbee89b8f	-0.45431182
5	0x3f16a0e8	0.58839273
6	0x3f0e312d	0.55543786
7	0xbf0479b8	-0.5174823
8	0xbeefd9d4	-0.46845877
9	0xbed75fb1	-0.42065194
10	0xbdc46780	-0.095900536
11	0x3e82830b	0.25490603
12	0x3db60b41	0.08888865
13	0xbdc2d574	-0.09513369
14	0x3dc7c58d	0.09754477
15	0x3f0b842e	0.54498565
16	0xbeebf0e2	-0.46082217
17	0xbeb1e9c3	-0.3474866
18	0xbebd22e3	-0.3694068
19	0x3df005a6	0.11719827
20	0xbe48d5ba	-0.1961278
21	0xbee90750	-0.45513391
22	0x3f2e194b	0.68007344
23	0x3dc45f2c	0.09588465
24	0xbeca71f1	-0.39540055
25	0xbf0405de	-0.5157145
26	0x3f054138	0.5205264
27	0x3f42fb43	0.76164645
28	0x3eec6f62	0.46178728
29	0x3ee41efb	0.44554886
30	0xbea02d35	-0.3128449
31	0x3f00f07a	0.5036694
32	0x3ef00dbe	0.46885484
33	0x3df70f18	0.12063426
34	0xbef4aed3	-0.4778963
35	0x3dc0f3c1	0.09421492
36	0xbdc4f539	-0.09617085
37	0xbea33bb5	-0.3188149
38	0xbeb43c19	-0.352021
39	0x3de1ff80	0.11035061
40	0xbea4112f	-0.3204436
41	0xbeb91a34	-0.36152804
42	0x3dcfc581	0.10145093
43	0x3ded5436	0.115883276
44	0xbdc782d3	-0.097417496
45	0xbecd1fde	-0.40063375
46	0xbdfb0e36	-0.1225857
47	0xbe9206cf	-0.2852082
48	0xbf150608	-0.5821233
49	0xbdbee3d1	-0.09320796
50	0xbdc9dd57	-0.0985667
51	0x3f166fcd	0.58764344
52	0xbf001c1c	-0.5004289
53	0xbec5fe28	-0.38670468
54	0xbe85d846	-0.26141566
55	0xbf3245af	-0.6963758
56	0x3f03a889	0.5142904
57	0xbeae8725	-0.34087482
58	0xbf0dd736	-0.5540651
59	0xbf030ab1	-0.5118819
60	0xbde5dbac	-0.1122354
61	0x3c9fe431	0.01951799
62	0xbecf3d8f	-0.40476653
63	0xbede60b8	-0.43433166
64	0x3db7b534	0.08970109
65	0x3f04239a	0.51616824
66	0x3f013dd2	0.50484955
67	0xbef19460	-0.47183514
68	0xbdb64b03	-0.08901026
69	0xbea00afb	-0.31258377
70	0xbede4c14	-0.43417418
71	0x3e22853c	0.15871137
72	0x3ef5d22c	0.4801191
73	0x3e0216f5	0.1270407
74	0xbdbfb064	-0.09359816
75	0xbf06c009	-0.5263677
76	0xbde0fcc1	-0.10985709
77	0xbdd9fc53	-0.1064383
78	0xbef09ba6	-0.4699375
79	0xbea6f4d7	-0.32608673
80	0x3e652fae	0.2238147
81	0x3e301d4a	0.17198673
82	0x3dc423da	0.09577151
83	0x3e9d5927	0.3073208
84	0x3f05697d	0.5211409
85	0xbe9c77e0	-0.30560207
86	0xbecbe183	-0.3982049
87	0x3dba874e	0.091078386
88	0x3f5e01ec	0.8672168
89	0xbe0d11ea	-0.13776365
90	0xbee60cd8	-0.44931674
91	0x3e32a019	0.17443885
92	0x3f3a1d80	0.72701263
93	0xbe9462e7	-0.28981707
94	0xbe9dcab0	-0.308187
95	0xbdb85d63	-0.09002187
96	0xbedaa503	-0.4270402
97	0xbed302c1	-0.4121304
98	0xbddea1c1	-0.10870696
99	0x3de5e1c9	0.11224706
100	0xbebc9f3e	-0.36840242
101	0xbeb5ba07	-0.3549349
102	0xbe1638de	-0.1467013
103	0x3db9321a	0.09042759
104	0xbf015fff	-0.50537103
105	0x3bd016fa	0.0063503953
106	0x3f30acf9	0.69013935
107	0xbec6d31b	-0.38832936
108	0xbf39a489	-0.72516686
109	0xbe08073d	-0.13284011
110	0x3db2abc6	0.087241694
111	0xbf21ec1e	-0.6325091
112	0xbdca361e	-0.09873603
113	0x3efa34c3	0.4886838
114	0x3e959da3	0.2922183
115	0xbef50d25	-0.4786159
116	0x3e7e5b98	0.24839628
117	0xbed05f61	-0.40697768
118	0x3efb12ad	0.49037686
119	0x3f09dfb6	0.5385698
120	0x3ecf9d80	0.4054985
121	0xbdcd295b	-0.100176536
122	0xbdc85117	-0.09781092
123	0x3ed12290	0.40846682
124	0xbea29558	-0.31754565
125	0x3dce10ad	0.100617744
126	0x3dbe6263	0.092961095
127	0x3e83a062	0.257083

weighting.weight f4 [1, 2]
0	0x3f77d43b	0.96808213
1	0xbebeb6fc	-0.3724898
